results/1_sampling/pinn_set5_explore_LBFGS_e1000.pth (torch, 80018 bytes, 12 tensors)

hidden.0.weight f4 [64, 10]
-0.5942666 -0.28786576 0.054123484 -0.036122974 -0.05331207 -0.24589016 -0.18929103 0.24478643
-0.42087615 0.006558973 0.9398982 0.19760402 -0.03480566 0.0044142464 0.61592114 0.32082826
0.5473573 0.32347143 0.29076183 0.27217522 -0.18551224 0.09563018 -0.07937479 0.01856351
-0.043704756 -0.08778017 -0.06680643 0.13179836 -0.11503905 -0.20457417 -0.17840396 0.45198107
0.020607179 0.013204868 -0.31162778 -0.34793502 -0.4139598 -0.28972313 -0.13354962 -0.17110072
-0.36724332 -0.07204117 0.0012547071 -0.046961233 0.41605386 0.10764581 0.10264374 -0.017257752
-0.1725131 -0.30370107 -0.09573766 0.23041478 -0.14464483 -0.26087692 -0.183874 -0.2865132
-0.33060363 -0.20562564 -0.050408673 0.13289338 0.5556822 -0.34777796 0.16208176 -0.19386356
0.10511035 -0.10333834 -0.34666297 -0.15717427 0.31930065 0.031090252 0.68489957 0.62060964
0.0101396805 0.19438222 0.07532667 -0.05269481 0.1886309 0.11492271 -0.027816564 -0.16379781
0.8864666 0.090646885 -0.0011931221 -0.38201874 0.10889106 -0.046755973 0.024881473 -0.1499523
-0.09796632 0.10999217 0.55010885 -0.30637804 0.027823154 -0.18482603 -0.08611842 0.37038213
0.2621399 0.11733443 0.30731687 0.15869293 1.2851564 -0.097707555 -0.12528053 0.068785794
-0.17849079 0.007710142 -0.13276696 0.09806225 0.25461477 0.30106616 -0.7408559 0.45463315
-0.034162164 0.13371073 -0.0996224 0.10851288 0.098763265 -0.12617476 -0.14683492 -0.008331064
0.15682882 0.06623281 -0.16179153 0.063024245 0.057467923 0.20342037 0.3599149 0.3341854
0.3226094 0.013440959 0.025397277 0.091922246 -0.09557685 -0.19875379 -0.0829794 -0.24298203
0.0047736443 -0.19201782 -0.075054765 0.08699379 -3.0611558 0.049398847 0.0070632403 -0.16609034
0.14497137 -0.08900728 -0.27674273 0.017654186 -0.059157897 0.17347361 0.36984095 -0.012407499
-0.10629851 -0.14031808 0.0215154 0.01554342 0.31128082 0.24368043 0.093188085 0.12209542
0.023361828 -0.20159425 -0.09485283 0.008424681 -0.06996413 0.14605436 0.043583814 0.28887156
-0.29863983 0.17717722 -1.0277534 0.24010277 0.09096365 0.3414409 -0.16674991 0.41806504
0.097980626 0.13327737 0.2015015 0.013087131 -0.99217355 -0.03670212 -0.018998971 0.044175252
-0.13509262 0.103820905 -0.2937042 0.29586002 -0.07470537 -0.03041824 0.2349007 -0.25520515
-0.072753765 0.20297192 -0.25345016 -0.3333724 -0.40871894 -0.1319337 -0.07170087 -0.2543548
-0.46631467 0.052757405 0.112494 0.2217672 -0.18780586 0.052877605 -0.18850432 0.16305591
0.0026001832 -0.025058232 -1.030043 -0.023935813 -0.162879 0.0490514 0.3250404 0.03821343
0.09991008 0.009704803 -0.15485561 -0.20975223 0.22438985 -0.33399436 -0.053042863 0.019863037
-0.24434818 0.25135887 -0.25886327 0.0015178546 0.022150563 0.06596322 -0.1820901 -0.037537117
-0.018586809 0.09374144 -0.13806383 0.046184327 0.25313303 -0.020328522 0.20923288 0.25684068
0.5104385 0.15940246 0.08082166 -0.13907209 0.36621335 -0.2217814 -0.07966818 -0.15188311
-0.07039544 -0.24750115 -1.4905719 0.11538527 0.011642348 -0.2559445 -0.19183207 -0.034138035
00000000: db21 18bf 2463 93be 96b0 5d3d aff5 13bd
00000010: c25d 5abd a1ca 7bbe 82d5 41be 4ba9 7a3e
00000020: 147d d7be a7ec d63b 2b9d 703f b558 4a3e
00000030: 6190 0ebd 62a5 903b 02ad 1d3f 9a43 a43e
00000040: 9c1f 0c3f 0c9e a53e bcde 943e 8d5a 8b3e
00000050: ecf6 3dbe c1d9 c33d 408f a2bd 8112 983c
00000060: c203 33bd 17c6 b3bd cfd1 88bd 26f6 063e
00000070: 9899 ebbd e47b 51be 87af 36be 106a e73e
00000080: 63d0 a83c 3b59 583c ad8d 9fbe 8a24 b2be
00000090: 8af2 d3be 9756 94be 3bc1 08be 0735 2fbe
000000a0: 5107 bcbe 528a 93bd fc74 a43a 6c5a 40bd
000000b0: 0305 d53e 6875 dc3d e236 d23d 2160 8dbc
000000c0: 46a7 30be b57e 9bbe 1b12 c4bd daf1 6b3e
000000d0: c61d 14be a991 85be 7749 3cbe dcb1 92be
000000e0: e144 a9be 878f 52be 5379 4ebd 3415 083e
000000f0: 3041 0e3f f40f b2be c3f8 253e 2b84 46be
00000100: 1844 d73d 0da3 d3bd cf7d b1be 4bf2 20be
00000110: 607b a33e fcb0 fe3c 9455 2f3f 46e0 1e3f
00000120: e720 263c 220c 473e df44 9a3d 83d6 57bd
00000130: 7528 413e 995c eb3d 90df e3bc 9dba 27be
00000140: 7aef 623f 13a5 b93d 8962 9cba f697 c3be
00000150: 4702 df3d 3183 3fbd 3bd4 cb3c 198d 19be
00000160: 91a2 c8bd 9343 e13d efd3 0c3f 95dd 9cbe
00000170: 62ed e33c 0943 3dbe db5e b0bd baa2 bd3e
00000180: 3337 863e 094d f03d a358 9d3e 6680 223e
00000190: 0180 a43f e61a c8bd 8a49 00be 91df 8c3d
000001a0: 4ac6 36be 5ca5 fc3b 10f4 07be dcd4 c83d
000001b0: de5c 823e 5825 9a3e bba8 3dbf adc5 e83e
000001c0: a0ed 0bbd 77eb 083e d406 ccbd 003c de3d
000001d0: 6544 ca3d f533 01be e55b 16be 047f 08bc
000001e0: bc97 203e 11a5 873d aeac 25be db12 813d
000001f0: 7c63 6b3d 6e4d 503e c446 b83e 591a ab3e
00000200: 0f2d a53e 7837 5c3c f30d d03c bb41 bc3d
00000210: ccbd c3bd 1d86 4bbe 1bf1 a9bd 48d0 78be
00000220: 3b6c 9c3b 52a0 44be 50b6 99bd cd29 b23d
00000230: fae9 43c0 7256 4a3d c172 e73b 9613 2abe
00000240: 6073 143e 7349 b6bd 39b1 8dbe 839f 903c
00000250: 8d4f 72bd 11a3 313e cb5b bd3e d348 4bbc
00000260: 09b3 d9bd 8baf 0fbe 1041 b03c d4a9 7e3c
00000270: 3360 9f3e 5d87 793e 65d9 be3d 2a0d fa3d
00000280: 4e61 bf3c b96e 4ebe 3342 c2bd ac07 0a3c
00000290: 5b49 8fbd 468f 153e f184 323d f9e6 933e
000002a0: 52e7 98be f26d 353e 6c8d 83bf 80dd 753e
000002b0: 264b ba3d 57d1 ae3e 7dc0 2abe 9f0c d63e
000002c0: 11aa c83d dd79 083e 6956 4e3e 686b 563c
000002d0: 16ff 7dbf f654 16bd bba3 9bbc 1cf1 343d
000002e0: b855 0abe 0ea0 d43d 6660 96be f77a 973e
000002f0: 21ff 98bd ac2f f9bc cf89 703e 40aa 82be
00000300: edff 94bd dfd7 4f3e 38c4 81be caaf aabe
00000310: 9c43 d1be a119 07be e8d7 92bd cb3a 82be
00000320: ccc0 eebe 2618 583d 4163 e63d f116 633e
00000330: 2e50 40be 3096 583d 4707 41be 21f8 263e
00000340: d667 2a3b ec46 cdbc 73d8 83bf 0a15 c4bc
00000350: c1c9 26be 1fea 483d b26b a63e b085 1c3d
00000360: a89d cc3d e500 1f3c 7892 1ebe 4ac9 56be
00000370: 74c6 653e 4f01 abbe 7943 59bd cfb7 a23c
00000380: 6936 7abe 1cb2 803e ba89 84be c0f2 c63a
00000390: 1975 b53c ba17 873d d475 3abe 85c0 19bd
000003a0: 5d43 98bc 83fb bf3d 9b60 0dbe c72b 3d3d
000003b0: a79a 813e 0088 a6bc 2541 563e 9f80 833e
000003c0: 19ac 023f 663a 233e d485 a53d ea68 0ebe
000003d0: 5180 bb3e aa1a 63be 1229 a3bd 3f87 1bbe
000003e0: 7c2b 90bd f170 7dbe 0fcb bebf 1d4f ec3d
000003f0: 8cbf 3e3c 280b 83be a06f 44be 53d4 0bbd

hidden.0.bias f4 [64]
0.20185287 0.23872769 -0.13865666 0.03790331 -0.18517254 0.102766946 -0.15759744 0.39233243
-0.053683475 0.5418311 -0.14831011 -0.0855502 0.43405783 -0.41759542 -0.0478028 0.07223919
0.26937345 0.08450916 -0.29462838 -0.10400734 0.07792566 -0.19372214 0.19416423 0.2318156
0.01034353 0.14724636 0.24485578 0.35287353 0.076526485 0.3451904 0.118580565 0.3892616
-0.24920125 0.014019667 -0.107989326 0.17552675 -0.10314344 -0.04938196 -0.06191568 -0.035276767
-0.048086032 -0.13712914 -0.2573299 0.47394583 0.27326435 0.3775258 0.022975227 0.08679418
0.23001632 0.1516262 -0.08871565 -0.18567058 0.271621 0.25441512 -0.11230592 0.30658913
0.2220512 -0.2922066 -0.1650308 -0.089590006 0.051275812 0.05489555 0.07810268 -0.2901211
00000000: 85b2 4e3e 0875 743e 03fc 0dbe 8040 1b3d
00000010: df9d 3dbe 7a77 d23d 3961 21be ccdf c83e
00000020: 34e3 5bbd 71b5 0a3f 9bde 17be f134 afbd
00000030: d43c de3e 11cf d5be decc 43bd 24f2 933d
00000040: 51eb 893e 2313 ad3d 88d9 96be cd01 d5bd
00000050: 7d97 9f3d 195f 46be fdd2 463e 1261 6d3e
00000060: e977 293c c0c7 163e 79bb 7a3e d7ab b43e
00000070: ebb9 9c3d ccbc b03e 5eda f23d 4c4d c73e
00000080: 9d2e 7fbe bfb2 653c 8229 ddbd 49bd 333e
00000090: de3c d3bd bd44 4abd 4c9b 7dbd 5f7e 10bd
000000a0: dcf5 44bd 956b 0cbe bfc0 83be 07a9 f23e
000000b0: 4ee9 8b3e 104b c13e 8b36 bc3c 26c1 b13d
000000c0: 6689 6b3e e643 1b3e 8db0 b5bd 6e20 3ebe
000000d0: e811 8b3e b342 823e a500 e6bd 40f9 9c3e
000000e0: 6461 633e 1a9c 95be d6fd 28be f77a b7bd
000000f0: 9606 523d 28da 603d 4cf4 9f3d c18a 94be

hidden.1.weight f4 [64, 64]
0.044701885 0.14976683 0.028467918 0.11863191 0.0075235344 0.011169747 0.021794153 -0.09670863
-0.12905812 -0.34560508 -0.08112352 -0.08476612 -0.27764058 0.22482021 -0.15117112 -0.011232307
-0.32648265 -0.038302224 -0.04659517 -0.067389406 0.024626317 -0.15333529 -0.024545584 -0.06135706
0.052084338 -0.06480841 -0.18855244 -0.03794625 0.06735046 0.077763245 -0.018314168 -0.27471948
0.15318784 -0.27419698 -0.054124188 -0.17373662 -0.14065361 -0.06940552 0.22134268 0.28505465
0.013615406 0.18162416 -0.08735075 0.023859994 -0.04435732 -0.11036269 0.06451155 -0.0055284402
-0.030671185 -0.17048226 0.29121593 0.23485771 -0.07742383 -0.022740524 -0.04672973 -0.0986518
-0.2574884 0.1334727 0.26058778 -0.21319656 -0.031518333 -0.35859132 -0.25669006 0.106831744
-0.32297638 0.11126966 -0.046107266 -0.101516314 0.2547575 -0.13339512 -0.114679724 0.12527615
0.06299491 0.017191691 0.043269224 0.26865804 -0.23764074 0.23099323 -0.14429735 -0.013188891
-0.17377642 -0.20594764 -0.05176855 0.073516 -0.27684978 0.11375139 0.013857908 -0.14322901
0.20452835 -0.26161677 0.28361684 -0.07245786 -0.19508441 -0.040490936 -0.023371076 -0.21104388
0.17072326 -0.06378739 0.03103703 -0.15561275 0.110257864 0.13504817 0.092501566 0.25798175
-0.05030512 -0.09279813 -0.26072353 -0.049949557 -0.040703047 -0.117909566 -0.009944499 0.03214379
-0.16928484 -0.11822819 0.080760084 0.15972476 -0.08161837 0.04847464 -0.014921606 -0.16975842
-0.3595926 0.16539405 0.034727227 -0.103934765 0.13603018 0.11314491 -0.05412502 0.24809794
0.16318165 -0.06399321 -0.13847844 -0.03364892 0.22940978 0.19355167 0.1554039 -0.12445158
-0.13113347 0.17033383 0.20697592 0.04503039 -0.11642334 0.25907958 0.055186693 0.10657631
0.0703429 -0.010266625 -0.1153342 -0.07288679 -0.015729459 -0.089801215 0.0649004 0.023127029
-0.09498475 0.031211708 -0.10385048 0.14379264 -0.052505232 -0.15495071 -0.08226271 0.101202585
0.068817906 -0.048651464 -0.09349641 0.097480245 -0.0154729895 0.06738114 0.05410071 -0.21204579
-0.14700718 0.030934397 0.19702934 0.04487517 -0.0045295614 -0.106861204 0.035313804 -0.09823868
-0.08505712 -0.0072616213 -0.1597857 -0.14071676 0.14638288 -0.07442895 0.2550672 -0.17366128
0.02791838 -0.009669219 0.09233847 -0.042619873 -0.008553638 -0.10687551 -0.116213374 -0.003294306
0.07162776 -0.09801941 0.025484595 -0.0010305718 -0.15538773 0.014640147 -0.09669176 -0.34207833
-0.18919012 -0.24233602 -0.16760829 0.06951172 0.09660828 -0.040597707 0.20987636 -0.04748823
0.22532381 0.012030012 0.10761296 0.3328275 0.07067426 0.07184069 -0.20399167 0.13492382
-0.1753841 0.05452134 -0.0048017544 0.087096535 0.16552864 0.21551779 0.09066648 0.061025426
0.058283813 -0.05457127 -0.15353695 -0.22059949 -0.09912751 -0.03019173 0.034281936 -0.011228648
-0.021048283 0.007865807 -0.011005127 0.14118534 -0.02321792 0.2479371 0.05458713 0.037965115
0.06873773 0.14340164 0.20497562 -0.1435554 -0.17879848 -0.00060002273 0.31113663 0.08231172
-0.11281253 0.21081954 0.01391393 0.12169359 -0.032820437 0.16633356 0.2618919 -0.13298158
00000000: 5319 373d 7a5c 193e 8d35 e93c 49f5 f23d
00000010: fb87 f63b 5101 373c a789 b23c 2d0f c6bd
00000020: d027 04be 26f3 b0be 1724 a6bd dc99 adbd
00000030: e826 8ebe 4537 663e 9acc 1abe b607 38bc
00000040: bc28 a7be cbe2 1cbd 94da 3ebd 7503 8abd
00000050: 21bd c93c ed03 1dbe d213 c9bc 8a51 7bbd
00000060: 6356 553d 46ba 84bd e413 41be 876d 1bbd
00000070: 0aef 893d 5642 9f3d 9807 96bc 08a8 8cbe
00000080: 46dd 1c3e 8c63 8cbe 53b1 5dbd 03e8 31be
00000090: 8007 10be 7b24 8ebd a8a7 623e aff2 913e
000000a0: 2713 5f3c affb 393e f3e4 b2bd 0976 c33c
000000b0: 05b0 35bd d605 e2bd a21e 843d eb27 b5bb
000000c0: 2342 fbbc e792 2ebe 411a 953e 8a7e 703e
000000d0: 6390 9ebd 564a babc ac67 3fbd f409 cabd
000000e0: 85d5 83be 11ad 083e c36b 853e 3350 5abe
000000f0: 5e19 01bd 4899 b7be e16c 83be 9aca da3d
00000100: 295d a5be 59e1 e33d f9da 3cbd c9e7 cfbd
00000110: 936f 823e bb98 08be 34dd eabd 6448 003e
00000120: 7a03 813d 97d5 8c3c 123b 313d 8c8d 893e
00000130: 1858 73be 7d89 6c3e afc2 13be 3816 58bc
00000140: 72f2 31be f0e3 52be 420b 54bd 8e8f 963d
00000150: 41bf 8dbe 7df6 e83d 470c 633c a0aa 12be
00000160: e16f 513e a2f2 85be 3a36 913e c964 94bd
00000170: 35c4 47be d3d9 25bd b374 bfbc e31b 58be
00000180: 14d2 2e3e f7a2 82bd 5f41 fe3c f358 1fbe
00000190: e0ce e13d 114a 0a3e 7671 bd3d 2f16 843e
000001a0: be0c 4ebd f20c bebd 8e7d 85be e897 4cbd
000001b0: 3db8 26bd 927a f1bd 40ee 22bc 35a9 033d
000001c0: 0159 2dbe 9f21 f2bd 8b65 a53d e38e 233e
000001d0: 8827 a7bd 588d 463d c079 74bc 27d5 2dbe
000001e0: 851c b8be 0f5d 293e 233e 0e3d c0db d4bd
000001f0: 7f4b 0b3e 85b8 e73d 32b2 5dbd 630d 7e3e
00000200: 1719 273e df0e 83bd 4bcd 0dbe 73d3 09bd
00000210: 66ea 6a3e 6932 463e 3322 1f3e 78e0 febd
00000220: da47 06be fe6b 2e3e 7ff1 533e c971 383d
00000230: 5c6f eebd 14a6 843e 710b 623d ae44 da3d
00000240: f00f 903d 5935 28bc 5634 ecbd ab45 95bd
00000250: 11db 80bc b3e9 b7bd 80ea 843d e574 bd3c
00000260: 5d87 c2bd b2af ff3c 8faf d4bd 613e 133e
00000270: ba0f 57bd 66ab 1ebe 5a79 a8bd 4d43 cf3d
00000280: 67f0 8c3d c246 47bd 0c7b bfbd b9a3 c73d
00000290: 6c82 7dbc 20ff 893d b598 5d3d 8822 59be
000002a0: 0d89 16be 226a fd3c 0fc2 493e 07cf 373d
000002b0: b76c 94bb 0cda dabd 35a5 103d 5c31 c9bd
000002c0: 6d32 aebd e5f2 edbb dd9e 23be 0e18 10be
000002d0: 65e5 153e 356e 98bd 2b98 823e 43d4 31be
000002e0: 16b5 e43c a56b 1ebc f41b bd3d 2d92 2ebd
000002f0: 8f24 0cbc 8ce1 dabd 4701 eebd 49e5 57bb
00000300: 93b1 923d 67be c8bd 12c5 d03c 4014 87ba
00000310: f61d 1fbe 3add 6f3c 5406 c6bd e424 afbe
00000320: 0ebb 41be ef26 78be 82a1 2bbe 295c 8e3d
00000330: 90da c53d c849 26bd d4e9 563e 0583 42bd
00000340: 49bb 663e 8719 453c 2f64 dc3d 5e68 aa3e
00000350: abbd 903d 3621 933d 31e3 50be 7829 0a3e
00000360: e497 33be c551 5f3d 0958 9dbb ab5f b23d
00000370: 5780 293e b2b0 5c3e 59af b93d ccf5 793d
00000380: 02bb 6e3d 2086 5fbd ca38 1dbe d5e4 61be
00000390: 5d03 cbbd a654 f7bc 376b 0c3d 5df8 37bc
000003a0: 736d acbc 96df 003c d94e 34bc e492 103e
000003b0: 8233 bebc 39e3 7d3e c196 5f3d 4f81 1b3d
000003c0: 5ec6 8c3d e1d7 123e 21e5 513e 3000 13be
000003d0: f316 37be d84a 1dba 4d4d 9f3e 0c93 a83d
000003e0: 410a e7bd 14e1 573e 41f7 633c 7d3a f93d
000003f0: b96e 06bd 5853 2a3e b216 863e 532c 08be

hidden.1.bias f4 [64]
-0.2269481 -0.24877465 -0.08789503 -0.10487125 -0.12942025 -0.14721353 0.13828221 -0.0005003428
0.11911221 0.044652104 0.1849138 0.28563002 0.12979321 -0.34735468 0.00062373135 -0.16878389
-0.3317272 -0.075526536 0.21528985 -0.14981443 0.21406858 0.23014581 0.033241604 0.16153143
-0.09839366 0.24992004 -0.04599787 -0.017265398 0.20601045 -0.16494635 0.1946248 0.09653455
-0.09334757 0.3572164 0.26800624 -0.000985275 -0.06431141 0.014858317 0.09747678 -0.24851629
-0.09109748 0.034183513 0.06383748 -0.04113653 -0.33518425 0.013899909 -0.10533993 -0.030043002
0.00015383352 0.17586152 -0.010711039 0.21751024 -0.17226495 -0.14308433 0.013237306 -0.01891001
0.06664556 0.071198285 -0.010081401 0.04141414 0.17326416 0.11380633 -0.1847534 -0.21423425
00000000: 1565 68be c8be 7ebe 4f02 b4bd bdc6 d6bd
00000010: be86 04be 25bf 16be da99 0d3e 7029 03ba
00000020: 1af1 f33d 20e5 363d 0b5a 3d3e 193e 923e
00000030: 83e8 043e 79d8 b1be e781 233a afd5 2cbe
00000040: 26d8 a9be a8ad 9abd f174 5c3e f468 19be
00000050: cb34 5b3e 58ab 6b3e 5928 083d 7f68 253e
00000060: 9d82 c9bd 0aeb 7f3e 4368 3cbd 2a70 8dbc
00000070: 67f4 523e b2e7 28be b94b 473e e8b3 c53d
00000080: 032d bfbd 11e5 b63e 1d38 893e 5824 81ba
00000090: b3b5 83bd 4c70 733c e8a1 c73d 0e7b 7ebe
000000a0: 5191 babd 0304 0c3d 3abd 823d c77e 28bd
000000b0: 459d abbe 72bc 633c 76bc d7bd be1c f6bc
000000c0: 5f4e 2139 0b15 343e 5b7d 2fbc 01bb 5e3e
000000d0: 3966 30be b384 12be 49e1 583c 2ae9 9abc
000000e0: 787d 883d 68d0 913d 762c 25bc e0a1 293d
000000f0: 296c 313e 4b13 e93d ff2f 3dbe 3960 5bbe

hidden.2.weight f4 [64, 64]
0.037203144 -0.27581328 -0.17113735 0.033664104 -0.05848647 -0.17242318 -0.09689636 0.15098362
-0.019394595 -0.0864082 0.09501884 0.024348374 0.0635552 0.07913828 -0.21755394 0.007012923
-0.32365063 -0.30494905 0.0019915553 -0.13974811 0.06780886 0.117905 0.17925045 0.12291854
-0.10993826 0.28097257 -0.049671777 0.06464258 -0.12984434 -0.09607363 0.13397762 -0.085090816
-0.108151935 0.14014292 0.30437553 -0.101761974 0.086231895 0.22530492 0.090392165 -0.027077056
0.12333926 -0.044497654 -0.117042735 -0.15180063 -0.2741215 0.033553854 -0.057439454 -0.018369965
-0.11893992 0.021146711 -0.16851722 0.34728315 0.0034531418 0.06287896 -0.10711469 0.044207893
-0.07577138 0.031469036 0.07995673 0.032582365 0.16428678 -0.062040873 -0.2471443 -0.028841635
-0.34574986 -0.08481066 -0.05263345 0.14285167 -0.016412381 -0.1767159 0.1407933 0.04296062
0.11226282 0.1156951 -0.22882959 0.11429923 -0.28766102 0.018190257 0.21582603 0.07524165
-0.22755808 0.13845342 -0.09059343 0.16109093 0.13055676 0.05327295 0.10261764 0.04665422
0.04311346 0.04528733 0.1614053 0.067664206 -0.077963635 -0.40725583 0.10237394 -0.019870425
0.19770457 -0.059080027 -0.04664356 -0.22876507 -0.050558824 -0.12313798 -0.046106122 -0.03662315
0.27007973 -0.023681369 0.14304553 -0.14663196 0.0036356356 -0.17141408 0.34793735 -0.0045691608
0.07823954 0.18543269 -0.20304403 -0.014251273 -0.11381665 0.115845375 0.013619856 -0.13622825
-0.107080646 0.0663637 -0.17502238 0.048549 0.25401488 -0.09295547 -0.17823042 -0.04512614
-0.05041635 -0.05703913 0.17197923 -0.022301301 0.092393786 -0.00061020284 -0.13030316 -0.05310642
0.17185569 -0.014496422 0.066071406 -0.038155407 0.091998816 0.17656215 0.30379733 -0.104058206
0.18770355 0.15245566 -0.11030878 0.08651474 -0.121278614 -0.05762198 -0.060244486 0.003789191
0.027018676 -0.019190626 -0.013493721 -0.058332182 0.026181687 -0.051322836 -0.069952816 -0.15409534
0.09638833 -0.28270373 -0.07262566 0.026552368 -0.16305329 -0.0038055135 -0.05000746 -0.006770066
0.019682724 0.29665336 -0.31521535 -0.08324237 0.018324766 -0.2864716 0.13882431 -0.014980004
-0.018594323 0.11572935 0.0042982185 0.021557491 -0.17898448 -0.06877129 0.22425377 0.2541519
0.23604277 0.15367681 0.12909609 0.14229837 0.06594541 0.23630323 -0.059193447 -0.2866481
0.13336088 -0.17025061 -0.025130527 0.09329596 -0.2635707 -0.12379801 0.13009052 -0.012634448
0.12793624 0.207112 -0.07210562 -0.109812 -0.31684023 -0.05971166 -0.12763238 -0.06488163
0.09879575 0.13440157 0.077831194 -0.08891276 -0.090800665 0.0034804835 -0.017881708 0.05248786
0.31544214 0.07634591 -0.4341971 -0.14309606 0.048983168 0.044503704 0.2867584 0.19721253
-0.24801813 -0.08731229 0.037941903 0.21114463 0.23720089 0.022540925 0.15725291 0.23004708
0.032484233 0.05893527 0.20858976 -0.13954115 0.07890872 0.032282554 -0.25173706 -0.052558914
0.16034074 -0.055493645 0.17023255 0.28055143 0.050755788 0.071024194 -0.12223659 -0.21680854
-0.11585568 -0.26654235 0.19215214 0.009221869 0.0031103196 -0.21304756 0.13875146 0.04928469
00000000: 5362 183d 6637 8dbe a13e 2fbe 5fe3 093d
00000010: 828f 6fbd b48f 30be 9971 c6bd 739b 1a3e
00000020: 6ae1 9ebc c8f6 b0bd 3d99 c23d 3e76 c73c
00000030: 3b29 823d 4013 a23d 76c6 5ebe a9cc e53b
00000040: 89b5 a5be 4822 9cbe c184 023b 211a 0fbe
00000050: 5fdf 8a3d 2d78 f13d 6e8d 373e b7bc fb3d
00000060: 4f27 e1bd a3db 8f3e a274 4bbd 5463 843d
00000070: eaf5 04be 40c2 c4bd 6e31 093e 1844 aebd
00000080: c37e ddbd a081 0f3e 1cd7 9b3e 9568 d0bd
00000090: 599a b03d 55b6 663e 871f b93d b4d0 ddbc
000000a0: 4b99 fc3d 2c43 36bd 1ab4 efbd a071 1bbe
000000b0: a759 8cbe c46f 093d a245 6bbd 9c7c 96bc
000000c0: c696 f3bd de3b ad3c c78f 2cbe 19cf b13e
000000d0: 1b4e 623b afc6 803d f25e dbbd 5613 353d
000000e0: 062e 9bbd ade5 003d 5bc0 a33d 1675 053d
000000f0: cb3a 283e 921e 7ebd 6513 7dbe 4b45 ecbc
00000100: 2006 b1be 36b1 adbd 2c96 57bd b547 123e
00000110: 4273 86bc 03f5 34be 1e2c 103e 7af7 2f3d
00000120: 0dea e53d 8df1 ec3d 4e52 6abe b715 ea3d
00000130: 4e48 93be bc03 953c 8001 5d3e 4b18 9a3d
00000140: fc04 69be bcc6 0d3e 0c89 b9bd 05f5 243e
00000150: acb0 053e bd34 5a3d 3229 d23d 7f18 3f3d
00000160: bd97 303d 357f 393d 6e47 253e 8893 8a3d
00000170: 66ab 9fbd d683 d0be 6ea9 d13d 4dc7 a2bc
00000180: 1173 4a3e e6fd 71bd 510d 3fbd 6441 6abe
00000190: c516 4fbd c42f fcbd c6d9 3cbd 2802 16bd
000001a0: e447 8a3e 6eff c1bc 877a 123e b026 16be
000001b0: d843 6e3b 2c87 2fbe d824 b23e e6b8 95bb
000001c0: 0d3c a03d 11e2 3d3e c6ea 4fbe 2c7e 69bc
000001d0: b418 e9bd 5740 ed3d d125 5f3c 6b7f 0bbe
000001e0: 194d dbbd b1e9 873d 1139 33be 51db 463d
000001f0: 3d0e 823e 705f bebd 0982 36be 30d6 38bd
00000200: 6081 4ebd dda1 69bd 531b 303e 38b1 b6bc
00000210: f438 bd3d 05f6 1fba 316e 05be 1e86 59bd
00000220: f0fa 2f3e 6782 6dbc 7250 873d d848 1cbd
00000230: e069 bc3d b5cc 343e 538b 9b3e 781c d5bd
00000240: 5c35 403e 561d 1c3e 92e9 e1bd a42e b13d
00000250: ec60 f8bd 0605 6cbd ecc2 76bd 1354 783b
00000260: 4556 dd3c a935 9dbc c514 5dbc baed 6ebd
00000270: fa7a d63c e537 52bd 6c43 8fbd 2bcb 1dbe
00000280: 3f67 c53d 8bbe 90be c3bc 94bd 5a84 d93c
00000290: 71f7 26be ec65 79bb 9fd4 4cbd 6ed7 ddbb
000002a0: aa3d a13c f3e2 973e e863 a1be fa7a aabd
000002b0: d21d 963c 68ac 92be f627 0e3e b16e 75bc
000002c0: 1f53 98bc 8203 ed3d 12d8 8c3b 5699 b03c
000002d0: b547 37be f6d7 8cbd c8a2 653e 3320 823e
000002e0: 32b5 713e 745d 1d3e c431 043e aab6 113e
000002f0: 630e 873d 79f9 713e d474 72bd 8ac3 92be
00000300: c18f 083e 2d56 2ebe 89de cdbc f411 bf3d
00000310: bdf2 86be d089 fdbd 7336 053e b700 4fbc
00000320: b801 033e 2b15 543e 1cac 93bd 1de5 e0bd
00000330: e238 a2be 3794 74bd 10b2 02be a9e0 84bd
00000340: 6d55 ca3d 91a0 093e f665 9f3d e517 b6bd
00000350: b3f5 b9bd d318 643b a97c 92bc 83fd 563d
00000360: a281 a13e 3f5b 9c3d 154f debe c687 12be
00000370: 93a2 483d 8449 363d ffd1 923e 15f2 493e
00000380: 77f8 7dbe c9d0 b2bd f868 1b3d 4c36 583e
00000390: cae4 723e bfa7 b83c e806 213e 7691 6b3e
000003a0: 300e 053d 1c66 713d 8e98 553e e0e3 0ebe
000003b0: e59a a13d b63a 043d aee3 80be 0448 57bd
000003c0: 5d30 243e 4e4d 63bd 7151 2e3e 70a4 8f3e
000003d0: 4de5 4f3d 2275 913d 2d57 fabd 0f03 5ebe
000003e0: be45 edbd 3d78 88be 88c3 443e 5217 173c
000003f0: 81d6 4b3b 2429 5abe dd14 0e3e bede 493d

hidden.2.bias f4 [64]
0.21749754 0.17557597 0.081533834 -0.088036016 -0.009755967 0.2152608 0.068022676 0.040499132
0.02059546 0.02715184 0.28916097 0.042866644 0.16719356 0.06224332 -0.14649773 0.047491595
-0.0066953693 -0.11240206 -0.02834826 -0.24499425 -0.19797136 0.04781393 0.21833752 -0.17906412
-0.058643457 0.12379547 0.30259964 0.2828662 -0.03628556 0.038805205 -0.055713225 0.22153991
0.07259009 -0.13122219 -0.059233915 -0.10518211 -0.053417027 -0.038024757 0.0038631307 -0.14897431
-0.11679628 0.07323115 0.065865986 0.10162674 0.053768646 0.08544823 0.08682391 0.113268934
-0.038521603 0.26939362 0.02924601 0.28264964 -0.35208932 0.029376142 0.21167251 -0.17418064
0.13483743 0.020490248 -0.26516384 -0.23448779 -0.18685614 0.06131849 0.16839278 -0.12776652
00000000: adb7 5e3e 30ca 333e 36fb a63d 3a4c b4bd
00000010: 7ed7 1fbc 546d 5c3e 794f 8b3d 6be2 253d
00000020: cfb7 a83c 896d de3c e80c 943e ef94 2f3d
00000030: ca34 2b3e daf2 7e3d 8003 16be 8c86 423d
00000040: d464 dbbb 0d33 e6bd 9c3a e8bc c6df 7abe
00000050: 01b9 4abe 8ad8 433d df93 5f3e 965c 37be
00000060: 1f34 70bd 7b88 fd3d 57ee 9a3e d7d3 903e
00000070: 2ba0 14bd 35f2 1e3d 8d33 64bd 5cdb 623e
00000080: 1daa 943d 1c5f 06be 439f 72bd b869 d7bd
00000090: d0cb 5abd d9bf 1bbd 942c 7d3b b98c 18be
000000a0: e332 efbd 37fa 953d bfe4 863d ae21 d03d
000000b0: 833c 5c3d 7bff ae3d bcd0 b13d 8bf9 e73d
000000c0: d4c8 1dbd f6ed 893e 5495 ef3c 74b7 903e
000000d0: 0d45 b4be 3ca6 f03c aec0 583e 695c 32be
000000e0: d312 0a3e 2adb a73c 8ec3 87be 911d 70be
000000f0: 3757 3fbe 1929 7b3d 286f 2c3e 3ad5 02be

hidden.3.weight f4 [64, 64]
-0.12656386 -0.06818629 -0.15925904 -0.14865409 0.069872886 -0.25619107 -0.09541199 0.031984866
0.040587813 0.47477713 -0.28841344 -0.15375209 -0.03449948 -0.017795071 -0.03169581 0.057507355
-0.33010665 -0.0034481895 0.39194757 -0.1269564 0.008884962 -0.115939535 -0.05272023 -0.10915587
0.030961616 0.11853891 0.0752025 0.051299542 0.060250778 -0.028828066 0.25173435 -0.2386231
-0.05077725 -0.09846345 -0.028572574 0.1182114 -0.06013106 -0.022569217 -0.07377632 0.10272751
0.07176405 0.14212559 0.13567835 -0.056985606 0.022562105 -0.14583787 -0.01773245 0.057127777
-0.10188076 -0.14650533 -0.0033921322 -0.09888501 -0.11294585 0.06781551 0.0008066881 0.115448706
0.2389249 0.29120877 -0.10320413 0.11096301 0.41911307 -0.18016574 -0.06458371 0.067087546
0.036284015 0.13965634 0.13860168 -0.2442884 -0.0102803465 0.07596924 0.11424035 0.13842952
0.119502254 0.07839092 0.06431696 0.014172877 -0.04180457 0.027863603 -0.112146385 0.2270492
-0.076285675 -0.1370083 0.08222729 0.040533964 -0.027890876 0.18243314 -0.07547932 0.06234318
0.03494867 -0.09963709 -0.12070024 0.007444964 -0.012833974 -0.10044531 0.09346552 -0.21316768
-0.04867492 0.13550755 0.06746305 -0.03372001 0.1564251 0.05488785 -0.047841746 0.028836029
-0.14431621 0.10136432 0.05487512 0.034043938 0.06160536 -0.08914622 -0.0885928 0.23303741
-0.2839388 0.18362865 -0.1655272 0.057671152 -0.12831455 -0.050468855 0.25102964 0.07759183
-0.049993347 0.08532211 0.007583833 0.02896063 0.09973654 0.0076601626 0.1595517 0.027570229
0.10094233 -0.013865733 0.20323938 -0.096987784 0.11374575 -0.2935732 0.23704599 0.269199
0.09158828 -0.19293836 0.001642124 -0.10278441 -0.23151374 0.24076694 -0.09730134 -0.020515218
-0.57857066 -0.14975505 -0.10648637 -0.1513306 -0.312031 -0.294461 0.09066515 0.15898393
-0.24177767 -0.026938967 0.19388086 0.21627071 -0.16116622 0.0533303 -0.04613135 0.32074776
0.20712909 -0.37502888 -0.20422532 0.03270571 0.03538662 0.08967968 -0.058892872 -0.34106687
0.022922624 -0.012978046 -0.0039936183 -0.11988979 -0.09507341 -0.016727278 -0.39183235 0.027936496
-0.20668721 0.30511257 0.22607294 0.2206424 -0.16597804 -0.1727745 0.032294895 0.032627862
0.2901481 0.25981754 -0.24076384 -0.11257251 -0.084709495 0.11933314 0.14808246 -0.11915617
0.084326304 -0.013824987 -0.08197836 0.016313145 0.31775475 0.1139584 -0.14766274 0.002023696
-0.06346988 0.075665146 -0.07087265 0.12084794 -0.06542985 -0.2744245 0.022380603 0.11081667
0.20938595 -0.26555648 0.26390496 0.14489864 -0.19110036 -0.4898702 -0.04487266 -0.07555029
0.046273 -0.21858418 0.18660678 0.12466385 -0.15859084 -0.10988233 0.34620646 -0.0018616574
-0.1095419 -0.084574476 -0.5213616 0.31192008 -0.1977554 -0.23973991 -0.06377707 0.15484919
-0.3543604 -0.26233026 -0.108145155 -0.19783394 0.39644647 0.07464954 0.215287 0.0039691404
-0.033687703 0.32960618 -0.2592777 0.2969817 -0.10349659 -0.036448378 -0.09689777 -0.09981631
0.2065164 -0.06170624 -0.14889275 -0.08071457 0.0020535954 0.21722578 0.123922 0.30303815
00000000: f599 01be 41a5 8bbd cd14 23be c738 18be
00000010: 8419 8f3d 7a2b 83be 5d67 c3bd 9002 033d
00000020: 683f 263d fd15 f33e edaa 93be 3071 1dbe
00000030: 544f 0dbd f8c6 91bc 77d3 01bd d58c 6b3d
00000040: bd03 a9be 05fb 61bb 5aad c83e dc00 02be
00000050: 3b92 113c b571 edbd 2bf1 57bd 1d8d dfbd
00000060: 37a3 fd3c 87c4 f23d c503 9a3d 781f 523d
00000070: 85c9 763d d628 ecbc 53e3 803e 9d59 74be
00000080: cefb 4fbd 35a7 c9bd 0811 eabc d218 f23d
00000090: fd4b 76bd 14e3 b8bc 0a18 97bd cd62 d23d
000000a0: 08f9 923d 5f89 113e 44ef 0a3e bd69 69bd
000000b0: 2ad4 b83c 8656 15be a543 91bc d1fe 693d
000000c0: dca6 d0bd 7e05 16be 894e 5ebb 3984 cabd
000000d0: 2750 e7bd dce2 8a3d ec77 533a 5f70 ec3d
000000e0: bba8 743e 5119 953e b05c d3bd 9340 e33d
000000f0: fd95 d63e 5e7d 38be 7744 84bd 3265 893d
00000100: 8c9e 143d 1202 0f3e 99ed 0d3e bd26 7abe
00000110: e66e 28bc c395 9b3d d8f6 e93d 78c0 0d3e
00000120: 99bd f43d 6b8b a03d 9cb8 833d 5b35 683c
00000130: 453b 2bbd 3642 e43c 01ad e5bd 967f 683e
00000140: aa3b 9cbd e74b 0cbe c866 a83d f106 263d
00000150: 687b e4bc c1cf 3a3e e794 9abd 905b 7f3d
00000160: 5626 0f3d 880e ccbd b031 f7bd e2f4 f33b
00000170: 9745 52bc 45b6 cdbd da6a bf3d a148 5abe
00000180: 5a5f 47bd 7ec2 0a3e 112a 8a3d fe1d 0abd
00000190: e72d 203e 15d2 603d b5f5 43bd 8939 ec3c
000001a0: a1c7 13be 1998 cf3d bcc4 603d a871 0b3d
000001b0: e755 7c3d 4b92 b6bd 2470 b5bd 5ca1 6e3e
000001c0: 6d60 91be 2609 3c3e f67f 29be 9638 6c3d
000001d0: e464 03be 6eb8 4ebd f586 803e 77e8 9e3d
000001e0: d3c5 4cbd 5cbd ae3d cd81 f83b d83e ed3c
000001f0: ac42 cc3d 1a02 fb3b 8561 233e f6da e13c
00000200: daba ce3d 192d 63bc fc1d 503e 88a1 c6bd
00000210: 88f3 e83d 3a4f 96be 2fbc 723e 74d4 893e
00000220: a392 bb3d a291 45be 8a3c d73a a280 d2bd
00000230: f011 6dbe 9c8b 763e ed45 c7bd 880f a8bc
00000240: 351d 14bf 6359 19be 8715 dabd 69f6 1abe
00000250: 87c2 9fbe 98c3 96be a6ae b93d afcc 223e
00000260: 9194 77be 1caf dcbc b488 463e 1276 5d3e
00000270: c208 25be df70 5a3d 3af4 3cbd 0d39 a43e
00000280: a619 543e c903 c0be 7120 51be 6cf6 053d
00000290: 8ff1 103d fba9 b73d a739 71bd 51a0 aebe
000002a0: 3ac8 bb3c dfa1 54bc e6dc 82bb c788 f5bd
000002b0: d9b5 c2bd a507 89bc 409e c8be 14db e43c
000002c0: d0a5 53be b737 9c3e aa7f 673e 15f0 613e
000002d0: 26f6 29be cceb 30be a747 043d cba4 053d
000002e0: 4b8e 943e ce06 853e cc8a 76be 6b8c e6bd
000002f0: 2c7c adbd ef64 f43d eea2 173e 2608 f4bd
00000300: 45b3 ac3d 3382 62bc 45e4 a7bd 25a3 853c
00000310: c0b0 a23e 0663 e93d e734 17be fc9f 043b
00000320: 7ffc 81bd 54f6 9a3d ae25 91bd 207f f73d
00000330: 1600 86bd 5e81 8cbe 8757 b73c daf3 e23d
00000340: 4569 563e 05f7 87be 8d1e 873e 4f60 143e
00000350: d0af 43be 44d0 fabe 65cc 37bd 1cba 9abd
00000360: c288 3d3d 88d4 5fbe d915 3f3e c34f ff3d
00000370: a365 22be fd09 e1bd f941 b13e db02 f4ba
00000380: 8157 e0bd 6235 adbd f477 05bf fdb3 9f3e
00000390: 6480 4abe 617e 75be 8d9d 82bd c990 1e3e
000003a0: ba6e b5be 2750 86be 357b ddbd fb94 4abe
000003b0: 08fb ca3e dce1 983d 3274 5c3e 900f 823b
000003c0: 1efc 09bd 24c2 a83e 0cc0 84be fc0d 983e
000003d0: 05f6 d3bd e54a 15bd 5772 c6bd 7e6c ccbd
000003e0: 0979 533e afbf 7cbd 5777 18be ae4d a5bd
000003f0: 9d95 063b 6f70 5e3e d1ca fd3d d127 9b3e

hidden.3.bias f4 [64]
-0.083430044 -0.06180955 0.31132907 0.24227858 0.20207551 -0.06497574 -0.10157645 -0.08662936
0.13865818 -0.41047752 0.02609184 -0.21723725 -0.1551792 -0.21975067 0.13634764 0.09586829
-0.21277508 0.102915466 -0.0003392976 -0.030819265 -0.00303416 -0.008080048 -0.137276 0.03372507
-0.029581081 0.25615895 0.0055534607 0.18581165 0.057877023 -0.013939386 -0.15843576 0.3257781
0.12731306 0.12789962 -0.087145515 -0.08257799 0.06647442 -0.22272268 0.018283261 -0.120337576
-0.016994502 -0.00025833125 0.103844844 0.010992047 -0.08725387 0.19849607 0.16126733 -0.14370222
-0.1760442 0.118897386 -0.04541749 -0.11927205 -0.04715226 0.07388425 -0.10895354 0.02274758
0.2758361 -0.11386384 -0.07805061 0.07145388 0.07275556 -0.071232244 0.13196202 0.18763953
00000000: 5fdd aabd 032c 7dbd 8666 9f3e e017 783e
00000010: e2ec 4e3e 0012 85bd 5007 d0bd bc6a b1bd
00000020: 69fc 0d3e 1c2a d2be 8ebe d53c 7173 5ebe
00000030: 4ce7 1ebe 5206 61be b79e 0b3e 9856 c43d
00000040: b6e1 59be 58c5 d23d c1e3 b1b9 af78 fcbc
00000050: c2d8 46bb 2d62 04bc 1492 0cbe 4d23 0a3d
00000060: 0654 f2bc 4427 833e cef9 b53b 6945 3e3e
00000070: 7510 6d3d 0662 64bc fc3c 22be 63cc a63e
00000080: 5b5e 023e 1ef8 023e 5979 b2bd a61e a9bd
00000090: be23 883d 6a11 64be c7c6 953c 8c73 f6bd
000000a0: 0e38 8bbc a270 87b9 9bac d43d fd17 343c
000000b0: 28b2 b2bd 8e42 4b3e 4323 253e ad26 13be
000000c0: ee44 34be 7980 f33d b107 3abd e844 f4bd
000000d0: ba22 41bd a050 973d 0923 dfbd 2259 ba3c
000000e0: 643a 8d3e 7231 e9bd 00d9 9fbd 6956 923d
000000f0: de00 953d 36e2 91bd 0d21 073e 9424 403e

hidden.4.weight f4 [64, 64]
-0.017157424 -0.050695535 0.028513955 -0.052698288 0.064132 0.06683516 0.13179658 0.028647758
0.026008802 0.0768054 -0.15786849 0.029767236 0.06410002 0.017963657 0.1162627 -0.08694428
0.07594258 -0.13603781 0.19159327 -0.14442395 0.030872554 -0.054421145 0.23003656 0.12941888
0.21548261 0.14049248 0.028970473 0.1358109 0.1566072 0.11975102 0.063319154 -0.12557238
-0.1430173 -0.139618 0.09593835 -0.14497568 0.22975935 0.053822882 0.04757609 -0.0579758
-0.114848636 0.06295145 -0.071377724 -0.04136267 0.13481328 0.10416812 0.23032641 -0.08650401
-0.20642786 -0.04588716 0.08912992 -0.04894358 0.22625394 -0.15834431 0.14708933 -0.0715534
-0.10977162 0.04013115 -0.005838485 -0.29326728 -0.10594855 0.10839887 0.07031833 0.13866875
-0.16024302 0.037950058 -0.23133601 0.0073524485 0.15295283 0.00093070336 0.06769461 0.033860125
0.24089526 0.065682985 0.064826734 -0.12636365 -0.034507085 0.093399554 0.14073251 0.11684512
-0.020514736 -0.10679772 0.0821647 0.26951438 0.08477083 -0.110176995 0.1430296 0.048162036
0.14322731 -0.10481805 -0.20444132 -0.043537643 0.1733679 0.049617864 0.13596094 0.03638081
-0.07873937 0.18783145 -0.25671476 -0.15645772 -0.050558254 -0.22137737 0.16956054 -0.1756428
-0.07305506 0.07866091 -0.03842346 0.12663335 -0.12041641 0.042855605 0.020434273 -0.15957117
0.15854795 0.16110344 0.09281906 0.21647508 -0.055447146 -0.08240205 0.088756375 -0.25115773
-0.09313121 -0.12922885 0.08631449 -0.035197902 0.16455653 0.22720768 -0.0013509755 0.11101407
0.107062586 0.07175974 0.11437163 0.1205787 0.11834849 0.023357773 0.08412434 -0.036350716
0.19423823 -0.064682744 -0.090306416 -0.2305044 -0.07773082 -0.057539772 0.04730935 -0.080623776
0.27210245 -0.021126766 0.20807204 0.09288152 -0.10386036 -0.14484508 -0.028520063 -0.06932279
0.029984148 -0.039184876 -0.094949916 0.11009454 0.17479213 0.08281242 -0.046859283 -0.09422748
-0.06284155 0.07233921 0.13005388 0.26666686 -0.06435944 0.09734731 -0.2029865 0.06529294
0.19936387 -0.010246049 -0.073788084 -0.2084269 -0.14020677 -0.08289697 0.21292776 -0.32874364
0.23761208 -0.21440867 -0.051051185 -0.12953556 -0.23251514 -0.121076666 -0.07523138 0.074014805
-0.029742513 0.012847269 -0.1547425 0.061887413 0.24162373 0.0957569 0.16267216 -0.11301475
0.0071019894 0.052867603 -0.19069137 0.033903696 0.10207793 0.28176945 -0.08072253 0.2391441
0.017620824 -0.019817589 0.1557908 0.13231018 -0.14667334 -0.043292042 0.35642233 0.042728618
-0.08406915 0.03657869 -0.024420125 -0.033186466 0.042313628 0.08724489 0.09113959 -0.025592783
-0.054532573 -0.04042191 0.07634614 0.20144707 -0.017308453 -0.0011542886 0.16779055 0.10966808
-0.20545906 0.25791338 -0.05971062 -0.06723713 0.10627844 0.020936018 0.066882856 -0.076711066
-0.0855164 -0.02747843 0.025928697 -0.03387865 0.05334949 -0.13929175 -0.03965012 -0.149334
0.044737026 0.13430656 -0.19088288 -0.027398532 -0.015819425 -0.0024534855 0.1845266 0.08084305
0.06218868 0.012263096 0.031854548 0.12557164 0.120912075 0.06713117 0.01177386 -0.042595837
00000000: ba8d 8cbc 1fa6 4fbd 1996 e93c 29da 57bd
00000010: a357 833d dfe0 883d aff5 063e b4ae ea3c
00000020: 6910 d53c 264c 9d3d 47a8 21be 6bda f33c
00000030: df46 833d 8528 933c 231b ee3d d80f b2bd
00000040: c987 9b3d 7f4d 0bbe 0731 443e dfe3 13be
00000050: 70e8 fc3c b5e8 5ebd b48e 6b3e 6286 043e
00000060: 79a7 5c3e 43dd 0f3e 7c53 ed3c 0312 0b3e
00000070: a35d 203e 0640 f53d 79ad 813d 0c96 00be
00000080: 2173 12be 05f8 0ebe 537b c43d 8174 14be
00000090: 0946 6b3e 6275 5c3d 25df 423d 0878 6dbd
000000a0: c335 ebbd b1ec 803d 7c2e 92bd e76b 29bd
000000b0: 7e0c 0a3e 1856 d53d b0da 6b3e 0429 b1bd
000000c0: d361 53be 2df4 3bbd bf89 b63d 1079 48bd
000000d0: 1daf 673e 0325 22be 969e 163e 978a 92bd
000000e0: f1cf e0bd 9060 243d c350 bfbb 2127 96be
000000f0: 8efb d8bd 3a00 de3d 0e03 903d 2eff 0d3e
00000100: bf16 24be 8571 1b3d 59e3 6cbe cfec f03b
00000110: ab9f 1c3e 72fa 733a 79a3 8a3d eab0 0a3d
00000120: 3fad 763e cd84 863d e1c3 843d 7965 01be
00000130: 4d57 0dbd 4448 bf3d 2f1c 103e 7f4c ef3d
00000140: 850e a8bc c3b8 dabd f745 a83d cafd 893e
00000150: 549c ad3d 7aa4 e1bd 5a76 123e 8e45 453d
00000160: 2eaa 123e d9aa d6bd 1159 51be 8754 32bd
00000170: 5b87 313e 1a3c 4b3d 5839 0b3e 0b04 153d
00000180: 1b42 a1bd e356 403e 1e70 83be 7436 20be
00000190: 2c16 4fbd c0b0 62be 47a1 2d3e b5db 33be
000001a0: e49d 95bd f918 a13d eb61 1dbd 2cac 013e
000001b0: e19c f6bd 5c89 2f3d c765 a73c a066 23be
000001c0: 655a 223e 4df8 243e eb17 be3d a5ab 5d3e
000001d0: 8c1c 63bd 68c2 a8bd e7c5 b53d bf97 80be
000001e0: 93bb bebd 9154 04be a7c5 b03d ad2b 10bd
000001f0: 8281 283e 21a9 683e 3713 b1ba 585b e33d
00000200: a143 db3d c5f6 923d ac3b ea3d f7f1 f63d
00000210: b160 f23d cd58 bf3c 6249 ac3d 7de4 14bd
00000220: 63e6 463e 6378 84bd 92f2 b8bd 5809 6cbe
00000230: 5631 9fbd d3ae 6bbd 73c7 413d 141e a5bd
00000240: 0351 8b3e 0a12 adbc d610 553e ab38 be3d
00000250: beb4 d4bd 4552 14be e8a2 e9bc 1bf9 8dbd
00000260: 51a1 f53c 5280 20bd 1a75 c2bd 3f79 e13d
00000270: b5fc 323e 8f99 a93d 85ef 3fbd 56fa c0bd
00000280: 12b3 80bd 9426 943d d82c 053e 8f88 883e
00000290: e2ce 83bd 075e c73d b1db 4fbe 4eb8 853d
000002a0: 0b26 4c3e 0bdf 27bc 351e 97bd dc6d 55be
000002b0: 5d92 0fbe e3c5 a9bd bc09 5a3e 1651 a8be
000002c0: 9550 733e f28d 5bbe 0c1b 51bd f8a4 04be
000002d0: 7318 6ebe 0bf7 f7bd e912 9abd 1395 973d
000002e0: 92a6 f3bc 5a7d 523c d174 1ebe a87d 7d3d
000002f0: 366c 773e 321c c43d 8893 263e 4774 e7bd
00000300: ceb7 e83b b38b 583d 9944 43be 9ade 0a3d
00000310: 3c0e d13d 1644 903e db51 a5bd 31e2 743e
00000320: 8c59 903c 7f58 a2bc a087 1f3e 527c 073e
00000330: 8931 16be ff52 31bd fd7c b63e 3404 2f3d
00000340: 722c acbd 89d3 153d b70c c8bc 88ee 07bd
00000350: 0e51 2d3d 73ad b23d 65a7 ba3d f5a7 d1bc
00000360: 8c5d 5fbd 7291 25bd 5d5b 9c3d 2448 4e3e
00000370: 75ca 8dbc 804b 97ba 49d1 2b3e a999 e03d
00000380: dc63 52be 390d 843e 2093 74bd 9fb3 89bd
00000390: 83a8 d93d 0382 ab3c e1f9 883d b11a 9dbd
000003a0: 3923 afbd 721a e1bc 6b68 d43c 57c4 0abd
000003b0: ff84 5a3d 7fa2 0ebe 2a68 22bd 03eb 18be
000003c0: 2c3e 373d a987 093e cd76 43be e372 e0bc
000003d0: bd97 81bc a8ca 20bb 8bf4 3c3e 0a91 a53d
000003e0: 8fb9 7e3d 27eb 483c ea79 023d da95 003e
000003f0: c0a0 f73d 117c 893d 26e7 403c f978 2ebd

hidden.4.bias f4 [64]
0.013795093 -0.074074045 -0.04187873 -0.0009033978 0.08903837 0.08700657 0.03613001 0.06399985
0.11589463 -0.0024127513 0.0059961826 -0.02208829 -0.02339974 -0.12247211 -0.062178075 0.0146782845
0.038502097 -0.12414715 0.07746741 -0.11233316 -0.019682676 -0.10244988 -0.04227774 -0.07079241
-0.08167213 -0.06840974 0.093177706 0.027896076 0.10810305 -0.056583703 -0.08199559 0.07908435
0.12139459 -0.10756631 -0.07673648 0.12337002 0.041200206 -0.025972098 0.086049154 -0.08916356
-0.11508852 0.07075931 0.008393258 0.059460476 0.07992545 0.019098863 -0.124533296 0.0848251
-0.04073736 -0.0059255064 0.05704707 -0.020993307 -0.009917378 -0.12406111 0.044636697 -0.11423732
0.12420842 0.09171218 0.11910398 0.06272368 0.053013384 -0.011561453 0.012962282 -0.03310725
00000000: d004 623c 22b4 97bd 0889 2bbd 00d2 6cba
00000010: c059 b63d 8030 b23d 10fd 133d 5a12 833d
00000020: 2a5a ed3d 401f 1ebb a07b c43b 80f2 b4bc
00000030: d0b0 bfbc a8d2 fabd 70ae 7ebd 307d 703c
00000040: 60b4 1d3d dc40 febd 3ca7 9e3d ee0e e6bd
00000050: 903d a1bc 3ed1 d1bd 6c2b 2dbd 9cfb 90bd
00000060: b843 a7bd 681a 8cbd f4d3 be3d 5086 e43c
00000070: 2265 dd3d 50c4 67bd 4eed a7bd faf6 a13d
00000080: ba9d f83d ba4b dcbd 0428 9dbd 6ca9 fc3d
00000090: 8cc1 283d 70c3 d4bc 8a3a b03d 629b b6bd
000000a0: 88b3 ebbd 42ea 903d e083 093c d48c 733d
000000b0: f4af a33d 3875 9c3c 500b ffbd c8b8 ad3d
000000c0: 38dc 26bd c02a c2bb 30aa 693d 28fa abbc
000000d0: 807c 22bc c013 febd f8d4 363d 42f5 e9bd
000000e0: fc60 fe3d 98d3 bb3d caec f33d 4675 803d
000000f0: 9024 593d 406c 3dbc c05f 543c 789b 07bd

output.weight f4 [9, 64]
0.08758024 0.17018415 -0.33224565 -0.29771748 0.058030006 -0.24261247 -0.00986063 -0.18117952
-0.17738028 0.976264 -0.28645918 -0.026850302 0.033596028 0.5762688 0.1997945 0.051970445
0.13117972 -0.42648125 0.3657791 0.13740256 -0.17905478 0.5670577 -0.14182559 -0.5748494
0.041237865 0.19867435 0.5141335 0.3438793 -0.65872806 -0.118088566 -0.10529128 0.043573864
0.07571995 -0.11936143 -0.25406897 -0.28085205 0.19756575 -0.35992604 0.14308806 -0.10246268
0.5723719 0.22242232 0.18019786 -0.4162712 -0.039207265 -0.051255975 0.32351622 -0.13695584
0.123663574 -0.33900583 -0.35127708 -0.59026116 1.1994327 0.07885033 -0.12650777 -0.19139081
0.03448518 0.111205585 0.45739734 -0.14877276 0.47651902 -0.09814223 -0.048604883 0.5307533
-0.13288373 0.05156671 -0.49227613 -0.2807185 0.13133785 -0.3708877 -0.6594687 0.27342525
-0.18672545 -0.85944283 0.12986161 -2.3290184 0.03235436 -0.5027391 -0.017552052 0.7049064
-0.04226067 0.13453107 -0.94624376 -0.20399743 -0.79754424 1.4270995 0.2117927 0.6809156
0.0487155 0.22869223 -0.5770588 -0.6916308 -0.04981589 0.4077498 -0.16378321 0.0505109
-0.048004173 0.05342862 0.17912509 -0.5819207 -0.4195622 -0.4193078 0.26553538 -0.4826826
0.42884868 0.32058957 0.26554674 0.6666586 -0.068086445 0.36953962 -0.25427607 -0.079575434
-0.11621452 -0.326225 -0.18975164 0.8748493 -0.5763185 0.3336491 0.41883343 1.4917977
-0.4616047 -0.21517894 0.48763472 0.10999512 -0.35098207 0.27906695 0.18906525 -0.57079583
-0.29609478 -0.30134782 -0.012532621 -0.084014565 0.052652854 0.2253015 -0.06442463 -0.021885822
-0.17168786 -0.39033824 -0.2129842 0.019397045 -0.31825534 0.011200193 -0.16547191 0.060046617
-0.04040949 -0.095755264 -0.019110532 -0.11772753 -0.04078474 0.012976967 -0.05467507 -0.1205796
0.021853935 -0.11311047 0.095157765 -0.07131139 -0.073059306 0.021701412 0.015274935 -0.10297135
-0.007519043 -0.08060511 0.11864211 -0.13047713 -0.1146187 0.00163436 0.09921675 -0.110057846
-0.057569344 0.07974793 0.11663244 -0.096827164 -0.18684345 -0.14789116 -0.16117162 0.10440464
-0.17822275 -0.14877765 -0.19130431 0.09952418 -0.036152564 -0.26794228 0.019545406 0.038625702
-0.09596674 -0.3736058 0.07464612 0.16388358 0.049002644 0.25605753 0.10256493 -0.28197408
0.058509797 0.2799389 -0.20528655 -0.046563905 -0.066220544 0.44577426 0.3792456 -0.42571
-0.12874193 0.09848438 -0.022388302 -0.03878104 -0.03285125 -0.17545845 -0.12831229 0.04857385
-0.1654148 0.16685328 0.19402438 -0.20967567 0.24263002 0.069283955 -0.2440756 0.081218876
0.06617099 -0.035117667 0.07010619 -0.32406482 -0.32609352 0.1807945 -0.005233806 0.21204461
-0.0798713 0.13274711 -0.23406374 0.054660507 -0.07396361 -0.05424026 0.13644467 -0.30619526
0.2199203 -0.18559441 0.13346815 -0.31124166 0.4294231 0.34914052 0.2594495 0.053355116
-0.024584549 0.49421772 -0.067752525 0.19495888 0.04701281 -0.3271054 0.27778602 0.15373734
-0.15096472 0.0076260883 0.18448766 -0.025467562 -0.12735972 0.051176254 -0.030331716 0.26839787
00000000: 455d b33d c144 2e3e 1a1c aabe 6d6e 98be
00000010: dfb0 6d3d 676f 78be 7b8e 21bc 2087 39be
00000020: 2da3 35be 70ec 793f c7aa 92be 2af5 dbbc
00000030: fd9b 093d 5a86 133f ee96 4c3e f6de 543d
00000040: fa53 063e c05b dabe 6647 bb3e 42b3 0c3e
00000050: 235a 37be b22a 113f ba3a 11be 5529 13bf
00000060: 09e9 283d 4a71 4b3e 419e 033f f310 b03e
00000070: 67a2 28bf 6bd8 f1bd f4a2 d7bd 827a 323d
00000080: 1013 9b3d c473 f4bd 5415 82be d7cb 8fbe
00000090: ad4e 4a3e 3a48 b8be ad85 123e f4d7 d1bd
000000a0: f786 123f adc2 633e ca85 383e 8021 d5be
000000b0: cc97 20bd c9f1 51bd eba3 a53e 273e 0cbe
000000c0: 5443 fd3d 2c92 adbe 97da b3be 5b1b 17bf
000000d0: 0387 993f 487c a13d 418b 01be f4fb 43be
000000e0: 5540 0d3d c1bf e33d fc2f ea3e e357 18be
000000f0: 4dfa f33e cbfe c8bd ea15 47bd 73df 073f
00000100: ac12 08be 9d37 533d 9e0b fcbe 56ba 8fbe
00000110: 6e7d 063e fee4 bdbe f1d2 28bf 65fe 8b3e
00000120: f534 3fbe 7204 5cbf 71fa 043e a30e 15c0
00000130: 0186 043d 82b3 00bf 52c9 8fbc bf74 343f
00000140: 8619 2dbd 83c2 093e 083d 72bf b4e4 50be
00000150: dc2b 4cbf 32ab b63f 30e0 583e 7c50 2e3f
00000160: e789 473d 4c2e 6a3e 20ba 13bf b70e 31bf
00000170: bf0b 4cbd 95c4 d03e c9b6 27be 84e4 4e3d
00000180: 06a0 44bd f8d7 5a3d 916c 373e c1f8 14bf
00000190: dbd0 d6be 83af d6be 41f4 873e 2c22 f7be
000001a0: 0e92 db3e 5124 a43e bef5 873e 23aa 2a3f
000001b0: e870 8bbd 4c34 bd3e 7930 82be 72f8 a2bd
000001c0: e101 eebd f706 a7be 414e 42be 20f6 5f3f
000001d0: 9c89 13bf 0ed4 aa3e 5671 d63e 3af3 be3f
000001e0: 7457 ecbe de57 5cbe 42ab f93e 1f45 e13d
000001f0: ecb3 b3be dde1 8e3e 529a 413e ad1f 12bf
00000200: bc99 97be 434a 9abe 9f55 4dbc d40f acbd
00000210: 85aa 573d 70b5 663e 0ff1 83bd e549 b3bc
00000220: f1ce 2fbe 6ada c7be 8818 5abe 8de6 9e3c
00000230: 5df2 a2be 0481 373c 7871 29be 71f3 753d
00000240: 6c84 25bd 561b c4bd b18d 9cbc 221b f1bd
00000250: e60d 27bd 589d 543c f7f2 5fbd 70f2 f6bd
00000260: 0607 b33c 76a6 e7bd 13e2 c23d b50b 92bd
00000270: 1ea0 95bd 29c7 b13c b943 7a3c a5e2 d2bd
00000280: 4e62 f6bb 4b14 a5bd a2fa f23d cc9b 05be
00000290: 36bd eabd 0538 d63a 2732 cb3d 0266 e1bd
000002a0: d5cd 6bbd e252 a33d fddc ee3d 524d c6bd
000002b0: e453 3fbe c870 17be 2c0a 25be 1ad2 d53d
000002c0: 0680 36be 2b59 18be 47e5 43be 55d3 cb3d
000002d0: b614 14bd bb2f 89be b01d a03c fc35 1e3d
000002e0: 368a c4bd 4249 bfbe 11e0 983d 19d1 273e
000002f0: ffb6 483d f919 833e 900d d23d e85e 90be
00000300: f8a7 6f3d 2754 8f3e a336 52be cbb9 3ebd
00000310: a39e 87bd 863c e43e 7b2c c23e a9f6 d9be
00000320: edd4 03be 2eb2 c93d ac67 b7bc ded8 1ebd
00000330: 088f 06bd 61ab 33be 4c64 03be 60f5 463d
00000340: 7f62 29be 96db 2a3e 54ae 463e 38b5 56be
00000350: 0174 783e bfe4 8d3d f4ee 79be 1556 a63d
00000360: a884 873d 8bd7 0fbd d693 8f3d d3eb a5be
00000370: bbf5 a6be 3222 393e 5980 abbb 3922 593e
00000380: 9093 a3bd dcee 073e 68ae 6fbe b2e3 5f3d
00000390: 3c7a 97bd 092b 5ebd 27b8 0b3e a0c5 9cbe
000003a0: ca32 613e 760c 3ebe e0ab 083e 115b 9fbe
000003b0: 58dd db3e 8cc2 b23e 91d6 843e e58a 5a3d
000003c0: 8965 c9bc 1b0a fd3e d6c1 8abd 4da3 473e
000003d0: 8190 403d 5c7a a7be f839 8e3e 526d 1d3e
000003e0: 7f96 1abe 44e4 f93b 55ea 3c3e 59a1 d0bc
000003f0: 966a 02be 319e 513d 387a f8bc 726b 893e

output.bias f4 [9]
-0.057786908 0.17538282 -0.0042963102 0.05823864 0.100335 0.24302945 -0.17729941 0.15074539
0.25847733
00000000: f7b1 6cbd 8e97 333e 10c8 8cbb a48b 6e3d
00000010: 707c cd3d b6dc 783e fa8d 35be 005d 1a3e
00000020: 2457 843e
