results/1_sampling/pinn_set3_grid_LBFGS_e1000.pth (torch, 79435 bytes, 12 tensors)

hidden.0.weight f4 [64, 10]
000000 48 13 16 bf 36 cb 23 bf fe de 01 3d af f5 13 bd
       -0.5862317 -0.6398195 0.031706803 -0.036122974
000010 92 c4 95 be 63 0d bd be 5c b4 a6 be 3e 7c e4 3d
       -0.29251534 -0.36924276 -0.32559478 0.1115651
000020 35 00 02 bf 3d 9e a4 bd b4 35 79 3f 4d 3a bb 3e
       -0.50781566 -0.08037994 0.9734757 0.36567917
000030 19 9c da bd 62 a5 90 3b e3 bd ea 3e 29 ac c5 3e
       -0.106743045 0.0044142464 0.45847997 0.3860791
000040 b5 94 1e 3f 97 b2 c9 3e 69 6a ac 3e 3c e6 a2 3e
       0.6194566 0.39394066 0.33674935 0.3181628
000050 03 e1 8a 3c 77 5b b4 bd c8 23 8e bd 81 12 98 3c
       0.016952997 -0.08806508 -0.069404185 0.01856351
000060 06 57 f5 bd 3c fe 8e bd f5 5a 40 bd a3 d2 1a 3e
       -0.11979489 -0.06982085 -0.046961743 0.15119414
000070 4f ad d1 bd 86 85 44 be fa c8 51 be a6 45 28 3f
       -0.10238134 -0.1919156 -0.20486823 0.65731275
000080 8c 28 8b bd 3b 59 58 3c da 8d c1 be 8c 68 c7 be
       -0.06794843 0.013204868 -0.37803537 -0.3894695
000090 e8 71 eb be f1 4d ab be f5 ba 26 be c2 2e 4d be
       -0.4598534 -0.33457902 -0.16282256 -0.20037368
0000a0 49 36 b7 be 2b 40 02 be d8 2e 57 3e 6c 5a 40 bd
       -0.35783604 -0.1271979 0.21013963 -0.046961233
0000b0 26 b8 50 3e 47 70 01 3e c3 aa fc 3d 66 ba 44 3b
       0.20382747 0.12640487 0.12337258 0.0030018329
0000c0 4c 1d 23 be cc b9 94 be 83 62 90 bd 63 ba c1 3d
       -0.15929145 -0.29048002 -0.070500396 0.094593786
0000d0 2b 8b 24 3d a9 91 85 be 26 72 9c be c5 a8 93 be
       0.040171783 -0.26087692 -0.30555838 -0.28839698
0000e0 ab 55 aa be a0 a4 54 be 18 e9 53 bd 2b b9 06 3e
       -0.33268484 -0.20765924 -0.051735967 0.13156573
0000f0 86 b0 c2 3e ae 3a 12 bf 9c 43 7a 3d 2b 84 46 be
       0.38025302 -0.5712079 0.061099634 -0.19386356
000100 78 df b7 bd 16 47 df bd 15 b5 b4 be 41 3b 27 be
       -0.0897817 -0.109022304 -0.35294405 -0.16331197
000110 6c 6e a1 3e ec df dd 3c 43 bd 23 3f e1 9a ab 3e
       0.31529558 0.027084313 0.63960665 0.335166
000120 26 c8 90 3d 22 0c 47 3e d2 f7 02 be 71 1b 3a be
       0.07069425 0.19438222 -0.12789848 -0.1817453
000130 0e 8a 3c 3d bc 4d c8 bc 7e 3e f3 bd e7 6e 82 be
       0.046030097 -0.02445113 -0.11877154 -0.25475237
000140 1c d9 4b 3f dd eb 0d bb 21 ec c8 3d f6 97 c3 be
       0.7962816 -0.0021655478 0.09810663 -0.38201874
000150 64 ce 66 3b 2b af 2a be c8 71 dc bd 28 17 8f be
       0.0035218233 -0.16668384 -0.107638896 -0.27947354
000160 2a df 3a be 22 9f d0 3c f6 14 8a 3e 4b cb 5f be
       -0.18249193 0.025466505 0.26969117 -0.21854894
000170 04 dd bd 3c 09 43 3d be 08 c2 2c bd 3a 49 cb bd
       0.023176678 -0.18482603 -0.04217723 -0.09926076
000180 65 7d 83 be 31 9e c7 be e1 0b c2 bc 6c 72 30 be
       -0.25681606 -0.38987878 -0.023687305 -0.17231148
000190 7e 4f 77 3f c3 fb 68 3c 55 cf 33 be 91 df 8c 3d
       0.9660567 0.014220181 -0.1755956 0.068785794
0001a0 3a 43 16 bd e9 5e ae bd 56 04 71 be 15 66 11 bb
       -0.036685206 -0.085141964 -0.2353681 -0.002218609
0001b0 98 b6 41 3e 86 47 71 3e 57 f7 0c bf f7 c9 53 3f
       0.1891731 0.2356244 -0.5506491 0.8273005
0001c0 68 e8 36 bb 77 eb 08 3e ce 9b 03 be bc 64 4a bd
       -0.002790952 0.13371073 -0.12852404 -0.049412474
0001d0 d1 1f 9b bd 6d ed 97 be fd 2a 84 be 2e 04 f5 bd
       -0.07574428 -0.2967333 -0.25814047 -0.11963688
0001e0 15 22 e6 3d ca a4 c8 3d ab 78 18 be db 12 81 3d
       0.112369694 0.09797056 -0.14889781 0.063024245
0001f0 8c 0a 6c 3e 03 fa 69 3e 19 76 c6 3e 81 f7 b8 3e
       0.23050898 0.22849278 0.38761976 0.3612633
000200 4b 39 ae 3e 23 de fe 3c 22 9b 32 3e f8 34 79 3d
       0.34028086 0.031111782 0.17441991 0.06084153
000210 c3 4b b9 bc 1d 86 4b be 92 4a 78 be 4a ff 66 be
       -0.022619134 -0.19875379 -0.24247196 -0.22558323
000220 7f 9a c4 3c 5b 62 31 be e8 98 80 bd 1c 47 cb 3d
       0.02399945 -0.17322676 -0.062791646 0.099256724
000230 97 00 37 c0 4b 97 dd bb bd f8 40 3c 96 13 2a be
       -2.859411 -0.0067624203 0.011778054 -0.16609034
000240 9e 8e 49 3c f0 c0 17 bd 8b 97 60 be 44 12 97 3d
       0.012302069 -0.037049234 -0.21932809 0.07376531
000250 05 a2 b8 bc ce 22 57 3e 6e 7e ac 3e ff f1 16 bd
       -0.022538194 0.2100937 0.33690208 -0.03685188
000260 89 9d a7 3c 8b af 0f be b1 47 5e 3e 84 b0 b0 bc
       0.02046086 -0.14031808 0.21707036 -0.021568544
000270 0e 61 8a 3e 55 7c 50 3e 05 48 89 3d cb 7b c4 3d
       0.27027172 0.20359929 0.0670319 0.09593924
000280 5c 05 2a bc 85 94 bd bd c9 7a 31 be ac 07 0a 3c
       -0.010377254 -0.092568435 -0.17331995 0.008424681
000290 1c 27 6d 3c 0c bd 23 3e 5c 30 71 3d 22 8f 9b 3e
       0.014474656 0.15990084 0.05888401 0.3038264
0002a0 46 e8 93 be 27 6c 3f 3e 06 da 6b bf 0b 32 d7 3e
       -0.28888148 0.186936 -0.9212955 0.42030367
0002b0 95 5a 30 3d 57 d1 ae 3e 87 b8 12 be 93 50 a2 3e
       0.043055136 0.3414409 -0.14328204 0.31702098
0002c0 68 07 60 bc fb d5 c5 3c 87 69 05 3e 9d 18 6e bd
       -0.013673641 0.024149885 0.13028537 -0.05812894
0002d0 b3 4a 6e bf e3 35 22 bc 87 17 dd bc 1c f1 34 3d
       -0.9308273 -0.009900543 -0.026988758 0.044175252
0002e0 20 31 9b be 37 0a 30 3e fe b3 5f be 2e 22 bd 3e
       -0.30310917 0.17191397 -0.21846005 0.3694014
0002f0 e7 d5 da bc 80 f7 8f 3c 15 d7 0f 3e e0 b5 be be
       -0.026713325 0.017574072 0.14046891 -0.37248135
000300 ab 4f 3e bb df d7 4f 3e 45 55 b8 be 83 ff a1 be
       -0.0029039185 0.20297192 -0.36002555 -0.31640252
000310 c5 a9 c7 be 10 aa e8 bd 4a b2 74 bd 24 36 78 be
       -0.3899671 -0.11360562 -0.059740342 -0.24239403
000320 b6 d5 9d be 03 a4 8d 3e 5d f4 bb 3d f1 16 63 3e
       -0.3082711 0.27664194 0.09177468 0.2217672
000330 a6 65 bf bd 5d 14 49 3e 7f 56 f5 bc ff d3 a2 3e
       -0.0934556 0.19636674 -0.029948471 0.31802365
000340 49 71 d4 3d 58 cc 9b 3d d8 3b 58 bf 9a c6 a1 be
       0.1037317 0.07607335 -0.84466314 -0.31596833
000350 b0 dd d4 bc 1f ea 48 3d bc f7 7e 3e 0b f0 73 3e
       -0.025984615 0.0490514 0.2489919 0.23822038
000360 3c 4f a4 3e 07 21 67 3e 0f 96 63 bc 60 e0 8c bd
       0.320917 0.22571193 -0.013890757 -0.06878734
000370 88 8c 16 3e d1 50 77 be e4 47 2c be cf b7 a2 3c
       0.14702046 -0.24151923 -0.16824299 0.019863037
000380 c9 b3 42 be 93 0a 96 3d 57 4c e9 be f7 67 43 be
       -0.19013895 0.073262356 -0.45566055 -0.19082628
000390 cd b4 d3 bd 82 f4 73 bd 02 61 8d be b2 4f b1 3c
       -0.103372194 -0.059559353 -0.27613074 0.021644447
0003a0 44 4a ef 3d 83 fb bf 3d e5 a1 83 bd de 77 9e 3d
       0.11684087 0.09374144 -0.06427363 0.077377066
0003b0 71 40 93 3e 71 e2 5a 3c 48 c4 6c 3e 4b c2 8e 3e
       0.28760102 0.013359652 0.2312175 0.2788261
0003c0 e9 ea ea 3e 62 2b b9 3e c9 5b 99 3d ea 68 0e be
       0.45882347 0.3616591 0.0748821 -0.13907209
0003d0 37 d7 61 3b 70 88 35 be 54 ca f9 bc 4b 9f d4 bd
       0.0034460553 -0.17727828 -0.030491985 -0.10381945
0003e0 1f dd 1f bd 70 52 5d be 78 ce c6 bf a0 ec 8e 3d
       -0.039029237 -0.21613479 -1.5531759 0.069787264
0003f0 f4 63 1c bd 28 0b 83 be d8 d1 d2 bd 16 80 b0 bd
       -0.03818126 -0.2559445 -0.10293931 -0.086181805

hidden.0.bias f4 [64]
000000 f8 c4 a0 3d ee a2 9b 3e 53 30 f7 bd c4 ee 6d bb
       0.07850069 0.30397743 -0.12069764 -0.0036305645
000010 55 68 2a be 1c 9c ce 3d 14 33 27 be df cc 86 3e
       -0.16641362 0.10088369 -0.16328079 0.2632818
000020 3a c7 31 be cb d7 93 3d 6b f3 76 be 9e 51 79 be
       -0.17361155 0.072188936 -0.24116294 -0.2434754
000030 0c 13 eb 3e 91 e6 cc be 7e 2d 88 3b 95 e1 0f 3d
       0.4591297 -0.40019658 0.0041558137 0.03512724
000040 20 02 91 3e 26 76 87 bc ad f8 67 be 54 40 b2 bd
       0.28321934 -0.01653583 -0.22653456 -0.08703676
000050 a0 ba 62 3e 8f ed cd 3b 5f a0 83 3c 0a a9 86 3e
       0.22141504 0.0062844227 0.016067682 0.26300842
000060 64 a7 60 3d 71 f9 c2 3d 7c 91 aa 3d 2a 2a 03 3f
       0.054847136 0.095202334 0.0832853 0.5123621
000070 82 ec bc 3b 39 f1 92 3e 91 69 8a 3e 2f bf ba 3e
       0.0057654986 0.28699663 0.27033666 0.36473987
000080 af 09 b1 be 11 f3 87 bc c7 09 2f be da ad 89 3e
       -0.345777 -0.016595395 -0.17093574 0.2689045
000090 c2 4e c9 bc 4a a5 4c be 78 b1 86 bd 85 f2 c7 bd
       -0.024573687 -0.19984928 -0.06576818 -0.09763054
0000a0 21 3d ca 3c 82 b2 9a bd 02 16 84 be 60 d3 19 3f
       0.024687352 -0.07553579 -0.2579804 0.6008816
0000b0 37 e6 3c 3e f5 38 ac 3e 81 cd 0c be ef 0a 10 3e
       0.18447195 0.33637205 -0.13750269 0.14066671
0000c0 54 81 8f 3e ed a7 57 3e d7 cc 93 bd 99 6a 6b be
       0.28028357 0.21060152 -0.072168045 -0.22989883
0000d0 47 e2 4e 3e 95 e5 81 3e 13 28 3f bd 1e 94 4a 3e
       0.20203505 0.2537047 -0.046669077 0.19783065
0000e0 67 d3 9f 3e da 36 89 be 79 67 0d be 0e bd 44 be
       0.31215975 -0.2679966 -0.13809003 -0.19212744
0000f0 07 aa 8e 3c e8 ad db 3c ae 2f ec 3d 32 ad 83 be
       0.01741506 0.026816323 0.11532532 -0.25718075

hidden.1.weight f4 [64, 64]
000000 11 e7 2b 3d da f1 09 3e 04 bc 02 3d f8 79 9a 3d
       0.04196841 0.13471165 0.031917587 0.07542795
000010 44 54 91 3c 5d 98 5a bb b0 82 6a 3d 7b 10 ee bd
       0.017740376 -0.0033354976 0.05725354 -0.11624237
000020 b2 5c 0a be 06 32 84 be 28 33 50 bd be 73 19 be
       -0.13511923 -0.25819415 -0.050830036 -0.14985558
000030 5d 97 92 be df 42 5b 3e 03 16 43 be 6d 75 d0 bc
       -0.28631106 0.21412228 -0.19051366 -0.025446618
000040 b7 5f a3 be 59 66 82 bd bf ae d0 bc 83 cd 7c bd
       -0.31908962 -0.063671775 -0.02547395 -0.06171943
000050 be 4c e9 3c 36 a9 1e be d5 ba 26 3d 33 e5 2b bd
       0.028478976 -0.15494236 0.04070552 -0.04196663
000060 64 7a 20 bc db 80 9f bd f6 9f 04 be c0 f9 e3 bc
       -0.009794805 -0.07788249 -0.12951645 -0.027829051
000070 e5 ac ad 3d 4f 9e 6b 3d bf 39 3f bd 0a b8 88 be
       0.08480243 0.05752402 -0.04668593 -0.2670291
000080 22 93 26 3e dc c9 90 be 37 a9 30 bd 7a 44 2b be
       0.16267064 -0.28279006 -0.043130126 -0.1672534
000090 2e 62 11 be 61 80 d3 bd 53 d6 67 3e 7b 4d 85 3e
       -0.14197609 -0.10327221 0.22640352 0.26035675
0000a0 c8 48 60 39 b3 e0 2e 3e 33 d8 97 bd 1a ce 45 3d
       0.00021389418 0.17077903 -0.074142836 0.048292257
0000b0 46 b4 f7 bc 24 b2 c7 bd 5d 2c 15 bc 5c 59 02 bb
       -0.030237328 -0.097507745 -0.009104815 -0.0019889688
0000c0 e1 13 40 bc 97 bb 4b be de 45 bf 3e 35 0f 68 3e
       -0.0117234895 -0.19895779 0.37357992 0.22662051
0000d0 96 38 67 bd 31 25 88 bc ce 89 89 bd dc 96 b4 bd
       -0.05645045 -0.016619297 -0.06715737 -0.08817837
0000e0 65 4e 85 be 80 12 01 3e e4 65 8e 3e 6c 64 32 be
       -0.26036373 0.12604713 0.2781211 -0.1742112
0000f0 d0 20 14 bc 5d 65 af be 34 bc 82 be eb d7 ef 3d
       -0.009041026 -0.34257022 -0.25534213 0.11711105
000100 38 84 ad be f6 7f 22 3e 63 2e 4d bd 2c 41 b4 bc
       -0.33889937 0.15869126 -0.050093066 -0.022003733
000110 05 b5 4b 3e cc 59 ab bd 02 3f f8 bd fb 66 19 3e
       0.19893272 -0.08366737 -0.12121393 0.1498069
000120 85 39 f5 3c 7e 4a 1b bd 46 0b e2 3c d3 e2 c5 3e
       0.029934654 -0.03791284 0.027593266 0.38649616
000130 8f 7d 86 be f0 37 84 3e 75 f9 3f be 9a 5c 00 bd
       -0.2626767 0.25823927 -0.18747504 -0.03133831
000140 6d cf 7d be dc 0e 74 bd 3a 74 2e bd 4c ba 17 3e
       -0.24786158 -0.059584484 -0.04259131 0.1481716
000150 21 20 68 be 69 89 1a 3d 12 13 9b bc ae 3c 8f bd
       -0.22668506 0.0377287 -0.018929992 -0.069939956
000160 35 3f 6b 3e d8 ee 64 be 65 c5 78 3e 26 ec 9a bc
       0.2297333 -0.22356737 0.2429405 -0.018911432
000170 28 c8 a0 bd 86 6b c9 ba 46 74 9d bd c2 8b 71 be
       -0.07850677 -0.0015367127 -0.07688193 -0.2358847
000180 e1 46 08 3e eb ef c5 bd 1d 69 c0 bc d1 ce 59 be
       0.13308288 -0.09664901 -0.023487622 -0.212703
000190 8d ac e1 3d df 8e 4d 3e 0a 8f 07 3e 7b 9e 88 3e
       0.110192396 0.20074032 0.13238159 0.2668341
0001a0 e1 51 0b bd 45 48 d9 bd 92 fe 90 be d8 af b1 bd
       -0.034013633 -0.106094874 -0.28319222 -0.08676118
0001b0 9a cd 08 3c e7 a9 d1 bd be 7c 6a 3d 6e 83 82 3d
       0.0083498005 -0.102374844 0.05724787 0.063727245
0001c0 d8 ed f8 bd 4a 22 44 be a4 9a 0d 3c 67 5b 1c 3e
       -0.1215474 -0.19153705 0.008642826 0.15269242
0001d0 d8 a0 48 bd fb 60 c6 bc e1 f0 24 3d 11 40 47 be
       -0.048981518 -0.024216166 0.040268783 -0.19458033
0001e0 19 bc ce be 25 b7 49 3e 1e 94 f1 3d c9 02 31 be
       -0.40377882 0.1969877 0.11795829 -0.17286219
0001f0 0c 4a 8e bc 66 4d bb 3d 8f fc 95 bd 19 66 97 3e
       -0.017369293 0.09145622 -0.07323562 0.29570082
000200 56 af 97 3d e9 fe 1d bd 2b 08 22 be 8e b7 e0 3c
       0.074064896 -0.03857318 -0.15823428 0.027431276
000210 76 34 5c 3e 3d c9 04 3e 27 be a5 3d 43 41 a4 bd
       0.21504387 0.12967391 0.08092909 -0.0802026
000220 c3 2f e9 bd 19 2e 21 3e 15 7a ed 3d 1b 09 16 3e
       -0.11386063 0.15740241 0.11595551 0.14651911
000230 36 e4 85 bd b1 97 57 3e db 71 0b 3e 47 e7 1a 3e
       -0.065376684 0.2105396 0.13617651 0.15127288
000240 a4 2a 53 3d 4c ad 77 3d fa 26 1e be 50 26 22 be
       0.051554337 0.060468003 -0.15444556 -0.15834928
000250 b7 f2 bc 3c 4a f1 9f bd 22 bf b7 bc 43 4f 92 3d
       0.023064954 -0.07809694 -0.022430006 0.07144024
000260 65 0d 60 bb f3 c8 a3 3d 7c 28 9a bd 33 77 41 3d
       -0.0034187671 0.079973124 -0.07527253 0.047232818
000270 7f f1 bf 3d b3 4c 0d be 4d 51 dc bd b8 e2 22 3e
       0.093722336 -0.1379879 -0.107576944 0.15906799
000280 64 26 a4 3d 91 26 4f 3c e5 6d f9 bd eb 2e d0 3d
       0.08015135 0.012643472 -0.12179164 0.10165199
000290 b9 e8 e5 3c 3f f3 27 3e 7b a3 91 bb b4 bd 65 be
       0.028065072 0.16401385 -0.004444537 -0.22435647
0002a0 8f ee f1 bd 38 7f 33 3d a8 36 09 3e ee e9 56 3d
       -0.118130796 0.043822497 0.13399756 0.052469186
0002b0 ce c9 01 be 7a fc 8b bd b6 b3 b8 3d f2 4d 03 be
       -0.12674639 -0.068352655 0.09018652 -0.12822703
0002c0 47 cf ad bd d0 1a 44 3d 96 64 37 be 6e 3e d2 bd
       -0.08486801 0.047877133 -0.17909464 -0.10265814
0002d0 fd f6 3f bc 68 ec ac bd 96 68 f6 3d 17 30 43 bd
       -0.011716601 -0.084435284 0.12031667 -0.047653284
0002e0 5d f0 c1 3d a3 e5 a3 bd 17 f3 18 3d 33 4f c7 bc
       0.09469674 -0.08002784 0.037341204 -0.024329757
0002f0 70 23 1e 3d 5a 21 5a bd 42 73 e9 bd 79 69 8b bd
       0.038608015 -0.053254463 -0.11398937 -0.06807227
000300 42 77 06 3e 1f 36 9b bd dc 9e e8 3c 12 48 97 bd
       0.13131431 -0.07578682 0.028396063 -0.07386793
000310 40 af a5 bd 6a 56 c9 bc 99 f8 f1 bd 38 d4 93 be
       -0.08090067 -0.024577338 -0.11814994 -0.28872848
000320 f0 7f 6e be 84 45 84 be 5d 00 81 be 34 b8 d5 3d
       -0.23290992 -0.25834286 -0.2519559 0.104355246
000330 8d 8f c1 3d 97 a2 4f bd 21 95 5d 3e ce 40 ab bc
       0.09451208 -0.050692167 0.2163892 -0.020904925
000340 8e a9 6c 3e e9 cf 14 3d 7a 85 9b 3d c7 ff 8a 3e
       0.23111555 0.03633109 0.07593818 0.27148268
000350 76 86 e8 3d 61 a0 e4 3d 3c 78 8a be 61 c4 ee 3d
       0.113537714 0.11163402 -0.27044857 0.1165855
000360 08 28 da bd bb 61 9e 3d be 20 b9 bc d0 86 36 3d
       -0.106521666 0.07733484 -0.02259862 0.04456216
000370 a5 6c 4e 3d fd 1c 43 3e 15 c1 a8 3d 5c 3b 52 3d
       0.05039658 0.19054027 0.082399525 0.05132614
000380 46 59 89 3d 5f 21 ad bc ff b4 b6 bd b6 de 8f be
       0.06706481 -0.021134077 -0.08921241 -0.28099602
000390 51 34 1c be 6a 89 04 bd 03 2a 37 3c a4 bb 2e bd
       -0.15254332 -0.03235761 0.01117945 -0.042659417
0003a0 52 5f 57 bd 8b 5e 5f 3d d0 f1 c0 bc 17 18 21 3e
       -0.05258114 0.054533523 -0.023552805 0.15731846
0003b0 62 d6 b2 bb 91 31 26 3e 92 b5 77 3d 55 60 20 3d
       -0.0054576853 0.16229846 0.060475893 0.03915437
0003c0 a5 72 9c 3d 13 67 48 3e 9f db 91 3e 91 af f4 bd
       0.07639054 0.1957057 0.2848787 -0.11947549
0003d0 19 25 c8 bd 50 37 d1 bc 6a af 52 3e 04 d4 c9 3d
       -0.09772701 -0.02553907 0.20574728 0.09854892
0003e0 80 60 a6 bd 53 ae 2f 3e e6 1e 07 bb 46 15 df 3d
       -0.08123875 0.17156343 -0.0020617782 0.108927295
0003f0 5e 18 2e be f4 07 4f 3e 09 cf 6c 3e 20 d5 11 be
       -0.17001483 0.20217878 0.23125853 -0.14241457

hidden.1.bias f4 [64]
000000 4c de 6e be 3d 61 8e be eb 34 1c bd dc bc da bd
       -0.23326987 -0.27808562 -0.038136404 -0.10680553
000010 71 7f 0d be cf da 15 be a7 07 ce 3c bb 4e eb 3d
       -0.13818146 -0.1463425 0.025150133 0.11489626
000020 42 33 c5 3d b2 d0 ef 3c 56 66 36 3e 64 f7 af 3d
       0.09628917 0.029274318 0.17812476 0.08592108
000030 8d f1 18 3e 82 10 0e bf 51 7d 2c bd 81 db 0d be
       0.14935894 -0.5549394 -0.0421117 -0.13853265
000040 de 21 bd be ab 77 81 bd 17 ba 89 3e 53 de ae bd
       -0.369399 -0.06321653 0.26899788 -0.08538499
000050 d4 a9 8a 3e ed dd 7d 3e 51 28 ae 3d 9b cc 61 3e
       0.27082694 0.24791689 0.085037835 0.22050707
000060 70 05 28 be 53 5c 8f 3e 7c 80 59 be 56 95 4d bd
       -0.16408324 0.28000125 -0.21240419 -0.050191246
000070 c4 9e 85 3e 52 1d 43 be 7d d1 14 3e 00 82 0f bc
       0.2609769 -0.19054154 0.14533038 -0.008759022
000080 b9 91 3b be c9 e6 c2 3e b7 9d a1 3e 15 41 d8 bc
       -0.18317308 0.380667 0.3156564 -0.026398221
000090 29 6d 17 3c 50 12 26 3d 62 93 f9 3d d8 be 3e be
       0.009242334 0.040544808 0.12186314 -0.18627489
0000a0 61 5d 29 be c4 86 10 3e 48 c0 5d 3d d8 df 87 bd
       -0.16539527 0.14113909 0.05413845 -0.06634492
0000b0 ff 78 9c be a7 2e 02 bb bf 2b f0 bd 8a 93 80 3d
       -0.30561063 -0.0019864233 -0.11727094 0.06278141
0000c0 df f2 dc bc 27 c3 35 3e 2b 10 3d bd f0 83 cf 3c
       -0.026971279 0.17750226 -0.046157997 0.025331467
0000d0 de 5d 0b be f1 2f e6 bd 5b 1d d3 3c aa df cd 3c
       -0.13610026 -0.11239613 0.025770834 0.025131065
0000e0 ad 3c 0a 3c d0 64 f2 3d 05 31 84 3d 1f b1 c8 3d
       0.008437318 0.11835635 0.06454662 0.09799408
0000f0 eb 1f 9e 3d bf 15 3b 3e eb cd 72 be 69 22 86 be
       0.077209316 0.18270014 -0.23711364 -0.26198128

hidden.2.weight f4 [64, 64]
000000 a8 a5 98 3c 04 f7 90 be f7 30 26 be 33 00 6a bc
       0.018633679 -0.28313458 -0.16229616 -0.014282274
000010 a6 d3 2e bd bc a5 34 be b0 8d d7 bd ae 55 11 3e
       -0.042682312 -0.17641348 -0.105250716 0.1419284
000020 fc 42 30 bb 85 75 ca bd 08 1f 15 3e dd dc 26 3d
       -0.0026895395 -0.09885696 0.14562619 0.040737975
000030 52 0b 8d 3d 85 83 b0 3d 12 d0 72 be 95 61 12 3c
       0.06886925 0.08618835 -0.23712185 0.008934398
000040 dc f3 a1 be 24 d4 9d be 15 3f e0 3b 62 54 04 be
       -0.31631362 -0.30825913 0.0068434575 -0.12922814
000050 82 aa f5 3c cb ce 14 3e b1 fe 33 3e 8b 2d 01 3e
       0.029988531 0.1453201 0.17577626 0.1261503
000060 a6 0e c8 bd e4 77 a1 3e 49 a9 43 bd 74 19 9c 3d
       -0.09768419 0.31536782 -0.047768865 0.07622042
000070 2d 31 1a be 06 e8 04 be 6b 88 00 3e 48 52 84 bd
       -0.15057822 -0.12979135 0.1255204 -0.064610064
000080 f0 82 04 be 22 d4 24 3e c5 94 b2 3e d9 32 c9 bd
       -0.12940574 0.16096547 0.34879127 -0.098241515
000090 53 c7 c2 3d f5 54 54 3e 64 88 4d 3d f3 57 5d bd
       0.09510674 0.20735534 0.0501789 -0.054038953
0000a0 92 b7 e0 3d cd 0a 5f bc 42 2c 09 be 66 90 1b be
       0.10972513 -0.013613415 -0.1339579 -0.15191802
0000b0 96 8d 8b be 31 e9 3c 3c 19 ef 0c bd 84 f6 00 bd
       -0.2725646 0.011530207 -0.03440771 -0.031485096
0000c0 a8 80 ba bd a8 10 14 3a 48 2b 55 be e9 49 b3 3e
       -0.091065705 0.0005648234 -0.20817292 0.35017326
0000d0 ef a8 97 bc 03 c6 84 3d d9 a7 08 be 70 2a 71 3d
       -0.018513171 0.0648308 -0.13345279 0.058878362
0000e0 7c 5c d7 bd b5 49 86 3d ac b3 d3 3d 73 f0 d3 3c
       -0.10515687 0.06557027 0.10337004 0.025871491
0000f0 0f ad 35 3e 70 80 87 bd 63 41 81 be 94 ee 0a bd
       0.17741798 -0.066162944 -0.252452 -0.033918932
000100 d2 a1 c4 be 64 65 2c be 3c 7a c6 bd 3d fc 18 3e
       -0.3840471 -0.16835552 -0.09691283 0.14939971
000110 cb b6 cd b9 a3 0e 3a be 64 76 39 3e 62 f1 da 3c
       -0.00039236838 -0.18169646 0.18111569 0.026726428
000120 ad d9 d8 3d f5 3b 17 3e 22 1c 56 be fe 1c 28 3d
       0.10588393 0.14768966 -0.2090917 0.041043274
000130 49 00 86 be d3 a4 5f 3d 30 7c 52 3e fc aa 17 3e
       -0.26172093 0.054600548 0.20555186 0.14811319
000140 d5 01 7c be 4d 39 cf 3d a1 04 55 bd 06 42 ed 3d
       -0.24610074 0.10118351 -0.052006368 0.115848586
000150 f8 29 3a 3e d1 bd a6 3d 2b 6a 13 3e f6 a4 b5 3d
       0.18180072 0.08141673 0.14395969 0.088693544
000160 dd 8a fe bb ca 0d 1a 3d f7 02 1b 3e 34 1d c6 3d
       -0.0077680186 0.037610807 0.1513785 0.09673539
000170 94 39 02 be c3 31 de be d2 6f 1d 3e 25 9b 20 be
       -0.12717277 -0.4339734 0.15374687 -0.15684183
000180 b9 e1 fd 3d 60 16 25 bd e8 1e e1 bc 10 00 92 be
       0.12396569 -0.04030454 -0.027480558 -0.28515673
000190 6f f8 b2 bc 9d c0 e7 bd 1f 7b 9c 3c 3b db ca bd
       -0.021846978 -0.11316035 0.019101677 -0.09905096
0001a0 5a 2d 5f 3e 5a 2b 95 bd 3a a3 0b 3e 48 3e 09 be
       0.21794644 -0.07283659 0.13636485 -0.13402665
0001b0 93 5d 7a b8 59 61 9a bc 0d 95 4f 3e 86 c3 4c 3d
       -5.9691793e-05 -0.018845247 0.20271702 0.049991153
0001c0 7f a7 3a 3e 43 14 45 3e cb 1d 5a be 3b 07 d9 3b
       0.18227957 0.1924601 -0.21300428 0.0066231764
0001d0 ac 23 1d be e1 c1 b6 3d c4 e3 4a 3d e4 d3 1f be
       -0.15345639 0.08923698 0.04953362 -0.15608174
0001e0 ea ae 29 be 3b f4 0e 3e 91 c6 84 be 42 b7 38 3d
       -0.1657063 0.13960354 -0.25932744 0.045096643
0001f0 10 0a a1 3e a5 c8 24 be 73 ed 26 be 6b b8 8b bd
       0.3145299 -0.16092165 -0.16301517 -0.06822284
000200 f7 b1 2a be 64 1b 04 be 6b 14 c9 3d e6 95 37 be
       -0.1666945 -0.12901074 0.098183475 -0.17928275
000210 58 42 c7 3d d7 7d 14 bc 3a 42 1a be ca ef ab bd
       0.09729451 -0.009063206 -0.15064326 -0.083953455
000220 d7 25 ed 3d 21 5b 58 3d 71 35 48 3e a8 fb 5c bd
       0.11579483 0.052821282 0.19551636 -0.053950936
000230 ae 0d 4a 3e e9 c6 e1 3d 9f b1 11 3e ba 10 e7 3d
       0.19731781 0.11024267 0.14227913 0.11282487
000240 65 7c 98 3d ee f3 5b 3d 0a 3a 09 bd 62 2c a6 3c
       0.074456014 0.053699426 -0.033502616 0.020284835
000250 3f ed a7 bd 19 e0 41 3d a5 d9 98 3d e7 4f db 3d
       -0.08199548 0.047332857 0.074633874 0.107085995
000260 81 9a 7b 3d 28 66 37 3d 4a 07 c4 3b 1b d9 5a 3d
       0.061426643 0.04477516 0.0059823142 0.053429704
000270 7f f9 56 bd f5 91 96 bb 7f b8 3f bd 1c 67 20 be
       -0.05248403 -0.004595036 -0.04680681 -0.15664333
000280 84 69 92 3d fe a6 38 be 34 ac 71 3c fa f2 79 3e
       0.07149032 -0.18032452 0.014750529 0.24409094
000290 6c 72 b9 3c 4c f5 06 3d 87 30 d4 bd 8b ec 08 be
       0.022637568 0.032948777 -0.10360818 -0.13371484
0002a0 0a 0c f4 bb ba ec 5c 3d 2d 6e 5e be d1 92 1e 3c
       -0.007447724 0.053936698 -0.21721716 0.009678558
0002b0 48 96 87 bd a6 fd 05 be 1e 9f 9d bc 96 1e 49 3d
       -0.06620461 -0.1308504 -0.019240912 0.049101435
0002c0 79 e0 95 3d 64 6c 54 3e fe cd 7d bd 35 73 79 3c
       0.073182054 0.20744473 -0.061964028 0.015225221
0002d0 f9 1e 74 be d7 9d 2e be 6d 2d f8 3c 00 64 35 3e
       -0.2383994 -0.17052399 0.030295098 0.17713928
0002e0 73 18 e2 3c d4 76 ad 3d e8 dc 2c 3e aa 86 f0 3d
       0.027599549 0.0846993 0.16881144 0.11744435
0002f0 74 d6 4d 3e 61 ef 0f 3d d6 71 ac bc ac 7c c4 be
       0.20101339 0.0351404 -0.021050375 -0.38376367
000300 60 ec a7 3d e8 60 4c be ea 5c a6 bd bf ed 09 3e
       0.08199382 -0.19958842 -0.08123191 0.13469599
000310 c3 63 30 be 3e 7b 4d bd bf d6 72 3d fd 78 76 3c
       -0.17225556 -0.05016636 0.05928683 0.015043494
000320 3b 7e 14 3d 4f 4c ef 3d d7 d1 cf bc 69 44 40 bd
       0.036253195 0.116844766 -0.025368614 -0.04694024
000330 76 9e 8c be 56 6d 00 be c7 09 1d bc 96 2f 9e bd
       -0.27464646 -0.12541708 -0.009584851 -0.0772392
000340 a7 f0 51 3d 7d b1 d5 3d 12 b2 08 3e aa 1e 21 be
       0.051254895 0.10434244 0.13349178 -0.15734354
000350 d3 02 10 3c 22 82 0d 3d 1d fb dd 3c a0 da 91 3d
       0.008789736 0.034547932 0.02709728 0.071217775
000360 9c 64 58 3e bd 9e 0f 3e 08 23 c5 be a7 5c de bd
       0.2113213 0.14025398 -0.3850329 -0.10857516
000370 b7 2a c2 3d 45 11 06 bd 4b 69 c3 3e 16 f9 71 3d
       0.094808035 -0.032731313 0.3816627 0.059075437
000380 28 9f 20 be e1 e0 d5 bc 77 5b bb 3d 89 fd 7d 3d
       -0.15685713 -0.026108207 0.09148305 0.062009368
000390 f8 48 84 3e f0 73 3d 3e 59 dc 92 3e b7 2d 15 3e
       0.2583692 0.18501258 0.28683737 0.1456822
0003a0 97 6a 4c 3c d5 78 ee 3d 7a 35 65 3e d4 5a a2 bd
       0.012476585 0.11644141 0.22383681 -0.0792748
0003b0 63 48 d8 3d 9f 35 52 3d 54 5a 29 be 56 f1 16 bd
       0.10560682 0.05132067 -0.16538364 -0.03685125
0003c0 1e 37 60 3e 16 ae 0d 3c 05 26 20 3e ed 4a 0d 3e
       0.21896026 0.008647462 0.15639503 0.13798113
0003d0 d3 d8 96 bc c3 e5 04 3c 16 d7 15 be 48 91 71 be
       -0.018413937 0.00811142 -0.1463283 -0.23590577
0003e0 ed 6f 82 bd b9 0f a0 be da ec 0f 3e f4 fc 15 3d
       -0.063690044 -0.31261995 0.14055195 0.036618188
0003f0 88 03 e0 bd c2 0f fb bd f4 4b 04 3e c9 36 ed 3b
       -0.109381735 -0.12258865 0.12919599 0.007239197

hidden.2.bias f4 [64]
000000 a4 8a 69 3e 68 8b 4f 3e 4f 4e 51 3e ab 70 30 bd
       0.22806793 0.20268023 0.20440029 -0.0430762
000010 99 46 31 3d aa 88 50 3e ff 2f e7 3d 64 f5 44 3d
       0.043280218 0.20364633 0.112884514 0.048085585
000020 20 1a b0 bc 67 13 0e 3e cc 4b 93 3e e6 99 33 3d
       -0.021496832 0.13874589 0.28768766 0.04384794
000030 bf 88 35 3e fc 68 7e 3d 79 31 64 be a6 c0 58 3d
       0.17727946 0.06211184 -0.22284497 0.0529181
000040 df 86 11 3e 36 36 0d be 31 d3 6f bd 61 1b 2f be
       0.14211605 -0.13790211 -0.058551017 -0.17100288
000050 d9 9d 6f be af 9e ec 3d 3a ef 15 3e c8 47 4d be
       -0.23400058 0.11553704 0.14642039 -0.20046914
000060 b9 0a 0d be 62 b9 1c 3e 33 e1 8d 3e 95 3a b0 3e
       -0.13773622 0.15305093 0.27710876 0.34419695
000070 78 6f 27 bd fc d5 20 3c 87 23 0a bd c8 1f 78 3e
       -0.04087779 0.009816643 -0.033725288 0.24230874
000080 94 01 4d 3d c7 8f 3f be 7d d4 4d bd c1 c1 1a be
       0.050050333 -0.1870719 -0.050251473 -0.15112974
000090 81 4f 57 bd 53 35 92 bd fb ce 8c bc 7c b6 2d be
       -0.052566055 -0.07139077 -0.01718854 -0.16964144
0000a0 6d d1 01 be 8f 2c 80 3d 3c d2 d4 3d 9e cb 09 3e
       -0.12677546 0.06258499 0.103916615 0.1345658
0000b0 99 c4 18 3d 12 a0 dd 3d 41 1e 03 3d 7e 2b 01 3e
       0.037296865 0.108215466 0.032011274 0.12614247
0000c0 9c 12 3c bd 64 78 93 3e 03 e1 ce 3d cc 26 a0 3e
       -0.045916185 0.28802788 0.10101511 0.312796
0000d0 1f d7 89 be 1f 19 ab 3c 4c 91 26 3e 44 31 2d be
       -0.26921937 0.020886002 0.16266364 -0.16913325
0000e0 d5 a1 fd 3d 91 62 d4 3d 59 0e a3 be b2 db 6e be
       0.12384383 0.103703626 -0.31846884 -0.23325995
0000f0 d5 71 3b be d7 70 93 3d df 2e 4f 3e cf 5a fc bd
       -0.18305142 0.07199257 0.20232724 -0.12322008

hidden.3.weight f4 [64, 64]
000000 0d 85 a6 bc fb 1b f7 ba 6f 0a 09 be ec d7 08 be
       -0.020327115 -0.0018852943 -0.13382886 -0.13363618
000010 4d 73 9e 3d 33 18 8b be 3e 37 ca bd 91 d7 82 bc
       0.07736836 -0.271669 -0.09873818 -0.01597193
000020 6d 38 70 3d ff e4 d1 3e 72 62 3b be af f6 a0 bd
       0.05864756 0.40995023 -0.18299273 -0.07859551
000030 c2 ae 22 3b 6a 91 0b bd 6b a1 06 be 42 72 a6 3d
       0.0024823402 -0.034074225 -0.13147514 0.08127262
000040 6e 85 f9 be 67 2a ed bb 3a 71 a9 3e 88 8f 4f be
       -0.4873461 -0.007237721 0.33094198 -0.20269597
000050 70 a4 ce bd 95 33 eb be 54 66 26 3b c7 41 31 bd
       -0.10089958 -0.4593779 0.0025390582 -0.04327562
000060 db 0a 50 3d df 53 4c 3e f6 ec 7d 3d 86 81 2a 3e
       0.050791603 0.1995387 0.06199356 0.16650972
000070 93 de 83 bd 51 89 aa bc 00 2c a2 3e b1 76 7e be
       -0.06438937 -0.02081743 0.31674194 -0.24849965
000080 05 5d 7f bc 51 f3 bb bd 5d 84 23 bd 5c be b6 3d
       -0.015586142 -0.09177268 -0.039921153 0.08923027
000090 83 99 5b ba 89 0e 12 bd 6e 5b 25 3d 48 fa d4 ba
       -0.0008377062 -0.035658393 0.040370397 -0.0016248906
0000a0 68 51 06 bc 5f 08 63 3e ef 5b 49 3e bb 05 6f 3b
       -0.00819812 0.22171162 0.19663976 0.0036471921
0000b0 b6 6a 07 3e cf 9d 29 be 65 1d 62 bd 21 74 3e 3c
       0.132243 -0.16564105 -0.055203814 0.011624367
0000c0 d3 44 c6 bd 37 f3 24 bd 2f d7 c1 3d 1e e0 54 39
       -0.09681096 -0.04027101 0.09464871 0.00020301386
0000d0 f5 8f 49 be 0e 9a 08 3e c1 35 1d 3e 17 17 31 3d
       -0.19683821 0.13340017 0.15352537 0.04323491
0000e0 46 26 67 3e ee bc d0 3e a6 b3 6f be 87 c3 df 3d
       0.22573194 0.40769142 -0.23408374 0.10925966
0000f0 d3 14 c7 3e cb de 8e bd 79 e1 c4 ba fd bb d5 bd
       0.38883075 -0.06976088 -0.0015020809 -0.104362465
000100 0d 19 72 3d e6 bf e6 3d 1e cd f3 3d f3 c0 21 be
       0.05910592 0.112670705 0.119043574 -0.1579626
000110 ce 5e ea bc 77 01 69 3d 70 76 17 3e 7b b6 c0 3d
       -0.02860966 0.056886163 0.14791274 0.094098054
000120 06 73 35 3d e7 8c 05 3e ce d6 a4 3d 18 09 51 3b
       0.044299148 0.13042031 0.08048783 0.003189629
000130 4e 0f 34 bd 46 93 be 3b 93 e0 ea bd 50 e0 70 3e
       -0.04395991 0.005815896 -0.114686154 0.23523068
000140 58 c5 28 be 4a 67 84 be d5 7f 46 3d ff 31 b5 bb
       -0.1648153 -0.25860053 0.048461754 -0.0055296416
000150 cc bf 36 bd 88 29 33 bc 9c bb 35 bd fc 89 99 3d
       -0.044616506 -0.010935195 -0.04436837 0.074970216
000160 06 02 06 3d 27 17 37 3d 4d c4 9a be 43 64 50 3b
       0.032716773 0.044699814 -0.3022789 0.0031798042
000170 aa 27 04 bc 64 5e 83 bd 53 58 0d 3e 9e df 9c be
       -0.008066097 -0.06414488 0.13803224 -0.30639356
000180 4b 5a fa bc d4 af 1c 3e c3 8f ad bc f8 1b ae bc
       -0.030560633 0.15301448 -0.021186715 -0.02125357
000190 24 c0 86 3e 2d 47 69 3d 86 4d 12 3d 36 e3 36 bc
       0.26318467 0.056952644 0.035718463 -0.01116257
0001a0 bb 4c 42 be 63 1e f4 3d ba b4 b3 3d c4 13 16 3d
       -0.18974583 0.11919858 0.08774705 0.036639944
0001b0 90 69 63 3e 2f e5 ca bd 6a 60 60 bd 22 f5 46 3e
       0.22208238 -0.099069946 -0.054779448 0.19429448
0001c0 b4 ea b7 be 83 dd 3d 3e 3e 92 09 be 22 75 c0 3d
       -0.35921252 0.18541531 -0.13434693 0.09397341
0001d0 f1 4b 31 bd 73 a9 94 bd 03 8a a5 3e de d8 81 3d
       -0.043285314 -0.072588824 0.32331857 0.06340192
0001e0 67 af d3 3b 85 97 72 3e 09 31 3f bc 5d 7a b9 3d
       0.0064601186 0.23690613 -0.011669406 0.09056542
0001f0 59 71 d7 3d da f4 9f 3b a7 eb 18 3e 27 52 11 bd
       0.10519666 0.0048814835 0.14933644 -0.035478737
000200 ed af 20 3e e0 4e 21 3d e2 34 0d 3e a1 3a e5 bd
       0.1569211 0.03938186 0.13789704 -0.11192823
000210 c7 f1 90 3d 5a 37 a1 be d8 c4 24 3e 5a e8 9d 3d
       0.07077365 -0.31487542 0.16090715 0.07710333
000220 27 ab 53 3e 7b 61 38 be f4 e1 d6 3c 4e 31 c1 bd
       0.20670758 -0.18005936 0.02623079 -0.09433232
000230 4d a9 66 be ef 10 4e 3e 57 5c 16 be 69 a3 85 3c
       -0.2252552 0.20123647 -0.14683662 0.016313272
000240 49 0b 01 bf 47 c0 ff bc 98 bf fc bd ea 4d 2c be
       -0.50407845 -0.031219615 -0.12341231 -0.16826597
000250 26 b0 b0 be e0 a2 a0 be f8 30 c7 3d bf 67 32 3e
       -0.3450939 -0.31374264 0.09726137 0.17422388
000260 11 a3 1b be 37 f5 38 3d 4d 06 44 3e bb 2a 84 3e
       -0.15198924 0.04515573 0.19143029 0.2581385
000270 d4 6b 1f be d3 42 b5 3c ab cf 39 bc 1a b1 91 3e
       -0.15568477 0.02212659 -0.011341016 0.2845543
000280 c8 97 6c 3e 4e 19 d1 be 20 e7 80 be b2 3f 98 3d
       0.23104775 -0.40839618 -0.25176334 0.07434024
000290 96 e2 e6 bc 8b 32 23 3d 94 93 2a be 6c f7 61 be
       -0.028184216 0.039843123 -0.16657859 -0.2206704
0002a0 ab b5 8a bd 07 61 1b 3d a7 78 89 bd c3 53 c8 bd
       -0.06772932 0.03793433 -0.06712466 -0.09781601
0002b0 63 94 0a 3e 46 08 8d bd 93 69 aa be 39 7e 5b be
       0.13533168 -0.06886344 -0.33283672 -0.21434869
0002c0 96 82 77 be a4 c2 b3 3e e4 76 6e 3e c0 3c 77 3e
       -0.24170908 0.35109437 0.2328754 0.24144268
0002d0 09 dd 7c be 4a 24 0f be de 90 cf 3d 35 78 ef bd
       -0.24693693 -0.13978687 0.10135053 -0.116928495
0002e0 cb 22 2e 3e a4 d2 d1 3e df cd 99 be ae dd 53 bd
       0.1700546 0.4098102 -0.3003988 -0.051725082
0002f0 cc a1 f5 bc 6a 15 21 3e c5 cc 17 3e e3 96 42 be
       -0.029984377 0.15730825 0.14824207 -0.19002871
000300 a9 59 c6 bc dd 12 03 be 47 24 96 bd c5 41 02 be
       -0.024212675 -0.12800165 -0.07331138 -0.12720402
000310 5a 1b 95 3e e7 a2 88 bd 62 82 11 be d4 9e 2a 3e
       0.2912243 -0.06671696 -0.14209893 0.1666215
000320 01 a0 94 bb a8 8b 9e 3e 30 fc 20 be 38 7c ab bb
       -0.0045356755 0.30965924 -0.15721202 -0.005233314
000330 34 32 4b be d0 77 00 be 86 1a fb 3d b3 0b 7e 3e
       -0.1984337 -0.12545705 0.12260918 0.2480915
000340 74 68 17 be b0 d2 a3 bc 5b 84 6c 3d 74 a4 06 3e
       -0.1478594 -0.019997925 0.05774341 0.13148671
000350 9b 84 bb bd 87 45 26 bf ee 3c 48 3d 28 af 98 3d
       -0.09156152 -0.6494984 0.048886232 0.074552834
000360 77 c9 84 3e 34 fb 88 be 9a 82 29 3e 0d fb d1 3c
       0.25934955 -0.26754153 0.16553727 0.025632406
000370 a8 bd 06 be fc ba 2c bd ac 6f be 3e 62 46 75 bd
       -0.13158286 -0.04217051 0.37194574 -0.059881575
000380 db 03 60 be d6 83 c9 bd c9 5c 0f bf 3f 1f a9 3e
       -0.2187647 -0.09839599 -0.56000954 0.3303165
000390 ee c1 b0 bd c2 e0 e4 bd e6 1a 78 be 2e 6a e2 39
       -0.08630739 -0.11175682 -0.24229011 0.0004318519
0003a0 4b 58 9d be f0 82 0b be 75 2f a8 bd 11 cf 9f be
       -0.30731425 -0.13624167 -0.08212177 -0.31212667
0003b0 8b 1a 9e 3e de cc c2 bd 63 32 96 3c f0 e4 03 bd
       0.30879626 -0.095117316 0.018334573 -0.032200754
0003c0 aa 16 91 be 70 24 63 3e 01 2d 71 be 10 55 4d 3e
       -0.28337604 0.22181869 -0.23552324 0.2005198
0003d0 5c 2a 70 3d 9c 13 1c be 70 fa a3 bd 77 2a ab bc
       0.058634147 -0.15241855 -0.080067515 -0.020894272
0003e0 29 29 60 3e f9 3e da bd 31 b6 62 bd 78 88 80 3d
       0.21890701 -0.10656542 -0.055349533 0.06276029
0003f0 96 6e 1e 3e 76 b4 ee 3d e6 34 62 3b 8b d0 23 3d
       0.15471873 0.11655514 0.0034516393 0.039993804

hidden.3.bias f4 [64]
000000 07 17 2a 3d 61 ce 80 bd 98 1e c7 3e 80 3e 2b 3e
       0.041525867 -0.06289364 0.3889053 0.1672306
000010 4e 60 75 3e 69 f9 07 be 72 a1 04 be 83 cb ee bc
       0.23962519 -0.13278736 -0.12952211 -0.029149776
000020 01 1c 05 3e 94 aa c3 be 39 06 9e bd 4c 86 32 be
       0.12998964 -0.38216078 -0.07716031 -0.17434043
000030 8f 78 31 be 21 d9 7f be f4 c5 30 3e cb 8c 0b 3e
       -0.17331146 -0.24985172 0.17263013 0.13627927
000040 6a e4 5a be 81 9c 5b 3e 83 5c 1d bd 8e 85 1c bc
       -0.21376196 0.2144642 -0.038418304 -0.009553326
000050 04 55 35 bd c4 1d 72 bc 63 88 df bd 86 41 e7 bc
       -0.04427053 -0.0147776045 -0.109146856 -0.028229486
000060 ea 61 f3 bd 37 34 8b 3e ff b8 9e 3d 03 3d 89 3e
       -0.1188391 0.27188274 0.07750129 0.2680436
000070 ed 37 00 3e 62 14 2b be 54 53 39 be 17 19 b1 3e
       0.12521334 -0.16706994 -0.18098193 0.34589455
000080 fa 56 37 3e b1 b3 7c bd 3b 5c e1 bd f6 45 cc bd
       0.17904273 -0.061694805 -0.1100392 -0.099742815
000090 b9 ce da 3d c2 2c 98 be d4 80 a7 3c d5 f3 37 bd
       0.106839605 -0.29721648 0.020447172 -0.04491027
0000a0 84 7f fc bc cd 64 62 3d e4 d8 dc 3d a7 f7 23 3e
       -0.030822523 0.055271912 0.10783556 0.1601244
0000b0 34 fc 42 bd 5c 2e 89 3e b6 af 3b 3e 52 f3 31 be
       -0.0476038 0.26793182 0.18328747 -0.17377976
0000c0 47 87 7b be ae bd 0a 3e 0d db f2 bb 57 43 f5 bd
       -0.24563323 0.1354892 -0.007411367 -0.11975735
0000d0 d8 08 02 bd 14 d7 a9 3d 9c 37 27 be 3b 69 95 3a
       -0.031746715 0.08292976 -0.16329807 0.0011399159
0000e0 c5 1b a1 3e 0e 4c 15 be 79 f8 03 be a6 c5 d8 3c
       0.314665 -0.14579794 -0.12887754 0.026461434
0000f0 0a 78 c4 3d 27 77 98 bd 2e b2 bf 3d a0 aa 6c 3e
       0.09593208 -0.074446015 0.09360157 0.23111963

hidden.4.weight f4 [64, 64]
000000 ba 8d 8c bc 1f a6 4f bd 19 96 e9 3c 29 da 57 bd
       -0.017157424 -0.050695535 0.028513955 -0.052698288
000010 a3 57 83 3d df e0 88 3d af f5 06 3e b4 ae ea 3c
       0.064132 0.06683516 0.13179658 0.028647758
000020 69 10 d5 3c 26 4c 9d 3d 47 a8 21 be 6b da f3 3c
       0.026008802 0.0768054 -0.15786849 0.029767236
000030 df 46 83 3d 85 28 93 3c 23 1b ee 3d d8 0f b2 bd
       0.06410002 0.017963657 0.1162627 -0.08694428
000040 c9 87 9b 3d 7f 4d 0b be 07 31 44 3e df e3 13 be
       0.07594258 -0.13603781 0.19159327 -0.14442395
000050 70 e8 fc 3c b5 e8 5e bd b4 8e 6b 3e 62 86 04 3e
       0.030872554 -0.054421145 0.23003656 0.12941888
000060 79 a7 5c 3e 43 dd 0f 3e 7c 53 ed 3c 03 12 0b 3e
       0.21548261 0.14049248 0.028970473 0.1358109
000070 a3 5d 20 3e 06 40 f5 3d 79 ad 81 3d 0c 96 00 be
       0.1566072 0.11975102 0.063319154 -0.12557238
000080 21 73 12 be 05 f8 0e be 53 7b c4 3d 81 74 14 be
       -0.1430173 -0.139618 0.09593835 -0.14497568
000090 09 46 6b 3e 62 75 5c 3d 25 df 42 3d 08 78 6d bd
       0.22975935 0.053822882 0.04757609 -0.0579758
0000a0 c3 35 eb bd b1 ec 80 3d 7c 2e 92 bd e7 6b 29 bd
       -0.114848636 0.06295145 -0.071377724 -0.04136267
0000b0 7e 0c 0a 3e 18 56 d5 3d b0 da 6b 3e 04 29 b1 bd
       0.13481328 0.10416812 0.23032641 -0.08650401
0000c0 d3 61 53 be 2d f4 3b bd bf 89 b6 3d 10 79 48 bd
       -0.20642786 -0.04588716 0.08912992 -0.04894358
0000d0 1d af 67 3e 03 25 22 be 96 9e 16 3e 97 8a 92 bd
       0.22625394 -0.15834431 0.14708933 -0.0715534
0000e0 f1 cf e0 bd 90 60 24 3d c3 50 bf bb 21 27 96 be
       -0.10977162 0.04013115 -0.005838485 -0.29326728
0000f0 8e fb d8 bd 3a 00 de 3d 0e 03 90 3d 2e ff 0d 3e
       -0.10594855 0.10839887 0.07031833 0.13866875
000100 bf 16 24 be 85 71 1b 3d 59 e3 6c be cf ec f0 3b
       -0.16024302 0.037950058 -0.23133601 0.0073524485
000110 ab 9f 1c 3e 72 fa 73 3a 79 a3 8a 3d ea b0 0a 3d
       0.15295283 0.00093070336 0.06769461 0.033860125
000120 3f ad 76 3e cd 84 86 3d e1 c3 84 3d 79 65 01 be
       0.24089526 0.065682985 0.064826734 -0.12636365
000130 4d 57 0d bd 44 48 bf 3d 2f 1c 10 3e 7f 4c ef 3d
       -0.034507085 0.093399554 0.14073251 0.11684512
000140 85 0e a8 bc c3 b8 da bd f7 45 a8 3d ca fd 89 3e
       -0.020514736 -0.10679772 0.0821647 0.26951438
000150 54 9c ad 3d 7a a4 e1 bd 5a 76 12 3e 8e 45 45 3d
       0.08477083 -0.110176995 0.1430296 0.048162036
000160 2e aa 12 3e d9 aa d6 bd 11 59 51 be 87 54 32 bd
       0.14322731 -0.10481805 -0.20444132 -0.043537643
000170 5b 87 31 3e 1a 3c 4b 3d 58 39 0b 3e 0b 04 15 3d
       0.1733679 0.049617864 0.13596094 0.03638081
000180 1b 42 a1 bd e3 56 40 3e 1e 70 83 be 74 36 20 be
       -0.07873937 0.18783145 -0.25671476 -0.15645772
000190 2c 16 4f bd c0 b0 62 be 47 a1 2d 3e b5 db 33 be
       -0.050558254 -0.22137737 0.16956054 -0.1756428
0001a0 e4 9d 95 bd f9 18 a1 3d eb 61 1d bd 2c ac 01 3e
       -0.07305506 0.07866091 -0.03842346 0.12663335
0001b0 e1 9c f6 bd 5c 89 2f 3d c7 65 a7 3c a0 66 23 be
       -0.12041641 0.042855605 0.020434273 -0.15957117
0001c0 65 5a 22 3e 4d f8 24 3e eb 17 be 3d a5 ab 5d 3e
       0.15854795 0.16110344 0.09281906 0.21647508
0001d0 8c 1c 63 bd 68 c2 a8 bd e7 c5 b5 3d bf 97 80 be
       -0.055447146 -0.08240205 0.088756375 -0.25115773
0001e0 93 bb be bd 91 54 04 be a7 c5 b0 3d ad 2b 10 bd
       -0.09313121 -0.12922885 0.08631449 -0.035197902
0001f0 82 81 28 3e 21 a9 68 3e 37 13 b1 ba 58 5b e3 3d
       0.16455653 0.22720768 -0.0013509755 0.11101407
000200 a1 43 db 3d c5 f6 92 3d ac 3b ea 3d f7 f1 f6 3d
       0.107062586 0.07175974 0.11437163 0.1205787
000210 b1 60 f2 3d cd 58 bf 3c 62 49 ac 3d 7d e4 14 bd
       0.11834849 0.023357773 0.08412434 -0.036350716
000220 63 e6 46 3e 63 78 84 bd 92 f2 b8 bd 58 09 6c be
       0.19423823 -0.064682744 -0.090306416 -0.2305044
000230 56 31 9f bd d3 ae 6b bd 73 c7 41 3d 14 1e a5 bd
       -0.07773082 -0.057539772 0.04730935 -0.080623776
000240 03 51 8b 3e 0a 12 ad bc d6 10 55 3e ab 38 be 3d
       0.27210245 -0.021126766 0.20807204 0.09288152
000250 be b4 d4 bd 45 52 14 be e8 a2 e9 bc 1b f9 8d bd
       -0.10386036 -0.14484508 -0.028520063 -0.06932279
000260 51 a1 f5 3c 52 80 20 bd 1a 75 c2 bd 3f 79 e1 3d
       0.029984148 -0.039184876 -0.094949916 0.11009454
000270 b5 fc 32 3e 8f 99 a9 3d 85 ef 3f bd 56 fa c0 bd
       0.17479213 0.08281242 -0.046859283 -0.09422748
000280 12 b3 80 bd 94 26 94 3d d8 2c 05 3e 8f 88 88 3e
       -0.06284155 0.07233921 0.13005388 0.26666686
000290 e2 ce 83 bd 07 5e c7 3d b1 db 4f be 4e b8 85 3d
       -0.06435944 0.09734731 -0.2029865 0.06529294
0002a0 0b 26 4c 3e 0b df 27 bc 35 1e 97 bd dc 6d 55 be
       0.19936387 -0.010246049 -0.073788084 -0.2084269
0002b0 5d 92 0f be e3 c5 a9 bd bc 09 5a 3e 16 51 a8 be
       -0.14020677 -0.08289697 0.21292776 -0.32874364
0002c0 95 50 73 3e f2 8d 5b be 0c 1b 51 bd f8 a4 04 be
       0.23761208 -0.21440867 -0.051051185 -0.12953556
0002d0 73 18 6e be 0b f7 f7 bd e9 12 9a bd 13 95 97 3d
       -0.23251514 -0.121076666 -0.07523138 0.074014805
0002e0 92 a6 f3 bc 5a 7d 52 3c d1 74 1e be a8 7d 7d 3d
       -0.029742513 0.012847269 -0.1547425 0.061887413
0002f0 36 6c 77 3e 32 1c c4 3d 88 93 26 3e 47 74 e7 bd
       0.24162373 0.0957569 0.16267216 -0.11301475
000300 ce b7 e8 3b b3 8b 58 3d 99 44 43 be 9a de 0a 3d
       0.0071019894 0.052867603 -0.19069137 0.033903696
000310 3c 0e d1 3d 16 44 90 3e db 51 a5 bd 31 e2 74 3e
       0.10207793 0.28176945 -0.08072253 0.2391441
000320 8c 59 90 3c 7f 58 a2 bc a0 87 1f 3e 52 7c 07 3e
       0.017620824 -0.019817589 0.1557908 0.13231018
000330 89 31 16 be ff 52 31 bd fd 7c b6 3e 34 04 2f 3d
       -0.14667334 -0.043292042 0.35642233 0.042728618
000340 72 2c ac bd 89 d3 15 3d b7 0c c8 bc 88 ee 07 bd
       -0.08406915 0.03657869 -0.024420125 -0.033186466
000350 0e 51 2d 3d 73 ad b2 3d 65 a7 ba 3d f5 a7 d1 bc
       0.042313628 0.08724489 0.09113959 -0.025592783
000360 8c 5d 5f bd 72 91 25 bd 5d 5b 9c 3d 24 48 4e 3e
       -0.054532573 -0.04042191 0.07634614 0.20144707
000370 75 ca 8d bc 80 4b 97 ba 49 d1 2b 3e a9 99 e0 3d
       -0.017308453 -0.0011542886 0.16779055 0.10966808
000380 dc 63 52 be 39 0d 84 3e 20 93 74 bd 9f b3 89 bd
       -0.20545906 0.25791338 -0.05971062 -0.06723713
000390 83 a8 d9 3d 03 82 ab 3c e1 f9 88 3d b1 1a 9d bd
       0.10627844 0.020936018 0.066882856 -0.076711066
0003a0 39 23 af bd 72 1a e1 bc 6b 68 d4 3c 57 c4 0a bd
       -0.0855164 -0.02747843 0.025928697 -0.03387865
0003b0 ff 84 5a 3d 7f a2 0e be 2a 68 22 bd 03 eb 18 be
       0.05334949 -0.13929175 -0.03965012 -0.149334
0003c0 2c 3e 37 3d a9 87 09 3e cd 76 43 be e3 72 e0 bc
       0.044737026 0.13430656 -0.19088288 -0.027398532
0003d0 bd 97 81 bc a8 ca 20 bb 8b f4 3c 3e 0a 91 a5 3d
       -0.015819425 -0.0024534855 0.1845266 0.08084305
0003e0 8f b9 7e 3d 27 eb 48 3c ea 79 02 3d da 95 00 3e
       0.06218868 0.012263096 0.031854548 0.12557164
0003f0 c0 a0 f7 3d 11 7c 89 3d 26 e7 40 3c f9 78 2e bd
       0.120912075 0.06713117 0.01177386 -0.042595837

hidden.4.bias f4 [64]
000000 d0 04 62 3c 22 b4 97 bd 08 89 2b bd 00 d2 6c ba
       0.013795093 -0.074074045 -0.04187873 -0.0009033978
000010 c0 59 b6 3d 80 30 b2 3d 10 fd 13 3d 5a 12 83 3d
       0.08903837 0.08700657 0.03613001 0.06399985
000020 2a 5a ed 3d 40 1f 1e bb a0 7b c4 3b 80 f2 b4 bc
       0.11589463 -0.0024127513 0.0059961826 -0.02208829
000030 d0 b0 bf bc a8 d2 fa bd 70 ae 7e bd 30 7d 70 3c
       -0.02339974 -0.12247211 -0.062178075 0.0146782845
000040 60 b4 1d 3d dc 40 fe bd 3c a7 9e 3d ee 0e e6 bd
       0.038502097 -0.12414715 0.07746741 -0.11233316
000050 90 3d a1 bc 3e d1 d1 bd 6c 2b 2d bd 9c fb 90 bd
       -0.019682676 -0.10244988 -0.04227774 -0.07079241
000060 b8 43 a7 bd 68 1a 8c bd f4 d3 be 3d 50 86 e4 3c
       -0.08167213 -0.06840974 0.093177706 0.027896076
000070 22 65 dd 3d 50 c4 67 bd 4e ed a7 bd fa f6 a1 3d
       0.10810305 -0.056583703 -0.08199559 0.07908435
000080 ba 9d f8 3d ba 4b dc bd 04 28 9d bd 6c a9 fc 3d
       0.12139459 -0.10756631 -0.07673648 0.12337002
000090 8c c1 28 3d 70 c3 d4 bc 8a 3a b0 3d 62 9b b6 bd
       0.041200206 -0.025972098 0.086049154 -0.08916356
0000a0 88 b3 eb bd 42 ea 90 3d e0 83 09 3c d4 8c 73 3d
       -0.11508852 0.07075931 0.008393258 0.059460476
0000b0 f4 af a3 3d 38 75 9c 3c 50 0b ff bd c8 b8 ad 3d
       0.07992545 0.019098863 -0.124533296 0.0848251
0000c0 38 dc 26 bd c0 2a c2 bb 30 aa 69 3d 28 fa ab bc
       -0.04073736 -0.0059255064 0.05704707 -0.020993307
0000d0 80 7c 22 bc c0 13 fe bd f8 d4 36 3d 42 f5 e9 bd
       -0.009917378 -0.12406111 0.044636697 -0.11423732
0000e0 fc 60 fe 3d 98 d3 bb 3d ca ec f3 3d 46 75 80 3d
       0.12420842 0.09171218 0.11910398 0.06272368
0000f0 90 24 59 3d 40 6c 3d bc c0 5f 54 3c 78 9b 07 bd
       0.053013384 -0.011561453 0.012962282 -0.03310725
