results/1_sampling/pinn_set5_mutated_LBFGS_e1000.pth (torch, 80018 bytes, 12 tensors)

hidden.0.weight f4 [64, 10]
00000000: 4d8e 2abf c839 37be 41c5 bdbc e611 b3bd
00000010: 3ce9 f2bd 98e5 f6bd 8864 35be d7d0 873e
00000020: 9c47 c7be b2df 55bd adef 5b3f eb9b 713d
00000030: 29c6 9cbc edf4 023d 04cd 003f 838e f23d
00000040: 5b06 fc3e d148 973e ee94 3b3e 8d45 873e
00000050: a7d2 8abe a402 e6bc 3d07 843c 44fb 953d
00000060: 02b5 f1bd bab5 72be fd2c 5cbd 548c 593e
00000070: 6cc8 04be 7648 efbd 053d 3dbe 1348 513f
00000080: 8ec5 14bb b1b7 15be 7903 a4be bc64 a5be
00000090: d5a6 e7be 5af4 b6be 12c1 43bb 1138 76be
000000a0: 12bc b7be c98d fabd 8f31 e73c 8611 d23d
000000b0: f566 f23e 0756 183e 2b46 273e eff6 0e3e
000000c0: 1396 f7bd eaa3 83be 3496 c2bd 78c4 1d3d
000000d0: 2a74 623d a4f8 a3be 1196 99be 7d85 6cbe
000000e0: 942c 16be 2e1d 80bc 31a8 823d 08be 583e
000000f0: d314 083f ab58 12be 7af5 97bc 71b6 25be
00000100: a1a8 223e 5d00 f7bd 025c 18be 2763 0abc
00000110: 1adc d63e b931 d33d a0d0 1b3f ad54 fd3d
00000120: 38d2 98bd 94e1 353e 1110 c5be 8525 53be
00000130: f14d f4bc 1be0 02be a9ef 11be ee5d adbe
00000140: f9bc 6d3f 94ce 483d 4afa 013a 6b56 02bf
00000150: 2a91 453d 6d14 823d b196 74bb 655b 75be
00000160: d1b1 a5bd 339f 8d3d 3462 c23e bd67 b7be
00000170: 8ef9 aa3b 4c83 bbbe e410 763c 14ba 2c3e
00000180: 7138 263b 7ae1 5cbe dd0e 89bd ffb3 cfbd
00000190: b136 9a3f 458a 23be 26a1 bdbc 090e e93d
000001a0: a924 89bd 6ac8 123e 8f22 5ebe 87b2 23bd
000001b0: 3425 fd3d 623e a13d 05d0 31bf 0915 b73e
000001c0: 26da e83c 6e92 33bd e9cc 62be 0000 6f3e
000001d0: be2e 023c e08f 19be b588 2cbd 5a83 44bd
000001e0: 206a 1e3e 0d5c d7bd 06e5 c63c c8d0 273d
000001f0: f5bf 073e a239 803e 5f85 af3e c709 983e
00000200: 1aa2 973e a115 983c 8188 c93d a90f d43c
00000210: 0f1b 78bd b463 6abe 8f08 69be 2d1d afbe
00000220: b725 b23d 0105 30bd 9cc6 0c3d 8512 193e
00000230: 216b 51c0 a0de 89bc f70c 7abc 4e76 03bd
00000240: 844d 2bbc 4d4a a23d a47d edbd 9c08 b7bd
00000250: 2b01 09bd a6e3 6f3e 8677 ea3e 4e22 57bd
00000260: 019d 0a3d ce89 dbbd 2950 0a3e 8ed0 10bd
00000270: 73e7 7f3e 8b2a f13d 8347 033d 17a3 293e
00000280: 5fac 633d 39af 1fbc c82d 0dbd d579 a5bd
00000290: 62dd 6b3d e97a 2a3e 3589 a63d 8da0 933e
000002a0: a662 8abe b85c 653e f89e 70bf 12ab 123f
000002b0: e9da b9bb 28b4 8d3e 3a91 0cbd 10b5 573d
000002c0: 6e41 2c3a 44ff 37bd 50b2 103e 0b48 113d
000002d0: aaa8 80bf c640 a8be c722 97bb dc5c 9a3d
000002e0: cb0f 80be 86e7 8abd 9d81 68be 3959 0d3d
000002f0: 6abf 40be be4e c1bc 58ef 3e3e 214e 003d
00000300: 2aba f4bc b0df 393e e07e c3be fe92 eabe
00000310: b104 03bf c0e4 71be 690b 0dbe dac5 a3be
00000320: 76e1 1cbf f5c9 de3c 2510 1e3d 5f0f a33e
00000330: e375 03be 4d12 f2bd 107c 33be d637 e23b
00000340: c3d6 853c 0083 03bd 6c73 a0bf 8980 ab3d
00000350: 86b3 143d 0703 fabc 49ed cc3e 52c1 96bd
00000360: 6caf 1b3d 25b6 28bd 4273 003e 146a 64be
00000370: fd68 06bd 70e3 7fbe afd7 95bc c559 b33c
00000380: 8642 66be 75d8 2c3e 8e3d 7dbe 4ba7 35be
00000390: 18cd 12bd 4a98 82bd a50b 8cbe d2a5 ac3e
000003a0: 27ec 56bc febd 3a3e 4c93 8dbe 4852 9cbd
000003b0: 6b3d 443e 9270 8ebd 87f7 7c3e 2ba6 4e3e
000003c0: cb9c 0f3f 463f 063e ba4b 293d f184 babd
000003d0: 9a8e bebd 5d9c 72be 1d0e 893d 96f0 e7bd
000003e0: c1e0 58be 9eb9 69be 3e4c a8bf 0e49 393e
000003f0: 1a73 00bc a2fa c9be 54b3 b9be ccc8 0e3d
-0.66623384 -0.17893136 -0.023165347 -0.08743648 -0.11860892 -0.1205551 -0.17714131 0.2652652
-0.3892182 -0.052215286 0.8591259 0.058986586 -0.019137459 0.03197186 0.5031283 0.11843588
0.492236 0.29547742 0.18318531 0.2642025 -0.2711384 -0.028077431 0.016116733 0.07323316
-0.118021026 -0.23702136 -0.05375384 0.21244937 -0.1296708 -0.11683743 -0.18480308 0.817506
-0.002270076 -0.14620854 -0.320339 -0.32303417 -0.4524447 -0.357333 -0.0029869718 -0.24044825
-0.35885674 -0.122340746 0.028221874 0.102572486 0.47344175 0.14876567 0.1633536 0.13961385
-0.12089171 -0.25710994 -0.09501305 0.038517445 0.055286564 -0.32025635 -0.29997304 -0.23097797
-0.14665443 -0.015638914 0.06379736 0.21166241 0.53156775 -0.14291637 -0.01854967 -0.16182877
0.1588464 -0.12060616 -0.14878848 -0.008446491 0.419648 0.10312218 0.6086521 0.12369666
-0.07461971 0.17761832 -0.3848882 -0.20619781 -0.029822322 -0.12780802 -0.1425158 -0.33860725
0.92866474 0.049025133 0.00049582554 -0.50913113 0.048234142 0.06351552 -0.0037321264 -0.23960645
-0.080905564 0.069151305 0.37965548 -0.35821334 0.0052177375 -0.3662361 0.0150186755 0.16867858
0.0025363232 -0.21570387 -0.06692288 -0.101417534 1.204794 -0.15970714 -0.02314813 0.1137963
-0.066964455 0.14334264 -0.2169287 -0.03996518 0.123606116 0.07873227 -0.6945804 0.35758236
0.028424334 -0.043840818 -0.2214848 0.23339844 0.0079457145 -0.1499629 -0.04212256 -0.04797683
0.15470171 -0.10515604 0.024279129 0.040970594 0.1325682 0.2504397 0.34281442 0.2969496
0.2961586 0.018565001 0.09840489 0.025886374 -0.06057268 -0.22889596 -0.22757171 -0.34201947
0.086986 -0.042973522 0.034369096 0.14948471 -3.2721636 -0.016829789 -0.01526188 -0.032095246
-0.010455493 0.07924328 -0.1159623 -0.08937189 -0.03344838 0.23426685 0.45794314 -0.05252295
0.033841137 -0.107196435 0.13507141 -0.035355143 0.24990635 0.117756926 0.03205062 0.1656612
0.055584308 -0.009746366 -0.03446749 -0.08079878 0.057584174 0.16648449 0.08131639 0.28833428
-0.27028388 0.2239865 -0.9399257 0.5729228 -0.005671848 0.2767651 -0.034318186 0.05266291
0.0006571029 -0.044921175 0.14130521 0.035469096 -1.0051472 -0.32861918 -0.0046123 0.07537243
-0.2501205 -0.06782441 -0.22705694 0.034508917 -0.18823019 -0.023597118 0.1864599 0.03132451
-0.029873926 0.18151736 -0.38182735 -0.4581527 -0.51179034 -0.23622417 -0.13773884 -0.31986886
-0.61281526 0.02719591 0.038589615 0.31847665 -0.12837939 -0.11819897 -0.17527795 0.006903629
0.016337758 -0.032107353 -1.2535224 0.083741255 0.03630402 -0.030519022 0.40024784 -0.07361092
0.038009092 -0.04118933 0.12543967 -0.2230609 -0.03281497 -0.24989104 -0.018291323 0.021893391
-0.22486314 0.16879447 -0.24730512 -0.17739598 -0.035840124 -0.06376703 -0.27352634 0.3372026
-0.013117827 0.18236539 -0.2765144 -0.076328814 0.19164054 -0.06955065 0.24703799 0.20180576
0.5609862 0.13110074 0.041331984 -0.09107388 -0.09304543 -0.2369246 0.06692145 -0.11325185
-0.21179487 -0.22824714 -1.3148267 0.18094274 -0.007839942 -0.3944903 -0.3626963 0.034859464

hidden.0.bias f4 [64]
00000000: b2be 263f 8c92 4f3e 1f34 1b3c 6521 f8be
00000010: dc53 aabe 4d45 6d3e d414 0dbe a379 9d3e
00000020: ec0a 22be 5d5f 163f 7e1d e7be 680a a6be
00000030: 79d3 c93e 3ea5 5abe baaf 82be 4006 a0bd
00000040: dee2 c23e 0f5b b63e 9a97 e9be 0d8c 75be
00000050: 0f16 803d c10a bfbe 7b01 d83d 1ec0 b23e
00000060: e5a8 f03d ba95 933d dd77 d73e a439 8e3e
00000070: b333 603e b54e dd3c c79b 083f 5b48 af3e
00000080: e639 65be 8055 04be d7dc 66be ac5e 823e
00000090: dbde b8be f2b9 3fbe 7a2f 4bbe 8836 34be
000000a0: 1f66 9a3c 51f3 493e 51a9 ccbe 2c8b 543f
000000b0: e946 663d 9dd9 f43e e1a8 1fbe edda d6bd
000000c0: f47f 333e 3ef2 253e 52b9 333e 808e a9bd
000000d0: fd0c ecbd 9b68 c13e ef11 56bc 17ae 193f
000000e0: a07e 593e 7dc3 5ebe fa16 543d 2a13 7d3b
000000f0: 691c ab3e 3f5c 453d be17 343d 9ee1 dbbe
0.6513473 0.20270747 0.009472876 -0.48462978 -0.33267105 0.23170967 -0.13777477 0.30756864
-0.15824479 0.5873926 -0.45139688 -0.32429814 0.39419153 -0.21352097 -0.25524694 -0.07813692
0.3806371 0.35616347 -0.45623475 -0.23979206 0.06254207 -0.37312892 0.105471574 0.349122
0.11750964 0.072062925 0.42083636 0.2777835 0.21894722 0.02701507 0.533627 0.3423489
-0.22385368 -0.1292324 -0.22545181 0.25462854 -0.36107525 -0.18723276 -0.1984233 -0.17598927
0.018847523 0.19721724 -0.39972928 0.8302486 0.05621997 0.47822276 -0.15591766 -0.104909755
0.17529279 0.1620569 0.17551163 -0.08279133 -0.11525915 0.3777512 -0.013065799 0.60031265
0.2123971 -0.2175426 0.051779725 0.003861616 0.33420113 0.048183676 0.043967955 -0.4294557

hidden.1.weight f4 [64, 64]
00000000: 068d 823d d145 133e 73c3 f73c 6aa8 9b3d
00000010: 0ee6 30bc a798 633d 123d a83c f5bb a5bd
00000020: dc92 0dbe e64d 93be 8c6f 27bd efca f6bd
00000030: 1913 78be 582c 5d3e c5ba 2ebe 5c73 133c
00000040: 66b7 94be bce3 dfbd 65e0 5dbc d095 b3bd
00000050: ccbf 313d 211f 28be bbf3 903a 88df 89bd
00000060: f0f2 0c3d e5eb 9ebd b833 1abe 9917 84bc
00000070: bd8c b93d 5338 da3d 72aa 323d 62f6 7dbe
00000080: 9e40 003e 8323 84be c343 31bd 00a2 21be
00000090: da61 ddbd 2937 f3bd dc67 433e 6720 903e
000000a0: e647 2839 3800 f73d 16c7 95bd 4b4b 1a3d
000000b0: 9602 32bb beb4 bfbd e73a d23c dbe8 a9bc
000000c0: 752c 90bc 1886 1abe 50f9 a03e 5124 683e
000000d0: 1bde 9bbd c152 b7bc 156d 29bc cddf a6bd
000000e0: dcd9 6bbe cf0c fd3d b29b 813e 338a 30be
000000f0: 763f a83a a244 b0be 1c74 7cbe 84be b13d
00000100: b87b 88be 26b9 803d 9cda 21bd 9eab 77bd
00000110: cb67 6b3e 39d9 f7bd 2bac 05be abf4 3c3e
00000120: 1bcb 1f3d 1150 c83c 52c6 243d 4929 a73e
00000130: 0ff5 81be 9b19 7e3e 5a13 d6bd 8ddc c8bb
00000140: 18c1 4fbe d699 29be c754 43bd 9174 023e
00000150: 6ec2 42be 98aa b13d 37af ce3b 446e f9bd
00000160: 84e8 543e 4059 5fbe f358 8b3e b1f0 c1bd
00000170: 7308 ecbd c431 8cbb 8289 b7bc 2ea9 6cbe
00000180: e030 213e 7995 8ebd 7fce 23bc 1f45 5cbe
00000190: f10d ba3d 92d1 003e 2f8b e93d 8c1c 983e
000001a0: c57b f8bc 30e3 cabd fe92 71be be6e acbd
000001b0: 4d67 453b 9f82 d7bd 012a f43b d052 773c
000001c0: b9ed 20be 5bfb 20be 85bf 693d 3524 463e
000001d0: dff7 dcbc d448 0a3d 3595 3d3d 0b7f 1ebe
000001e0: e73a b4be 3a4d 2d3e a8fd a23d 5558 f0bd
000001f0: f5b0 873d 711d c53d a359 86bd d7e5 873e
00000200: c9f9 37bb c529 b1bc 1da3 55be 9418 2dbe
00000210: 4e11 613e 3e30 ed3d 5ba2 863d 5d7b 27be
00000220: 1701 4bbe e6af f03d 7810 373e c807 343d
00000230: ea2f 85bd 4837 373e 8d98 173e 1f1b 023e
00000240: a2fd a53d 2ceb 48bd 8fbd 11be ed96 32be
00000250: 1524 dc3c 85fd 38bd b83a 083d db3e 713d
00000260: 7f33 e3bd 43be 9a3b dabc 07be 5245 59bb
00000270: 6f81 dbbd 1d18 20be a20b 84bd 4d18 313e
00000280: 8cd7 173d 33d9 843c 3cbe 1fbc 43e1 df3d
00000290: 6997 793d bc45 be3c b743 b7bc b9b4 7ebe
000002a0: 9669 aebd 6d06 33bc 94b2 263e bb5a 2b3e
000002b0: 6dd3 d1bd 2bf6 e6bc 6ce8 64bd b447 16be
000002c0: f8b3 89bd a41a 193e def5 e7bd 52cf aebd
000002d0: 1eda 923d 48c4 f9bd 3583 153e bc20 70bd
000002e0: 8212 8a3d a2ea aabd c177 a8bc e7aa c93d
000002f0: b0ef aa3c 0c2c 24bd 233e 10be bbb6 a0bd
00000300: d9a0 cc3d 8d79 b6bd 9c8c 663d 5682 9dbd
00000310: 6c18 15be 5027 c83d 0029 5cbd f2dc 83be
00000320: f394 42be 9916 8ebe 41f0 1ebe 0a4e f13c
00000330: 8dbd f23d b137 e13b bdee 8f3e 58b3 98bd
00000340: 0530 653e 2eee 1ebd 2ce5 c13d ddad 8f3e
00000350: 8089 c33d 4a1e 923c 862e 97be 33e9 d43d
00000360: b6f2 a0bd b8cd bbbc fdb0 f73c 9801 cf3d
00000370: b736 2b3e 7445 f43d 263e cc3d 53eb 233d
00000380: 5e20 8d3d 4f82 69bd 1fc4 41be 01d6 7fbe
00000390: 2065 5abe 9507 22bd 4b93 733c e9db 4a3c
000003a0: e4c3 763c 0fdb 6e3d ece6 14be 466f f73d
000003b0: 0097 55bd 2f06 0e3e 1c0b 9b3d 4185 41bd
000003c0: 1b53 f13c 21b8 1f3e 3f2c 563e 1dac b1bd
000003d0: 97d3 88be 6f57 253d 1135 ac3e 214e ed3d
000003e0: 49da 59bd 73da 6c3e 1e95 d03d 280b d13d
000003f0: e71c b2bc ca3c 1e3e 90b4 133e 0bdc ecbd
0.06374554 0.14382102 0.030244565 0.07600482 -0.010797037 0.055565502 0.020536933 -0.080924906
-0.13825554 -0.2877037 -0.040877864 -0.12050425 -0.24226035 0.21598947 -0.17063434 0.008999672
-0.29046172 -0.10932109 -0.013542269 -0.08768809 0.043395802 -0.16418125 0.0011058965 -0.06732088
0.03441137 -0.07759837 -0.15058792 -0.016124533 0.09060047 0.10655274 0.04361958 -0.24801019
0.1252465 -0.25808343 -0.043277513 -0.15784454 -0.10809679 -0.11875755 0.19082588 0.2814972
0.00016048513 0.120605886 -0.07313363 0.03766946 -0.0027162186 -0.09360646 0.025662852 -0.020740917
-0.017599324 -0.15090215 0.3144021 0.22670104 -0.07610723 -0.022378327 -0.010340949 -0.08148155
-0.23032326 0.12355959 0.253141 -0.17240219 0.0012836296 -0.34427363 -0.24653667 0.08678916
-0.2665689 0.06285314 -0.039515123 -0.0604664 0.22988813 -0.12101979 -0.13053958 0.18452708
0.039012056 0.024452241 0.040228195 0.32648686 -0.25382277 0.24814455 -0.1045291 -0.0061298073
-0.20288503 -0.1656259 -0.04768827 0.12739779 -0.19019482 0.08675116 0.0063075083 -0.121792346
0.20791823 -0.2181139 0.272163 -0.09469736 -0.11525049 -0.0042783935 -0.022404436 -0.23111412
0.157413 -0.069621034 -0.009997963 -0.21510743 0.0908469 0.12579945 0.114035 0.2970928
-0.030332455 -0.09906614 -0.2359123 -0.0841956 0.0030121387 -0.10522961 0.0074512963 0.015095428
-0.15715684 -0.15720885 0.057067413 0.1934975 -0.026973663 0.03376086 0.046284873 -0.1547815
-0.3520119 0.16923991 0.07958537 -0.11735598 0.06625549 0.09624756 -0.065600656 0.2654254
-0.0028072468 -0.021626363 -0.20863004 -0.16903907 0.21979257 0.11581467 0.065739356 -0.16355653
-0.19824634 0.117523 0.17877376 0.043952733 -0.065032795 0.17892182 0.14804287 0.12705658
0.08105017 -0.049052402 -0.14232467 -0.17440386 0.026872674 -0.04516365 0.033259124 0.058897834
-0.110938065 0.004722388 -0.13255635 -0.003315289 -0.10718047 -0.15634198 -0.06447531 0.17294426
0.037070796 0.01621685 -0.009749945 0.10931637 0.06093541 0.023226611 -0.022371156 -0.24873628
-0.08516233 -0.010926825 0.1627906 0.1673383 -0.102454044 -0.028193554 -0.055885717 -0.1467579
-0.067237794 0.14951569 -0.11326192 -0.08535637 0.07170509 -0.12195641 0.14600833 -0.058624968
0.06741811 -0.08345534 -0.020564916 0.0984705 0.020866245 -0.04008107 -0.14086203 -0.07847353
0.09991617 -0.08909903 0.05628644 -0.07690875 -0.14560097 0.09773123 -0.05375004 -0.25754505
-0.19002132 -0.27751616 -0.15521337 0.029456157 0.1185256 0.006873094 0.2811183 -0.07456082
0.22381599 -0.038801365 0.09467539 0.28062335 0.095477104 0.017836709 -0.29527682 0.10396042
-0.078587934 -0.022925243 0.030235762 0.10107726 0.16720091 0.1192731 0.099727914 0.040019345
0.06890939 -0.057009038 -0.1892247 -0.2498398 -0.21327639 -0.039558012 0.01486666 0.012381532
0.015061352 0.05831438 -0.14541215 0.120817706 -0.052145958 0.13869546 0.07570478 -0.04724622
0.029458573 0.15597583 0.20915316 -0.08675406 -0.2672393 0.040366586 0.33634236 0.115871675
-0.05318669 0.23130207 0.10184692 0.10207206 -0.021742297 0.15452877 0.14424348 -0.11565407

hidden.1.bias f4 [64]
00000000: 46c9 38be 7fb7 84be 66f5 07bd bee1 92bd
00000010: 9bcf e1bd ec52 35be 43ab 013e ddd0 8e3d
00000020: c852 b23e ac94 063d 72c9 313e 64c2 2b3e
00000030: 9cb9 d4bb 17f8 d7be c481 4e3c 5cdc 61be
00000040: bbde 9fbe 0b27 f3bd 4e8c 523e 9dca 66bd
00000050: 1833 7f3e 26e1 553e 2f7b 783d 2dac 113e
00000060: faef 24be 362f 6e3e c715 bebd 360a 0dbe
00000070: 784b e33d a4ee e4bd 638e 813e 8a27 88bd
00000080: 1835 d1bd 3d80 8d3e 3580 7f3e f705 5e3d
00000090: c937 2ebd 862f 1f3e 5396 4e3e a84b 0c3e
000000a0: e28a 6bbd cf32 cdbb 5eb6 d13d 6e12 7dbc
000000b0: d3cd 2bbe f946 663d 2b06 2fbe 1318 12bd
000000c0: 801e af3d 1651 263e ec5d c13b ac51 763e
000000d0: 872d 18be 1eca 14be 4fc1 f43d 47f9 29bd
000000e0: bb46 cebc 1fbf 8e3d 2cf0 9dbc 0e3d df3c
000000f0: 7155 3f3c 6303 4a3e 5eac 05be 3e9c 76be
-0.1804553 -0.25921246 -0.033193015 -0.07171963 -0.11025926 -0.17707413 0.12662987 0.06973431
0.34828782 0.03285663 0.17362002 0.16773373 -0.006491853 -0.42181465 0.012604181 -0.22056717
-0.31224617 -0.11872681 0.20561334 -0.05634557 0.24921834 0.20886669 0.060664352 0.14225836
-0.16107169 0.23260197 -0.092814974 -0.13773426 0.11098379 -0.111783296 0.25303945 -0.066481665
-0.10215205 0.276369 0.24951251 0.054204907 -0.04253367 0.15545473 0.20174532 0.13700736
-0.057505496 -0.0062621604 0.10239862 -0.0154462885 -0.16777734 0.05622003 -0.17092197 -0.03566749
0.08550739 0.1624187 0.005901089 0.24054593 -0.14861117 -0.14530227 0.11950933 -0.041497495
-0.025180211 0.06970047 -0.019279562 0.027250793 0.011678086 0.19727854 -0.13054034 -0.24083039

hidden.2.weight f4 [64, 64]
00000000: 610d 813d 62b9 7cbe 0a44 3abe 349d ef3c
00000010: a8d3 63bd dfcc 20be 3f8b e6bd b641 243e
00000020: c412 84bc 7be8 b0bd bc23 e93d aceb 1e3d
00000030: a874 423d 426d 933d c2ed 6bbe e43b c53c
00000040: 4bdb 90be 9b20 95be ec71 453b ca16 eabd
00000050: 3a5c cd3c e73e d83d 1817 3b3e 3d18 083e
00000060: ea25 f4bd f069 943e add1 89bd b9ac 943d
00000070: 4864 f4bd 2f5b d7bd 3c1a e83d 882b 9bbd
00000080: 9be9 03be 836a e63d c7a7 9b3e 405f b7bd
00000090: 37b2 b13d b99e 483e 3adf 443d 73c3 22bd
000000a0: a984 063e b37e 84bc 963b 05be 58aa 21be
000000b0: b143 8abe 74d2 0a3d 04b8 81bd b657 05bc
000000c0: dd61 05be d1d5 4abc 0dc8 40be c3db a93e
000000d0: 2205 5b3c 957f bb3d 88b5 06be 456a 633d
000000e0: ea1c 99bd a761 8c3d 1823 e03d 0487 073d
000000f0: 8257 113e bb03 91bd 6f6b 6cbe f1b7 5fbc
00000100: 48f5 afbe ac9e c6bd d7b8 6abd 3431 6a3d
00000110: d0f4 ccbd e152 22be 3253 bd3d 759e 82bd
00000120: 5db9 e73d 823c a23d ab00 86be 5b6c 743d
00000130: 5dc9 7cbe 2a7b 0ebc 9f28 c83d c3bc 56bd
00000140: 6c5c 54be cef3 d83d c77f 0dbe 3836 713e
00000150: 2ac9 6a3e bdcd 993d f360 b03d d263 753b
00000160: 9331 8a3d 14f1 373c b7b5 493e f2d2 a73a
00000170: 11f2 c53d fcef f1be 1f3a ac3d eb21 4abc
00000180: 59d8 593e bff4 a3bd 4c7c 00be 4ac7 a6be
00000190: 70a9 86be 745a b9bd 510d 4f3e e934 003d
000001a0: d362 973e 31f4 ab3c db2b c33d 0483 6dbe
000001b0: 6156 6fbd 15bc 32be 1baa ca3e 495e d8bc
000001c0: ab0e 853d 5a97 2b3e f951 02be 3e7d 86bd
000001d0: 3b8a abbd 17ba 033e 5d86 eebd 4042 3dbe
000001e0: a3f8 89bd c09a f43d 5709 b9be 14ac 023e
000001f0: ee25 2b3e 38bb 6d3b 3cf2 40be 67d3 aebc
00000200: 51ae 94bd 5a01 28bd 7820 643c fe9a 37be
00000210: f0f8 023e 49aa 953d 5c09 b0bd a91c c9bd
00000220: d76b 353d 4a5c d63c fec4 373e c036 543c
00000230: e06d 2a3e 5474 fc3d d8a5 ad3d 4b6f 10bd
00000240: 942a 173e 8d4f 003e f79a a4bd 5d91 2bbe
00000250: d956 13be 665c d13c 0d73 883d b47a f33d
00000260: c5f4 7c3d 3ab3 b03c c856 efbc 71db 853d
00000270: f7d2 7fbd 5589 e13c 839d 29be 4f81 97be
00000280: c823 0b3e c6dd 60be 125a 64bd bf1b 673e
00000290: 3a8f 42bd b21e 16bd 7e30 c8bd 4768 60be
000002a0: b313 123c f703 093e c489 5dbe b9ba 833d
000002b0: 5293 613d 4935 68bc 4684 5c3e 921e 693d
000002c0: 5be0 babc e047 2a3e 175a 86bb d55e 01bd
000002d0: 8bd1 73be b276 d0bd 06c7 453d 7647 4d3e
000002e0: cedd c03d 0c49 753d 511d a53d 30cc 653e
000002f0: c16e e93d bf0e e73d 6117 253d a4cc 9ebe
00000300: 9522 223e 2d43 40be 7d4e c0bd 6486 5d3d
00000310: caf7 a0be ec28 e53d 6fa6 113c 4950 053d
00000320: 0aa9 c8bc e58b 253e f5ce 8dbd 4937 ddbd
00000330: 5381 cbbe cb6d aebd 89fc 8a3c c950 963e
00000340: cc20 c43d 7a87 fa3d 3011 8e3d ce53 cf3b
00000350: 1dc3 fbbd 300e 24bc 2345 99bd 0b07 5b3e
00000360: ee5f a33e 089d b53d 6407 d0be 3026 b6bd
00000370: 6437 ff3d 961e 833d 3ae8 183e ece2 123d
00000380: b272 95be 53f0 04be 7e9c f03d 272e 1ebd
00000390: 749d 853e c851 2bbd 1463 0b3e be9b 763e
000003a0: d8ca b13d 7243 ee3d 566a 433e 4630 aabd
000003b0: af9c f63d acb1 6c3d 9cd0 b7be c911 f1bc
000003c0: bad4 a13d 6453 69bd 9ebf 3c3c 5336 7abc
000003d0: 1138 c93d 4d5c 853d da9d 56be 9cff 5dbe
000003e0: e945 6ebd 5b50 2ebe a5c4 4b3e 862f 2dbc
000003f0: 1f18 e3bd c914 22be 4246 6f3e d05d 593d
0.0630138 -0.24680093 -0.18190017 0.029249765 -0.055621773 -0.15703152 -0.11257028 0.16040692
-0.01612223 -0.08638092 0.11383769 0.038798973 0.047474533 0.07198574 -0.23039916 0.02407641
-0.28292307 -0.29126438 0.0030127717 -0.11430128 0.025068391 0.10558873 0.18270528 0.13290496
-0.11921294 0.28987074 -0.067294456 0.07259507 -0.1193319 -0.10515439 0.11333129 -0.07576662
-0.12882082 0.11250784 0.3040144 -0.08953714 0.0867657 0.19591798 0.048064448 -0.039737176
0.13136543 -0.016173696 -0.13011011 -0.15787637 -0.2700477 0.03389211 -0.06333926 -0.008138588
-0.13025613 -0.012380079 -0.18826313 0.33175477 0.013367923 0.09155194 -0.13155186 0.05552127
-0.07476218 0.06854563 0.109441936 0.033087745 0.14193538 -0.0708079 -0.23087858 -0.013654695
-0.34366822 -0.09698233 -0.057305183 0.05717583 -0.10007632 -0.15851928 0.09244384 -0.063778795
0.11314652 0.07921697 -0.26172385 0.05967365 -0.24686189 -0.008696357 0.09773373 -0.05242611
-0.20738381 0.10593377 -0.13818274 0.23555839 0.229283 0.075099446 0.086122416 0.003744353
0.06747737 0.011226911 0.19698225 0.0012803955 0.09665311 -0.47253406 0.08409523 -0.012337188
0.21273936 -0.08005666 -0.12547415 -0.3257392 -0.26301146 -0.09050456 0.20219924 0.03130046
0.29567584 0.020990463 0.09529849 -0.2319451 -0.058431987 -0.1745456 0.39582905 -0.026412146
0.06496938 0.16756955 -0.12726583 -0.06566857 -0.08375975 0.12863956 -0.116467215 -0.18482304
-0.06736877 0.11943579 -0.36139938 0.12760955 0.16713688 0.003627492 -0.18842405 -0.021341039
-0.07259811 -0.041016914 0.013923757 -0.17930219 0.12790275 0.0730787 -0.08595535 -0.098199196
0.044292297 0.026167054 0.1794624 0.012952507 0.16643476 0.12326875 0.08478898 -0.035262387
0.14762336 0.12530346 -0.0803737 -0.1675467 -0.14388599 0.025556754 0.06662569 0.11888638
0.061756868 0.021569837 -0.029216185 0.06535996 -0.06245705 0.027531305 -0.16563992 -0.29590842
0.13587868 -0.219596 -0.05574996 0.22569178 -0.047499873 -0.036650367 -0.09774874 -0.21914779
0.0089158295 0.13380419 -0.21634585 0.06432099 0.055072136 -0.01417286 0.21534833 0.05691392
-0.02281206 0.1662898 -0.004100095 -0.03158458 -0.23810403 -0.10178889 0.048285507 0.20046791
0.09417306 0.059884116 0.08062232 0.22441173 0.11398078 0.112821095 0.0403055 -0.31015503
0.15833504 -0.18775626 -0.093899705 0.054083243 -0.31439048 0.11189446 0.0088897785 0.03254727
-0.024494667 0.16166647 -0.069242395 -0.108015604 -0.39747104 -0.08517035 0.016966121 0.2935851
0.09576568 0.12232871 0.06936872 0.006327129 -0.12293074 -0.010013148 -0.0748389 0.21389405
0.31909126 0.08867842 -0.4063064 -0.088940024 0.12461737 0.06402318 0.14932337 0.03586094
-0.29189068 -0.12982301 0.117485985 -0.038618233 0.2609669 -0.04182604 0.13612014 0.24082848
0.086812675 0.11633958 0.19083533 -0.08309989 0.12041604 0.05778663 -0.35901344 -0.029427426
0.079019025 -0.056964293 0.0115202945 -0.015271741 0.09825147 0.065117456 -0.20958653 -0.21679538
-0.05817214 -0.1702284 0.19899233 -0.0105704125 -0.11088585 -0.15828241 0.23366645 0.053067982

hidden.2.bias f4 [64]
00000000: 1c3a 453e 64be 213e 3382 ec3d cf36 6abd
00000010: 8e0f b03d 426d 253e 0b10 983d 00fe 973d
00000020: 71f6 b13d 7984 9e3d 10ab 4f3e 9cc0 e9bb
00000030: bf72 083e 9ae4 fb3d 1bf7 cfbd 8065 db3c
00000040: ff5a e73d 269b ecbd f4a2 d7bc 3307 25be
00000050: 0a3f 4ebe d6ed d33d d471 4d3e 964f 17be
00000060: 8e0a cdbd ac42 d63d 2a82 a83e 9933 863e
00000070: c469 f3bc 696a 0b3d 2efc e0bc 5f84 323e
00000080: c691 283d 80ba a6bd e486 81bd a6a8 09be
00000090: 1f61 e4bc 5e83 9dbd a1c0 49bd d6b2 cfbd
000000a0: df73 9bbd e8eb 613d d349 d73d 92e2 d33d
000000b0: f270 38bc 3025 563d c178 603d 4e1d 4a3d
000000c0: 2439 8fbd 88f7 6d3e bbd6 7d3d a044 3b3e
000000d0: c708 8fbe e528 1abd 4aab 123e 7e4e 24be
000000e0: 09e8 df3d 15ec 3f3d 7866 89be 5ba0 ffbd
000000f0: 2ad5 2fbe 2d31 443d 862c 173e b5c5 0abe
0.19260448 0.15795285 0.11548271 -0.057181176 0.08596717 0.1615496 0.07424935 0.074214935
0.08689583 0.07740111 0.20280099 -0.0071335565 0.13325022 0.12299462 -0.101545535 0.026781797
0.11296653 -0.1155303 -0.02632282 -0.16116028 -0.20141235 0.10348098 0.20062953 -0.14776453
-0.10011779 0.104619354 0.32911807 0.2621124 -0.029713519 0.034037028 -0.027463999 0.17433308
0.041154645 -0.08141041 -0.063245565 -0.1344324 -0.027878342 -0.07691072 -0.04925597 -0.10141532
-0.0759046 0.05515662 0.10512128 0.10345949 -0.011257397 0.05228156 0.05480266 0.049344353
-0.069933206 0.23238957 0.06197236 0.18287897 -0.27936384 -0.037636656 0.14323154 -0.16045567
0.10932929 0.046856005 -0.2683599 -0.12481757 -0.1717116 0.04789846 0.14763078 -0.13551982

hidden.3.weight f4 [64, 64]
00000000: e3f6 20bd 2aec 243e 6c70 85be d1b4 01be
00000010: 6075 ea3d 468c 87be f782 03be 160a 1f3d
00000020: 615c 1d3d b7e9 e23e 447a 77be 9e74 aabd
00000030: d6cc c7bc 5976 413d 1d91 f2bd 7ff2 b13d
00000040: 300c 99be 89ff 38bd d90f 943e 2796 e5bd
00000050: 258c 68bd f419 d6bc fca1 df3c 838b 073e
00000060: 3d9c a3bb f7c9 033e 7f12 513e c617 363e
00000070: ab82 fd3c 629d 14bd 6e5a 2a3e 9300 8cbe
00000080: 040b 09be 657b 9dbd cb37 a73c 23da 043d
00000090: dd1a b3bd 0fe0 85bd ca97 073e 8ccf a53d
000000a0: c16c 2a3d 5882 b63c 86cd c33e 310d 09bd
000000b0: 6a71 ec3c e3e3 3fbe 64e1 d43c 8787 493e
000000c0: c118 6dbe d364 8bbd a371 8b3d 8de1 2cbe
000000d0: 1eac 99bc eee7 d73d 3de3 7d3e 67ce d53d
000000e0: f05a 993e 9118 763e 5dac 46be 74f5 0f3c
000000f0: 75b0 8c3e 8f55 bfbd 0e6a 0c3c d489 093e
00000100: 0e3b 793d e32e 003e 1999 0a3e 2d0c 43be
00000110: 99a6 2c3d 8bdc ff3d ff1c be3d 9e43 063e
00000120: c898 013e df95 0f3e f57e a43d 4a25 c03b
00000130: 386c 81bb 97f0 aabc dca4 f7bd 4a7e 663e
00000140: 7980 03be ebe7 12be e41d 293e cb64 d23c
00000150: 4677 33bc 9dde 183e afcb dcba a392 3f3d
00000160: d3ad 363b 2d2b b7bc 54a9 a8bd 7bdd e53c
00000170: 2660 6abd 41e0 f8bd f426 ba3d b79d 11be
00000180: d64f 98bd 563f 083e 7bb0 3e3d 9f52 09bd
00000190: 0556 193e a6c2 5e3d f312 80bd 8190 a13d
000001a0: dab8 31be cbff c43a 44b1 4d3e c21b 973d
000001b0: c726 b83d 3cc1 a3bd 693e 4cbd 798e 673e
000001c0: addc 8fbe cfe1 473e fa65 21be d15d 5e3d
000001d0: 9dc7 a3bd 1d60 01bd 4379 b73e 83ed 803d
000001e0: 4460 32bd 3237 143e b35f eabb ebe0 4f3d
000001f0: d229 423d 54a8 a43c 5896 343e d00b ac3d
00000200: 83cf c93d db8e 89bd 3428 053e 902f 55be
00000210: 1bb1 6a3d 1199 91be 7c60 763e 7852 913e
00000220: 107a 1d3e 3b50 7bbe 4917 bc3c cec3 75bd
00000230: bdd3 52be a1b4 a33e 3919 01be ec19 de3d
00000240: 4193 e3be 806d 44bd 171c 14be edf9 fabd
00000250: ae0b a7be 4181 29bd 9acd 533e 99cb 7a3e
00000260: 6d76 44be 61d6 053e 6fe6 aa3d 6b6a 6a3e
00000270: 25df 26be 303f 253d 7ec1 c5bd 4811 a83e
00000280: 5931 7f3e 52d6 d6be 01e1 05be 1c01 61bd
00000290: 2aec 8c3d fa04 553d 6198 e5bd 9bee 8fbe
000002a0: 2d71 88bb f42d a1bc fda7 a2bc a8a4 e7bd
000002b0: ec28 dbbd 0fdf b03b 4683 c8be fb35 7fbd
000002c0: 1c66 94be df1f a73e e935 143e d833 453e
000002d0: b8fd cebd 9a19 41be 3985 153e 37dd 233d
000002e0: 8e64 283e b4fc a43e 0d23 85be 18c6 a5be
000002f0: 96ba b1bd 5c7b 2a3e 21e9 223e d7e3 2f3d
00000300: 29f4 8a3c 1461 ebbd 6b51 07bd ec1e 5abb
00000310: 459f 0e3e 6895 4e3c b40e 513d 06e4 36be
00000320: 0c33 10be d13a 223e c6d9 d7bd 2dab 923d
00000330: cbe4 15be 1f26 9dbe a96c b83d f5c1 df3d
00000340: 6d5b 9fbd 0eb8 c6be 7198 8a3e 78d5 533e
00000350: aa4e 06be 0c3b 1ebf 5a15 adbd 2f8c 4d3d
00000360: 5939 d03d 2e95 dabe 7551 353e 975d 723d
00000370: 7c84 70bd e83d ce3d 94de c23e 7346 1bbe
00000380: 8b6d 963c d265 74bd fb8c a4be d172 9d3e
00000390: 79ce 27be 5aac 06be 0d36 413d 9cb0 673d
000003a0: 327a e7be 98dc 293c 38cc 08be a024 8fbe
000003b0: ce85 cb3e 7ca7 bc3c 7f1d 7d3d 7e3b 9a3c
000003c0: 4038 22be 5b0f 803e 7759 e5bd af0d 0f3e
000003d0: 5565 34bc df77 f7bd 5a15 30be 782b c5bd
000003e0: 6467 4e3e f5eb 3fbe f9ec bdbd 7c4e c93d
000003f0: 8d5c 933d b2c8 1b3e 9cba 4a3d be1d b63e
-0.03929795 0.16105714 -0.26062334 -0.12666632 0.11448169 -0.26474208 -0.12842928 0.038827978
0.038418178 0.44318935 -0.24167734 -0.08323024 -0.024389666 0.047232006 -0.118440844 0.086888306
-0.2989211 -0.045165572 0.2891834 -0.1121028 -0.056774277 -0.026135422 0.02729892 0.13236813
-0.0049929903 0.12870012 0.20417212 0.17782506 0.030946096 -0.036282904 0.16636059 -0.27344188
-0.13383108 -0.07689551 0.020412346 0.032434594 -0.08745358 -0.065368764 0.13241497 0.08096227
0.041607622 0.02227895 0.3824274 -0.033459846 0.028862674 -0.18739276 0.02598638 0.19680606
-0.23153974 -0.0680634 0.06808784 -0.16882916 -0.01875883 0.10542284 0.24793716 0.10439759
0.29952192 0.24032809 -0.19401689 0.008786548 0.27478376 -0.09342491 0.008570207 0.13431484
0.060847335 0.12517886 0.13534965 -0.19047613 0.042151067 0.12493237 0.09282874 0.13111731
0.12655938 0.14022015 0.08032028 0.00586382 -0.0039496683 -0.020866675 -0.12091991 0.22509113
-0.12841977 -0.14346282 0.16515309 0.025682827 -0.01095373 0.1492867 -0.001684537 0.046770703
0.0027874603 -0.022359455 -0.08235422 0.028059712 -0.0572206 -0.12152148 0.09089461 -0.1422032
-0.074371025 0.1330541 0.046555024 -0.03352606 0.1497422 0.05438485 -0.06253614 0.0788889
-0.17355672 0.0015029846 0.20087153 0.07378341 0.08991771 -0.07995841 -0.049864206 0.22612943
-0.2809805 0.19519733 -0.15761557 0.05428869 -0.079970576 -0.0315858 0.35834703 0.06295302
-0.043548837 0.1447418 -0.0071525215 0.050751608 0.047403164 0.020099796 0.17635477 0.084006906
0.09854033 -0.06716701 0.13003618 -0.20818925 0.057297807 -0.28437093 0.24060243 0.2838323
0.15378594 -0.24542324 0.022960322 -0.060001187 -0.20588584 0.31973746 -0.12607278 0.10844788
-0.44448283 -0.04795599 -0.1446384 -0.12254701 -0.32626098 -0.04138303 0.206839 0.24491729
-0.19185801 0.1307006 0.08344733 0.22892158 -0.1629606 0.040343463 -0.09656046 0.32825685
0.24921168 -0.41960388 -0.13074113 -0.0549327 0.06880982 0.0520067 -0.112107046 -0.2811173
-0.004163882 -0.019675232 -0.019855494 -0.113107026 -0.107011646 0.0053976844 -0.39162654 -0.06230734
-0.28984153 0.32641503 0.1447369 0.19258058 -0.10106987 -0.18857422 0.14601602 0.04000589
0.16444609 0.32224047 -0.26003304 -0.32377696 -0.086781666 0.1664862 0.15909244 0.042941894
0.016962128 -0.114931256 -0.03303663 -0.003328259 0.13927944 0.012608863 0.051039413 -0.17860422
-0.14081973 0.15842749 -0.10539584 0.071615554 -0.14638059 -0.30693147 0.090051 0.10925666
-0.0778111 -0.38812298 0.2706943 0.206869 -0.13115945 -0.6180885 -0.08451338 0.050182518
0.10167188 -0.4269194 0.17706855 0.059171285 -0.058720097 0.100704014 0.3806044 -0.15163593
0.018362781 -0.059667416 -0.3213881 0.3075166 -0.16387357 -0.13151684 0.047170687 0.056564912
-0.45210415 0.010367535 -0.13359153 -0.2795763 0.39750522 0.023029082 0.061795708 0.018827196
-0.1584177 0.25011715 -0.11198705 0.13970064 -0.011010488 -0.120834105 -0.17195645 -0.09627432
0.20156628 -0.18742354 -0.092737146 0.09829423 0.07195387 0.15213278 0.04949437 0.35569566

hidden.3.bias f4 [64]
00000000: b02f 113d f989 4dbd dedf a53e b8ed 393e
00000010: de4b 623e ff64 7abd ce75 9abd 8bf2 e8bd
00000020: c65c eb3d 8d86 c5be e55a 123c 0618 05be
00000030: 7f94 f6bd 241d 27be 0e3a 153e c2a0 463c
00000040: ccd4 5ebe 3dae f53d c5b9 b2bb 8ddb 2dbc
00000050: 8429 9eb9 2173 5c3c cd03 f2bd 97e4 13bd
00000060: 6dff c6bc 5a5c 7d3e 3ed7 cc3c 8084 a03d
00000070: 9596 6c3c 003e 04bd c0e9 e0bd 1831 8a3e
00000080: a7e8 8e3d f77e 593d 4439 ffbd d090 10bd
00000090: 8f77 ee3d 66a8 72be 6844 2fbd 9229 a1bd
000000a0: 2611 abbc 85d7 583d c3b7 6a3d 2983 803d
000000b0: 6ade 93bd 6e2d 403e e8d6 1c3e 04fe 2dbe
000000c0: bb4d febd 6e39 143e be65 963b 5aaa fcbd
000000d0: 5d62 27bd c540 523d 6152 08be f8bd 29bd
000000e0: e512 6c3e 5efe e4bd cc5d b5bd 9db9 b13c
000000f0: db1a 833d 5de1 e3bd 51cb 113e 4409 1a3e
0.03544587 -0.05018041 0.3239736 0.18157089 0.22099254 -0.061131474 -0.07542001 -0.113743864
0.114923045 -0.38579217 0.008932804 -0.12997445 -0.12040042 -0.1631971 0.14572927 0.012123289
-0.21760863 0.11996124 -0.0054542744 -0.010611427 -0.0003016704 0.013455183 -0.11817131 -0.036106672
-0.024291718 0.2474226 0.02500498 0.07837772 0.014440198 -0.03228569 -0.10982084 0.2699058
0.06977969 0.0530996 -0.124620944 -0.035294354 0.11643898 -0.23697051 -0.042789847 -0.07869257
-0.0208822 0.05293991 0.057304155 0.06275017 -0.072201565 0.1876733 0.15316355 -0.1699143
-0.1241717 0.14475033 0.0045897653 -0.123371795 -0.04086529 0.0513313 -0.13312675 -0.041440934
0.23054083 -0.11181329 -0.08855781 0.021694953 0.06401607 -0.11126969 0.14237715 0.15042597

hidden.4.weight f4 [64, 64]
00000000: ba8d 8cbc 1fa6 4fbd 1996 e93c 29da 57bd
00000010: a357 833d dfe0 883d aff5 063e b4ae ea3c
00000020: 6910 d53c 264c 9d3d 47a8 21be 6bda f33c
00000030: df46 833d 8528 933c 231b ee3d d80f b2bd
00000040: c987 9b3d 7f4d 0bbe 0731 443e dfe3 13be
00000050: 70e8 fc3c b5e8 5ebd b48e 6b3e 6286 043e
00000060: 79a7 5c3e 43dd 0f3e 7c53 ed3c 0312 0b3e
00000070: a35d 203e 0640 f53d 79ad 813d 0c96 00be
00000080: 2173 12be 05f8 0ebe 537b c43d 8174 14be
00000090: 0946 6b3e 6275 5c3d 25df 423d 0878 6dbd
000000a0: c335 ebbd b1ec 803d 7c2e 92bd e76b 29bd
000000b0: 7e0c 0a3e 1856 d53d b0da 6b3e 0429 b1bd
000000c0: d361 53be 2df4 3bbd bf89 b63d 1079 48bd
000000d0: 1daf 673e 0325 22be 969e 163e 978a 92bd
000000e0: f1cf e0bd 9060 243d c350 bfbb 2127 96be
000000f0: 8efb d8bd 3a00 de3d 0e03 903d 2eff 0d3e
00000100: bf16 24be 8571 1b3d 59e3 6cbe cfec f03b
00000110: ab9f 1c3e 72fa 733a 79a3 8a3d eab0 0a3d
00000120: 3fad 763e cd84 863d e1c3 843d 7965 01be
00000130: 4d57 0dbd 4448 bf3d 2f1c 103e 7f4c ef3d
00000140: 850e a8bc c3b8 dabd f745 a83d cafd 893e
00000150: 549c ad3d 7aa4 e1bd 5a76 123e 8e45 453d
00000160: 2eaa 123e d9aa d6bd 1159 51be 8754 32bd
00000170: 5b87 313e 1a3c 4b3d 5839 0b3e 0b04 153d
00000180: 1b42 a1bd e356 403e 1e70 83be 7436 20be
00000190: 2c16 4fbd c0b0 62be 47a1 2d3e b5db 33be
000001a0: e49d 95bd f918 a13d eb61 1dbd 2cac 013e
000001b0: e19c f6bd 5c89 2f3d c765 a73c a066 23be
000001c0: 655a 223e 4df8 243e eb17 be3d a5ab 5d3e
000001d0: 8c1c 63bd 68c2 a8bd e7c5 b53d bf97 80be
000001e0: 93bb bebd 9154 04be a7c5 b03d ad2b 10bd
000001f0: 8281 283e 21a9 683e 3713 b1ba 585b e33d
00000200: a143 db3d c5f6 923d ac3b ea3d f7f1 f63d
00000210: b160 f23d cd58 bf3c 6249 ac3d 7de4 14bd
00000220: 63e6 463e 6378 84bd 92f2 b8bd 5809 6cbe
00000230: 5631 9fbd d3ae 6bbd 73c7 413d 141e a5bd
00000240: 0351 8b3e 0a12 adbc d610 553e ab38 be3d
00000250: beb4 d4bd 4552 14be e8a2 e9bc 1bf9 8dbd
00000260: 51a1 f53c 5280 20bd 1a75 c2bd 3f79 e13d
00000270: b5fc 323e 8f99 a93d 85ef 3fbd 56fa c0bd
00000280: 12b3 80bd 9426 943d d82c 053e 8f88 883e
00000290: e2ce 83bd 075e c73d b1db 4fbe 4eb8 853d
000002a0: 0b26 4c3e 0bdf 27bc 351e 97bd dc6d 55be
000002b0: 5d92 0fbe e3c5 a9bd bc09 5a3e 1651 a8be
000002c0: 9550 733e f28d 5bbe 0c1b 51bd f8a4 04be
000002d0: 7318 6ebe 0bf7 f7bd e912 9abd 1395 973d
000002e0: 92a6 f3bc 5a7d 523c d174 1ebe a87d 7d3d
000002f0: 366c 773e 321c c43d 8893 263e 4774 e7bd
00000300: ceb7 e83b b38b 583d 9944 43be 9ade 0a3d
00000310: 3c0e d13d 1644 903e db51 a5bd 31e2 743e
00000320: 8c59 903c 7f58 a2bc a087 1f3e 527c 073e
00000330: 8931 16be ff52 31bd fd7c b63e 3404 2f3d
00000340: 722c acbd 89d3 153d b70c c8bc 88ee 07bd
00000350: 0e51 2d3d 73ad b23d 65a7 ba3d f5a7 d1bc
00000360: 8c5d 5fbd 7291 25bd 5d5b 9c3d 2448 4e3e
00000370: 75ca 8dbc 804b 97ba 49d1 2b3e a999 e03d
00000380: dc63 52be 390d 843e 2093 74bd 9fb3 89bd
00000390: 83a8 d93d 0382 ab3c e1f9 883d b11a 9dbd
000003a0: 3923 afbd 721a e1bc 6b68 d43c 57c4 0abd
000003b0: ff84 5a3d 7fa2 0ebe 2a68 22bd 03eb 18be
000003c0: 2c3e 373d a987 093e cd76 43be e372 e0bc
000003d0: bd97 81bc a8ca 20bb 8bf4 3c3e 0a91 a53d
000003e0: 8fb9 7e3d 27eb 483c ea79 023d da95 003e
000003f0: c0a0 f73d 117c 893d 26e7 403c f978 2ebd
-0.017157424 -0.050695535 0.028513955 -0.052698288 0.064132 0.06683516 0.13179658 0.028647758
0.026008802 0.0768054 -0.15786849 0.029767236 0.06410002 0.017963657 0.1162627 -0.08694428
0.07594258 -0.13603781 0.19159327 -0.14442395 0.030872554 -0.054421145 0.23003656 0.12941888
0.21548261 0.14049248 0.028970473 0.1358109 0.1566072 0.11975102 0.063319154 -0.12557238
-0.1430173 -0.139618 0.09593835 -0.14497568 0.22975935 0.053822882 0.04757609 -0.0579758
-0.114848636 0.06295145 -0.071377724 -0.04136267 0.13481328 0.10416812 0.23032641 -0.08650401
-0.20642786 -0.04588716 0.08912992 -0.04894358 0.22625394 -0.15834431 0.14708933 -0.0715534
-0.10977162 0.04013115 -0.005838485 -0.29326728 -0.10594855 0.10839887 0.07031833 0.13866875
-0.16024302 0.037950058 -0.23133601 0.0073524485 0.15295283 0.00093070336 0.06769461 0.033860125
0.24089526 0.065682985 0.064826734 -0.12636365 -0.034507085 0.093399554 0.14073251 0.11684512
-0.020514736 -0.10679772 0.0821647 0.26951438 0.08477083 -0.110176995 0.1430296 0.048162036
0.14322731 -0.10481805 -0.20444132 -0.043537643 0.1733679 0.049617864 0.13596094 0.03638081
-0.07873937 0.18783145 -0.25671476 -0.15645772 -0.050558254 -0.22137737 0.16956054 -0.1756428
-0.07305506 0.07866091 -0.03842346 0.12663335 -0.12041641 0.042855605 0.020434273 -0.15957117
0.15854795 0.16110344 0.09281906 0.21647508 -0.055447146 -0.08240205 0.088756375 -0.25115773
-0.09313121 -0.12922885 0.08631449 -0.035197902 0.16455653 0.22720768 -0.0013509755 0.11101407
0.107062586 0.07175974 0.11437163 0.1205787 0.11834849 0.023357773 0.08412434 -0.036350716
0.19423823 -0.064682744 -0.090306416 -0.2305044 -0.07773082 -0.057539772 0.04730935 -0.080623776
0.27210245 -0.021126766 0.20807204 0.09288152 -0.10386036 -0.14484508 -0.028520063 -0.06932279
0.029984148 -0.039184876 -0.094949916 0.11009454 0.17479213 0.08281242 -0.046859283 -0.09422748
-0.06284155 0.07233921 0.13005388 0.26666686 -0.06435944 0.09734731 -0.2029865 0.06529294
0.19936387 -0.010246049 -0.073788084 -0.2084269 -0.14020677 -0.08289697 0.21292776 -0.32874364
0.23761208 -0.21440867 -0.051051185 -0.12953556 -0.23251514 -0.121076666 -0.07523138 0.074014805
-0.029742513 0.012847269 -0.1547425 0.061887413 0.24162373 0.0957569 0.16267216 -0.11301475
0.0071019894 0.052867603 -0.19069137 0.033903696 0.10207793 0.28176945 -0.08072253 0.2391441
0.017620824 -0.019817589 0.1557908 0.13231018 -0.14667334 -0.043292042 0.35642233 0.042728618
-0.08406915 0.03657869 -0.024420125 -0.033186466 0.042313628 0.08724489 0.09113959 -0.025592783
-0.054532573 -0.04042191 0.07634614 0.20144707 -0.017308453 -0.0011542886 0.16779055 0.10966808
-0.20545906 0.25791338 -0.05971062 -0.06723713 0.10627844 0.020936018 0.066882856 -0.076711066
-0.0855164 -0.02747843 0.025928697 -0.03387865 0.05334949 -0.13929175 -0.03965012 -0.149334
0.044737026 0.13430656 -0.19088288 -0.027398532 -0.015819425 -0.0024534855 0.1845266 0.08084305
0.06218868 0.012263096 0.031854548 0.12557164 0.120912075 0.06713117 0.01177386 -0.042595837

hidden.4.bias f4 [64]
00000000: d004 623c 22b4 97bd 0889 2bbd 00d2 6cba
00000010: c059 b63d 8030 b23d 10fd 133d 5a12 833d
00000020: 2a5a ed3d 401f 1ebb a07b c43b 80f2 b4bc
00000030: d0b0 bfbc a8d2 fabd 70ae 7ebd 307d 703c
00000040: 60b4 1d3d dc40 febd 3ca7 9e3d ee0e e6bd
00000050: 903d a1bc 3ed1 d1bd 6c2b 2dbd 9cfb 90bd
00000060: b843 a7bd 681a 8cbd f4d3 be3d 5086 e43c
00000070: 2265 dd3d 50c4 67bd 4eed a7bd faf6 a13d
00000080: ba9d f83d ba4b dcbd 0428 9dbd 6ca9 fc3d
00000090: 8cc1 283d 70c3 d4bc 8a3a b03d 629b b6bd
000000a0: 88b3 ebbd 42ea 903d e083 093c d48c 733d
000000b0: f4af a33d 3875 9c3c 500b ffbd c8b8 ad3d
000000c0: 38dc 26bd c02a c2bb 30aa 693d 28fa abbc
000000d0: 807c 22bc c013 febd f8d4 363d 42f5 e9bd
000000e0: fc60 fe3d 98d3 bb3d caec f33d 4675 803d
000000f0: 9024 593d 406c 3dbc c05f 543c 789b 07bd
0.013795093 -0.074074045 -0.04187873 -0.0009033978 0.08903837 0.08700657 0.03613001 0.06399985
0.11589463 -0.0024127513 0.0059961826 -0.02208829 -0.02339974 -0.12247211 -0.062178075 0.0146782845
0.038502097 -0.12414715 0.07746741 -0.11233316 -0.019682676 -0.10244988 -0.04227774 -0.07079241
-0.08167213 -0.06840974 0.093177706 0.027896076 0.10810305 -0.056583703 -0.08199559 0.07908435
0.12139459 -0.10756631 -0.07673648 0.12337002 0.041200206 -0.025972098 0.086049154 -0.08916356
-0.11508852 0.07075931 0.008393258 0.059460476 0.07992545 0.019098863 -0.124533296 0.0848251
-0.04073736 -0.0059255064 0.05704707 -0.020993307 -0.009917378 -0.12406111 0.044636697 -0.11423732
0.12420842 0.09171218 0.11910398 0.06272368 0.053013384 -0.011561453 0.012962282 -0.03310725

output.weight f4 [9, 64]
00000000: 8063 9bbd 2c4b 593e 1d42 25be f9e6 c9bd
00000010: 161c 99bb b727 23be 6327 02bd e1f7 123d
00000020: 9e92 93bd 597a 7e3f 8eb4 8cbe 2fe5 843d
00000030: 3f8b b33c 931c 253f a16a 0e3e 19c5 0fbe
00000040: 86e4 01be 2066 b8be 3655 043d c1e8 173e
00000050: 8df7 9bbd 7649 4f3e bbdd 59be 7e01 07bf
00000060: 23b7 6bbd 4990 6e3e eccd 103f 23e8 35bd
00000070: 417e 26bf 1586 d0bd 3339 dfbc d83f 933d
00000080: dfce 193d b022 06bf a0f2 4ebe 5f15 bbbe
00000090: f7c4 813e f212 aebd 2dda cc3c c10d 583d
000000a0: 9bf9 e83e 3abc 773e 862f 413d df59 f0be
000000b0: 0419 843c c481 873c ab12 063f c9d7 593d
000000c0: 5e0a d13d da45 5dbe cbfc 8ebe 7349 00bf
000000d0: 7727 713f 5179 da3d 3f45 98be 33b6 9ebe
000000e0: dbc6 2fbd 30a4 cc3c e885 ae3e fd85 96bd
000000f0: 664a 363e 0963 17be 740b f6bd b0ac 033f
00000100: fbfb 9cbe 91a1 bbbc cc4a 04bf a919 69bf
00000110: fafd b03e 440c 88bc 0a2d 22bf 0b67 4f3d
00000120: e40c 82be 76fc 2bbf 01e2 b03e ccc3 16c0
00000130: 997e be3e 1a93 9abe 81d7 c3bd 38b2 a43f
00000140: 6b9e a5be 1bc7 0cbd b9bd abbf 42f7 ddbd
00000150: eebb 2cbd 14c2 ec3e 78cb 8c3e 7c2d 373f
00000160: 00a5 223e 2edc cb3d 829d 21be bc27 cdbe
00000170: a0f1 abbe 348f 7c3e 4cfa c7be a4fc c93d
00000180: dfc7 083f d0ae 50bf 865e 163e 6037 2cbf
00000190: e498 00bf a39a 023e c15c cabc 3ab1 20bf
000001a0: 190a ce3e 67d8 823e 339b 4d3e f61f 4f3e
000001b0: 8d69 8fbe caaa 783e 4731 003e f4fb a7bc
000001c0: fece 20bd 96eb 06be e11d bcbe 985e 973f
000001d0: 630c fcbe 9353 663e 7149 a33e a858 9d3e
000001e0: a2b4 d9be c607 b33d c908 f43e 693d c53d
000001f0: a054 80bd 4ed8 903e 2a43 1abe 3d47 05bf
00000200: bfd8 16bf 0744 aebe 3801 b03d 9436 d6bd
00000210: 2813 b63b 2909 f63d 0303 593e 4c49 a2bd
00000220: 2594 e43c 4268 82be a060 3fbe 782f e23c
00000230: 144b 52be e9da 7fbe c7d9 7dbe 5a45 98bd
00000240: 1bdf 56bd e61b 5abe 8177 533d 0d7e 17bc
00000250: c180 b23d 9a83 7dbd e4c4 d0bc 7fb0 e93d
00000260: 13d6 0d3e ae5d 29be c414 1d3e 42c1 5cbd
00000270: 295c a0be 9898 89be e5b5 1b3c f6d8 8bbd
00000280: a58e eebc 3f89 f1bc 36fc 903c bb3d 50bd
00000290: 39da aabe 2142 e73c f8ff 89bd 803b 72bd
000002a0: e346 45be 30f9 263c fac3 313e 28ac 6dbe
000002b0: facf d1be 471e 44be 235f f2bd 4a8e 55bb
000002c0: 67f3 90be 5cd6 10be 3669 e5bd 1367 8fbd
000002d0: a701 55be e2c7 48be 11be b5bd cb2b 9e3d
000002e0: 6059 92bd 81f3 16be 49cf bdbd fa6a 613e
000002f0: d4e8 593e 069a 8a3e 25f1 6cbc cf1b 7bbe
00000300: f2c2 893e 6692 d13d 399f ddbc 8866 02be
00000310: 26f5 ecbc 107d 943e 2e01 8ebd 03c6 a5be
00000320: dede 063d 4f50 bf3d 10e6 1a3e 9ec8 04bc
00000330: 7a53 d1bc 3663 debe f8f5 25be 7e1f 66bd
00000340: 2472 9c3c 2b33 923e 5b5a f03d 533c 22be
00000350: cc35 ec3d 91c7 8fbe 9087 cdbd 4aa0 613b
00000360: d55f ecbd 4bad 6abd f0fb 38be f837 b8bc
00000370: 9bdd 4cbe 4313 b63c b6b2 17be 680b 0c3e
00000380: c597 0c3e 3887 073e 99be 1ebe 7415 0b3e
00000390: 6ba1 d0bd 560d 00bc b863 623c cae3 05be
000003a0: ebcb 743d 01dd abbe f30d 6d3d deee ffbe
000003b0: fb51 e03e 666a 573e 5990 823e f2d3 8e3d
000003c0: 1da2 0fbe 9452 1d3e 4b5d 203e b891 3c3d
000003d0: a584 663d 716f 20be e1a6 3a3c 6437 733e
000003e0: 7b4b 333e 77ec 0abe f39f 863e 830e d0bd
000003f0: 5976 4cbe 15ae d23d fefb 39be caad 463e
-0.075873375 0.21220082 -0.16138501 -0.09858508 -0.0046725376 -0.15933119 -0.031775843 0.035880927
-0.072056994 0.9940544 -0.27481502 0.06489026 0.021916984 0.64496726 0.13907863 -0.1404003
-0.12684831 -0.36015415 0.032307826 0.14834882 -0.07615576 0.20242867 -0.2127599 -0.5273665
-0.0575477 0.23297228 0.5656421 -0.044410836 -0.650364 -0.10181824 -0.027248954 0.071899116
0.037550803 -0.5239668 -0.20209742 -0.36539742 0.25345585 -0.08499707 0.025006378 0.05274749
0.45502934 0.24192896 0.047164463 -0.46943566 0.01612521 0.01654137 0.52372235 0.053184304
0.102070555 -0.21608678 -0.2792724 -0.50112075 0.94200844 0.106676705 -0.2974033 -0.30998382
-0.042914253 0.024980634 0.34086537 -0.07349775 0.17801818 -0.14783873 -0.12013903 0.51435375
-0.30660996 -0.02290419 -0.5167663 -0.9105478 0.3456877 -0.016607411 -0.63349974 0.05063538
-0.2540046 -0.671821 0.34547427 -2.3557005 0.3720596 -0.30190355 -0.095625885 1.2866888
-0.32347426 -0.03436957 -1.3417274 -0.10838176 -0.04217141 0.4624182 0.27498984 0.7155378
0.15883255 0.09954105 -0.1578274 -0.40069377 -0.33582783 0.24664003 -0.3905815 0.098626405
0.5342998 -0.8151674 0.14684495 -0.67271996 -0.5023329 0.12754302 -0.024702432 -0.62770426
0.4024208 0.25555727 0.20078735 0.20227036 -0.28010216 0.24283901 0.12518798 -0.020505883
-0.039259903 -0.13175806 -0.36741546 1.1825743 -0.492282 0.22492819 0.3189197 0.30731702
-0.42520624 0.08741717 0.47662953 0.09630854 -0.06266141 0.28290027 -0.15064684 -0.52061826
-0.5892448 -0.34036276 0.085939825 -0.10459629 0.005556483 0.12013466 0.21192555 -0.079241365
0.027902672 -0.25470167 -0.18689203 0.027610525 -0.20536453 -0.24985851 -0.24790107 -0.07435103
-0.052458864 -0.21299705 0.05162764 -0.009246361 0.08715964 -0.061893083 -0.02548451 0.11410617
0.13851194 -0.16539642 0.15339953 -0.053895243 -0.31320313 -0.26874232 0.009503816 -0.068284914
-0.029120753 -0.02948439 0.017698389 -0.05084012 -0.33369616 0.028229775 -0.06738275 -0.059138775
-0.19265322 0.010191247 0.17359915 -0.23210204 -0.40978986 -0.19152175 -0.11834552 -0.0032586032
-0.283107 -0.14144272 -0.11201708 -0.07002082 -0.20801412 -0.19607499 -0.08874143 0.077231966
-0.07145953 -0.14741327 -0.09268052 0.22013465 0.21280223 0.27070636 -0.01446179 -0.24522327
0.26906544 0.102330014 -0.027053462 -0.12734425 -0.02892549 0.29001665 -0.06933819 -0.32377633
0.032927386 0.093414895 0.15126824 -0.0081044715 -0.0255525 -0.43435067 -0.16207111 -0.056182377
0.019097395 0.28554663 0.11735984 -0.15843324 0.115336984 -0.28081945 -0.10035622 0.0034427815
-0.11541716 -0.05729417 -0.18064857 -0.022487625 -0.20006411 0.022225982 -0.14814267 0.13676226
0.1372977 0.13235176 -0.15502395 0.13582402 -0.10187038 -0.00781568 0.01381772 -0.13075176
0.059764784 -0.3356705 0.05787463 -0.4998693 0.43812546 0.21036682 0.25500754 0.06974019
-0.14026685 0.15363532 0.15660588 0.046037406 0.056278843 -0.15667512 0.011392326 0.23751599
0.17509262 -0.13566767 0.26293907 -0.10159018 -0.19967021 0.1028711 -0.18162534 0.19402233

output.bias f4 [9]
00000000: e4a7 17bc 3a57 e83c d7ca ccbc 6a8a 35bc
00000010: 7ae0 a33d d090 943e 6e62 25be 55f8 523e
00000020: 8f05 793e
-0.009256337 0.028361905 -0.024999065 -0.011080364 0.080018 0.29016733 -0.16150829 0.20602544
0.24318527
