results/1_sampling/pinn_set5_dense_LBFGS_e1000.pth (torch, 79986 bytes, 12 tensors)

hidden.0.weight f4 [64, 10]
00000000: 87d8 1ebf 0eca 2abe 5a74 723c aff5 13bd
00000010: 88c8 a7bd e233 fabd fb5e 57bd 1ebe c13e
00000020: cad7 aabe da03 c03d c72b 843f 6269 623e
00000030: 99a9 86bd 62a5 903b f1b6 3c3f 63e3 d33e
00000040: 6b6f 263f d70c d93e 416f b63e 16eb ac3e
00000050: b7b8 0ebe 7e20 b0bd 4749 41bd 8112 983c
00000060: 6f07 c9bd d08c cbbd 8517 a3bd 943e f43d
00000070: 6a5b fcbd b1dc 59be 8dab 84be 4b47 023f
00000080: 9939 11bb 3b59 583c b0ca c6be f6ac eebe
00000090: f86a 0bbf 93b6 d5be e814 5ebe 5644 82be
000000a0: 9690 9dbe 023f 96be 9606 98bd 6c5a 40bd
000000b0: 738e a33e 07b8 eb3d a813 e33d e0e7 16bc
000000c0: 7046 2bbe 62ce 98be 1408 19bd e437 113e
000000d0: 7f66 c73d a991 85be 0da2 a5be 33fc b6be
000000e0: b25e d1be 4f79 90be f48b cdbd 1edb a93d
000000f0: 54b1 1e3f da5e cbbe 33b0 193d 2b84 46be
00000100: e2ff 883e 2c9c febd db5c bdbe b126 38be
00000110: 18e9 9b3e 828b 853c ce1d 3d3f bb42 703e
00000120: 4918 42ba 220c 473e 0631 9bbe 918f 1bbe
00000130: 48c7 a13d 1077 fe3b b12f c8bd 8456 6fbe
00000140: bddf 6a3f 5364 e5bd b026 cebd f697 c3be
00000150: 9110 d53d 6125 c3bd a578 ebbc b738 4fbe
00000160: a257 07be d036 9b3d 4662 073f b99d a1be
00000170: 1378 363b 0943 3dbe 9c97 99bd a2d3 b23e
00000180: 138b 743e cb9b c13d 84ba 953e fa43 133e
00000190: 2dbb a03f cb08 3bbe 72e6 10be 91df 8c3d
000001a0: 4a9a f2bc 13d8 b3bd a70a 74be 6b46 a7bb
000001b0: 0ac9 3f3e fe59 6f3e ea48 60bf 130d 043f
000001c0: e37b 0f3c 77eb 083e 750a 43be 13b3 973d
000001d0: b2a6 783d 9f4a 27be 3537 2fbe 8c8c 05bd
000001e0: 0580 073e eeee 873d 8837 c1bd db12 813d
000001f0: 8895 003e 0e48 7f3e 7e3b d23e 9a78 c43e
00000200: 49bb b53e de7e 3b3d 7b9a 3c3c bf6a 773e
00000210: c9c5 9c3b 1d86 4bbe 28a0 1a3e 4673 48be
00000220: 0a51 693d d564 10be f113 2bbd 2556 f63d
00000230: 2f4c 4fc0 e4fa c03c 78ef babc 9613 2abe
00000240: a996 b13e 1151 eebd 442b 9dbe dbda 42bc
00000250: 4aa5 a0bd 41e4 1d3e 9cc3 e13e bc00 87bd
00000260: 4425 59be 8baf 0fbe 1538 bb3d 3dca 703c
00000270: 87e5 9e3e 9797 783e 7da0 bd3d 46d4 f83d
00000280: a72b 8f3d 9010 6bbd 397f 283a ac07 0a3c
00000290: 6475 b43d 5763 343e de63 9d3d 9d8c a43e
000002a0: 2b0a 8ebe 3728 4b3e f31e 8fbf 20db b43e
000002b0: 9268 8d3d 57d1 ae3e b8bf eabd 84d2 f33e
000002c0: 7521 263e 74c9 483e 664e 783e 427b 5d3d
000002d0: 5975 88bf 94af 6ebe e9c0 73bd 1cf1 343d
000002e0: 7405 b5be 52e0 163d 2b46 bcbe 81e1 643e
000002f0: c0af f9bd 72fc 9ebd fba4 4c3e 5f79 b5be
00000300: 504a 3538 dfd7 4f3e 5b4a 8cbe 66e7 e3be
00000310: ba3e 08bf 3e58 81be 5013 1abe a18e aabe
00000320: 6abe 13bf bcd9 9abd 6f89 683e f116 633e
00000330: 037d 29be 6c04 543c d537 6ebe 469a f53d
00000340: 7a49 d1bc a9ee 59bd cc15 8ebf 7261 6ebd
00000350: 7c6b a2bd 1fea 483d c5d2 a63e e519 5d3d
00000360: 5e4b f03d 10fd da3c 8031 13be 4768 4bbe
00000370: 06f7 063e e8b3 90be 11f7 29bd cfb7 a23c
00000380: d0ae 9cbe 021d 353e b3ae aebe 1fa7 a1bd
00000390: c2a1 f8bc b590 5c3c 9ad9 43be b3f6 f9bd
000003a0: 32da 24bd 83fb bf3d a994 3cbe df9f cf3d
000003b0: dad4 a03e 96e5 203d ec16 7e3e 776b 973e
000003c0: 638a 0f3f 75f4 c03e 42bd 043d ea68 0ebe
000003d0: 4121 893e 8465 4cbe 7af3 61bd ef00 03be
000003e0: 6352 60bd c16f 6dbe 4cef ddbf be0c 6a3e
000003f0: fcf7 d73b 280b 83be f6d7 f0be 755c a7bd
-0.62049145 -0.1667864 0.014798248 -0.036122974 -0.08192545 -0.12216927 -0.052580815 0.3784036
-0.3336776 0.093757346 1.032586 0.22110513 -0.06575317 0.0044142464 0.73716646 0.4138442
0.6501376 0.4239261 0.35631755 0.33773106 -0.1393765 -0.085999474 -0.047189023 0.01856351
-0.09815871 -0.09938967 -0.0796347 0.11925998 -0.12322123 -0.21275593 -0.25912133 0.50890034
-0.0022159575 0.013204868 -0.38826513 -0.46616334 -0.54460096 -0.41740856 -0.21687663 -0.2544276
-0.30774373 -0.29344946 -0.07423131 -0.046961233 0.31944618 0.1150971 0.110877335 -0.009210557
-0.16726089 -0.29844958 -0.03736122 0.14181477 0.097363465 -0.26087692 -0.32350197 -0.35739288
-0.4089256 -0.2821755 -0.100364596 0.082937464 0.6198933 -0.39720803 0.037521552 -0.19386356
0.26757723 -0.12432131 -0.36984906 -0.1798351 0.30451274 0.016301874 0.73873603 0.23462956
-0.00074041315 0.19438222 -0.3031084 -0.15191485 0.07899338 0.007765658 -0.097747214 -0.23372847
0.9174765 -0.11200776 -0.10065973 -0.38201874 0.104035504 -0.09528614 -0.028744051 -0.20236479
-0.13217023 0.07578814 0.5288433 -0.31565645 0.0027842566 -0.18482603 -0.0749962 0.34927088
0.23881178 0.09453543 0.29243863 0.143814 1.2557122 -0.18265073 -0.14150408 0.068785794
-0.029614586 -0.08781447 -0.23832189 -0.00510483 0.18729034 0.23374173 -0.8761126 0.5158245
0.008757564 0.13371073 -0.19046958 0.074072026 0.060705848 -0.1633706 -0.17110904 -0.03260474
0.1323243 0.06637369 -0.0943442 0.063024245 0.12557042 0.2492983 0.41061014 0.38373262
0.3549445 0.045775287 0.01151144 0.24161814 0.00478432 -0.19875379 0.15100157 -0.19575223
0.05696205 -0.14100964 -0.041767064 0.120281495 -3.2390249 0.023557134 -0.022819266 -0.16609034
0.34685257 -0.11636556 -0.30697072 -0.0118929995 -0.078440264 0.15419103 0.4409455 -0.06591937
-0.21205622 -0.14031808 0.09141556 0.014696655 0.3103449 0.24276577 0.09259126 0.12149863
0.06990748 -0.057388842 0.0006427649 0.008424681 0.08811453 0.1761602 0.07685064 0.3213853
-0.27742133 0.1983956 -1.118132 0.3532343 0.06904711 0.3414409 -0.11462349 0.47621548
0.162237 0.19608098 0.24248657 0.054072626 -1.0660812 -0.23309165 -0.059510145 0.044175252
-0.35355723 0.036835022 -0.36772284 0.22351648 -0.12191725 -0.07762994 0.1998481 -0.3544416
4.322297e-05 0.20297192 -0.2740048 -0.4451248 -0.53220713 -0.25262636 -0.1504643 -0.33311942
-0.57712424 -0.07561061 0.22708677 0.2217672 -0.16551594 0.012940507 -0.23263486 0.11992316
-0.025547732 -0.05320612 -1.1100402 -0.0581984 -0.07930657 0.0490514 0.3258268 0.053979773
0.11733125 0.026731998 -0.14374352 -0.19863997 0.1318017 -0.28262258 -0.041495387 0.019863037
-0.3060212 0.17686847 -0.3411766 -0.07893204 -0.03035057 0.013462235 -0.19125977 -0.12205257
-0.04024715 0.09374144 -0.18416084 0.10137915 0.31412393 0.03928145 0.24813432 0.29574177
0.56070536 0.37686506 0.032407053 -0.13907209 0.26783183 -0.199606 -0.055163838 -0.12793325
-0.05476607 -0.23187162 -1.7338653 0.22856423 0.0065908413 -0.2559445 -0.47039765 -0.08171932

hidden.0.bias f4 [64]
00000000: 8bb1 a63e 16da a93e 71df 19be 4581 a4bd
00000010: 95fc 35be 539c 023d 8add 36be d612 963e
00000020: 6555 d1bd 0c4e 053f cbaf 79be 0fbe f5bd
00000030: 0eba f53e a3a0 bdbe 07ed 99bd 2236 923d
00000040: 3355 993e 4815 123e 8b25 b9be 3af0 5cbe
00000050: b399 1b3d 163a 36be 8717 f53d 02f3 923e
00000060: c732 053d df1c cc3d d8a6 563e 7e30 cc3e
00000070: d01d 0b3d e1d6 5c3e 8abe 253e 171f c73e
00000080: bf3f 9ebe 5072 9f3c 873d e8bd 2979 8c3e
00000090: 8449 2bbd 45d1 53bc 8a44 f2bd fcd9 bebd
000000a0: 4197 163c 6367 13bd 791b fdbd 4235 173f
000000b0: 9f0e 893e 4eee c73e 4930 26bc 280a f73d
000000c0: afe8 7d3e 1fcd 983d c6de 2dbe 88e0 24be
000000d0: 4113 4a3e 5e91 963e f194 90be d34a 903e
000000e0: 7b42 853e cd20 b9be 981a 52be 39f4 46be
000000f0: b09d c23d da27 a83d c006 ec3d d7a9 a0be
0.3255733 0.331742 -0.15026642 -0.08032469 -0.17772134 0.031887364 -0.17857948 0.29311246
-0.10221366 0.52072215 -0.24383466 -0.119991414 0.4799351 -0.3703662 -0.075159125 0.07139231
0.29947814 0.1426593 -0.36161456 -0.21576014 0.037988376 -0.17795596 0.11967378 0.28701025
0.03251913 0.09966444 0.20962083 0.39880747 0.03396398 0.21566345 0.16185966 0.38890907
-0.3090801 0.019463688 -0.113398604 0.27436188 -0.041818157 -0.012928312 -0.11829479 -0.09318921
0.009191335 -0.03598727 -0.123587556 0.5906564 0.26768968 0.39049 -0.010143348 0.12062484
0.24795793 0.07460999 -0.16979513 -0.16101277 0.19733907 0.2940778 -0.28238633 0.28182086
0.26027283 -0.36157838 -0.20517957 -0.19429101 0.09502733 0.08210726 0.11524725 -0.31379578

hidden.1.weight f4 [64, 64]
00000000: 6e40 3d3d b812 193e 83e3 013d ef39 f43d
00000010: 3e98 893c 9334 4d3c 2784 1b3d 3a2a b9bd
00000020: 0fd2 06be 9280 a8be e878 82bd fb22 b4bd
00000030: 7cb6 97be fcd1 6d3e 35fb 24be be66 60bc
00000040: a9c4 a8be b87b 32bd 08fc 43bd ac08 55bd
00000050: 9bca 263d 6e19 22be 11be 7abc 0f76 8dbd
00000060: c41a 213d 642e 90bd cfaa 31be 14ea 2dbd
00000070: 1b4a 8c3d d557 893d f057 e8bc 5f7d 93be
00000080: c3e9 223e b91b 90be afa5 0ebd 46b0 41be
00000090: 9bd7 11be f089 9cbd 9b02 773e 4f7d 943e
000000a0: fdf2 a93b 17ba 423e b985 acbd 2ceb d63c
000000b0: 4c28 59bd 4aac edbd 181d 763d 8e2b 41bc
000000c0: 3287 f9bc 6ecd 3cbe 0830 9b3e 7cf9 743e
000000d0: 4dec 98bd 1714 efbc 71f2 30bd e8ce cdbd
000000e0: 2545 8cbe c54a 193e 6d07 893e d857 59be
000000f0: 03df 02bd 1c32 babe 3a4e 83be ec14 f33d
00000100: 274b a8be 6a8d 1b3e 516f 24bd 7a40 72bd
00000110: 2e36 7b3e 4bba d4bd f414 a8bd fab9 d83d
00000120: ddda 2d3d c8f3 6a3c 1fb4 f23c 6016 a53e
00000130: b11d 84be 1546 643e 1f68 1bbe eab8 e7bc
00000140: fc81 79be d0f8 0cbe 8746 38bd 11ab 073e
00000150: f6bf 78be 6426 bd3d fd29 0e3b 1d12 f2bd
00000160: 1753 613e 3e3e 5dbe 33bc 913e 6d5b 51bd
00000170: bfd1 0cbe 000f 25bd 2ff8 32bd 1a53 68be
00000180: 95df 213e 5336 a2bd afbf 503c 9791 66be
00000190: b281 cb3d 4f1f 103e ecb9 013e 4c38 923e
000001a0: 62da 6bbd e6f3 edbd ffaa 82be 62b1 aebd
000001b0: 120e 3a3c e204 51bd 194b 823c 2c7c 043d
000001c0: a199 28be 6e69 20be 1a3f 6e3d d77a 143e
000001d0: bec0 99bd 61b2 f4bc b379 3d3d 2be6 57be
000001e0: 2176 ccbe d137 323e 93d2 a63d 4467 16be
000001f0: 0643 643d 0591 bf3d 3902 22bd 00ec 8c3e
00000200: f699 91bc 2a09 dbbc e157 28be b6ef 68bd
00000210: cfc6 503e da77 033e fd99 ad3d 4f8c 0ebe
00000220: d983 dcbd 3972 e93d 8aa6 643e d347 8f3d
00000230: 69fc 15bd ce62 4e3e 3200 593e 5135 233e
00000240: 5fcb 653d 5570 0b3d 4e16 06be 9822 24be
00000250: c980 15bc 5619 a4bd 3420 51bd 4198 943d
00000260: 38b2 24bd ccc4 f7bb 9e58 f7bd 4aa5 b63d
00000270: ffa1 543d f025 0dbe dce7 cfbd f5b6 3e3e
00000280: 4b1e 883d 39b9 bf3c 8e76 dfbd d5b3 db3d
00000290: a434 5b3b 3c37 133e cc18 16bd f9d9 7dbe
000002a0: 18be e3bd 1dd7 a63d 34db 8f3d a268 d83d
000002b0: 6e3c 16be 8d3e b4bd fbdb 9b3c 1b5a 0dbe
000002c0: 656e 83bd 5db9 963d 7ae1 13be b67f f7bc
000002d0: 38c4 993d 0ff7 c2bd 9e4a f43d a6a4 8ebd
000002e0: 4b5b fb3d 82b2 9ebd 0238 7b3d 4c2f 0f3a
000002f0: 3dc6 a63c 744e 0dbd f898 44be 47f8 aabd
00000300: 7d76 103e 3c30 c1bd 8dd3 0e3c ef5e 5c3d
00000310: 48f0 fabd f3a1 143c 0bc9 1bbe f42d b4be
00000320: d0e3 6fbe e647 a2be bcad 80be 7565 323e
00000330: aa5a dd3c d2e5 0bbd 255c 9d3e daa2 cabd
00000340: ce39 2a3e c326 203e a14d 833d 9638 b03e
00000350: eef9 e23d 583c 053e 9253 a8be cdbb f03d
00000360: f227 79bd 6347 d43d beed aebc 313d 1b3d
00000370: fc5d 383e 2349 3c3e 87c4 963d 43a6 223a
00000380: aad8 f43d 521d c8bd 22d9 34be 5efb aebe
00000390: 6ad0 83be 13c6 943d 1b3c b93d f819 d53c
000003a0: 7d0c 7bbd a931 ad3c d8cd 02bd 95d8 023d
000003b0: be62 d3bb b9a7 243e a814 033e 523f d33c
000003c0: 07db 073d c223 593e 0a18 573e f11a 06be
000003d0: eb30 66be b186 c8bd 9da2 913e 6950 3b3d
000003e0: c881 06be 7103 683e 4c80 1d3d d474 833d
000003f0: ddc0 29be a07e fd3d 1758 653e ea02 afbd
0.046204023 0.14948547 0.031711113 0.119251125 0.016796228 0.012524742 0.037967827 -0.09041257
-0.13166068 -0.3291059 -0.06370717 -0.087957345 -0.29631412 0.23224634 -0.16111453 -0.013696371
-0.3296254 -0.04357502 -0.047847778 -0.052010223 0.040720563 -0.15830013 -0.015304104 -0.069072835
0.039332166 -0.07040098 -0.17350315 -0.042459562 0.06850072 0.06706206 -0.028362244 -0.28806588
0.15909486 -0.2814615 -0.034825977 -0.18914899 -0.14242403 -0.07643497 0.24122088 0.29001853
0.005186437 0.190163 -0.08423943 0.026235186 -0.053016946 -0.11605127 0.06008634 -0.011790169
-0.030459974 -0.1843774 0.30310082 0.23923296 -0.07466946 -0.029184384 -0.04319996 -0.1004923
-0.27396503 0.14969929 0.26763478 -0.21224916 -0.03195096 -0.36366355 -0.2564562 0.11869225
-0.32869837 0.15190664 -0.040145222 -0.05914352 0.24532387 -0.10387095 -0.082071215 0.10582347
0.042445052 0.014340349 0.029626904 0.32243633 -0.25803903 0.22292359 -0.15176438 -0.028286416
-0.24365991 -0.1376679 -0.044989135 0.1324885 -0.24291977 0.09235838 0.0021692507 -0.11819861
0.22004353 -0.21605775 0.28463897 -0.05111258 -0.13751887 -0.04029751 -0.043693718 -0.2268795
0.15807946 -0.07920518 0.012741013 -0.22516476 0.09936847 0.14074443 0.1266858 0.28558576
-0.057581313 -0.116187856 -0.25521085 -0.08529927 0.011355894 -0.051030047 0.01590495 0.032344982
-0.16464855 -0.15665218 0.058165647 0.14499985 -0.07507466 -0.029870214 0.04625864 -0.21083896
-0.39933875 0.17404105 0.081456326 -0.1468783 0.05572798 0.09353832 -0.0395529 0.27523804
-0.01777361 -0.026737768 -0.16439773 -0.05686923 0.2038834 0.12838688 0.084766366 -0.13920711
-0.107673354 0.11398739 0.22329155 0.06996121 -0.03661767 0.20154878 0.21191481 0.15938307
0.056102153 0.034042675 -0.13094446 -0.16028821 -0.009124943 -0.08012645 -0.051056102 0.07255603
-0.040209025 -0.007561302 -0.12077449 0.08918245 0.051912304 -0.13784003 -0.101516455 0.1862448
0.06646403 0.02340375 -0.109112844 0.107276596 0.0033448124 0.14376539 -0.036644742 -0.24790181
-0.11120242 0.08146498 0.070242316 0.10566832 -0.1467149 -0.08800993 0.019025793 -0.13803904
-0.064175405 0.07359574 -0.14441481 -0.030212265 0.07508129 -0.09519779 0.119282946 -0.06964998
0.12273272 -0.077488914 0.06133271 0.0005462065 0.0203582 -0.034498647 -0.19198978 -0.083481364
0.141077 -0.09433028 0.00871743 0.053801473 -0.12252861 0.009071815 -0.1521341 -0.3519131
-0.23426747 -0.3169548 -0.2513255 0.17421515 0.027020771 -0.03415472 0.30734363 -0.09894343
0.16623613 0.15639786 0.06411291 0.34418172 0.110828266 0.130113 -0.3287626 0.1175457
-0.06082911 0.103651784 -0.021353599 0.037900154 0.18004602 0.18387274 0.07361703 0.00062045845
0.11955388 -0.097712174 -0.17660955 -0.34176153 -0.25744945 0.07264342 0.09044667 0.02601336
-0.061291207 0.021141844 -0.03193459 0.03194483 -0.00645098 0.16079606 0.12800848 0.02578703
0.033167865 0.21205047 0.21005264 -0.13096215 -0.22479598 -0.09791315 0.28444377 0.045730982
-0.13135445 0.22657563 0.03845243 0.064187676 -0.16577478 0.123776674 0.22396885 -0.08545478

hidden.1.bias f4 [64]
00000000: 9989 81be 254b 8bbe 724d a4ba 23a5 33be
00000010: 030a 5ebe e73d 35be a963 cd3d 5eef 5c3d
00000020: 6e23 043e bd04 123d 984b 913e 48dc 663e
00000030: e45b 093e 0b5f 02bf 1f15 debc 6ff3 53be
00000040: acc0 b7be 795d cbbd a634 913e 8336 afbd
00000050: 1b82 7d3e 2ebb 5e3e 41bf b23d 6b67 0e3e
00000060: 5950 f5bd d73e 983e c79d a3bd 2339 4ebd
00000070: b96f 643e a2b4 69be 2246 383e 8115 8a3a
00000080: 1c64 67be 4ae1 c23e 7d21 a93e 67e6 03bb
00000090: 2e0f a5bc 2a07 003d 85c4 083e 18f9 43be
000000a0: 76d4 b2bd 5152 803d 2524 8d3d 1c88 12bd
000000b0: 1133 e4be 5f03 993b 303d 21be bc4b f73c
000000c0: 2a7d b73d 2e0f 503e 8bc7 06be a3ed 883e
000000d0: 6b47 39be 31ad 1dbe f18b b53d 5a47 61bc
000000e0: 72ff 2c3d 30bb e33d 0e5b 6b3d 7d43 9d3d
000000f0: fe74 4f3d cb93 213e c8bd 6abe 6562 7bbe
-0.2530029 -0.27205768 -0.0012535288 -0.17543463 -0.21683507 -0.17699395 0.10028774 0.053939216
0.1290414 0.03564905 0.28377986 0.22544968 0.1341396 -0.50926274 -0.02710968 -0.20698331
-0.35889184 -0.09929938 0.2836048 -0.08555319 0.24756663 0.21751091 0.08727885 0.13906638
-0.11978216 0.29735443 -0.07989078 -0.05034746 0.22308244 -0.22822812 0.17995504 0.0010534973
-0.22596782 0.38062507 0.33033362 -0.0020126344 -0.02014884 0.031256832 0.13356216 -0.1913799
-0.0873193 0.062657006 0.0689166 -0.035774335 -0.4457021 0.0046695913 -0.15745997 0.03018748
0.0895942 0.2031829 -0.13162057 0.26743802 -0.1809365 -0.15398099 0.08864582 -0.013749922
0.0422358 0.111196876 0.057459883 0.07678888 0.05064868 0.15779035 -0.22923958 -0.24549253

hidden.2.weight f4 [64, 64]
00000000: 5a04 2e3c f3c8 9bbe 3418 25be 6ade af3b
00000010: e7c8 76bd cbcf 47be 3a7e c3bd 83a2 173e
00000020: 7b11 82bc f9d5 a7bd 880c 113e b3cb 553d
00000030: 7295 a43d 5e7c a53d 9ebb 74be f861 863c
00000040: d942 a9be 3162 a4be deab d9b8 1c6d f4bd
00000050: 1683 423d d73a 0c3e 4085 4b3e 2f14 153e
00000060: c743 e3bd efeb 9f3e df4e 7dbd b1fe 853d
00000070: 24e1 ffbd 0bd4 08be b304 c23d 3d72 8cbd
00000080: eba1 01be e7ca 183e 7227 ac3e e608 b3bd
00000090: f70c c53d f6a2 653e b2f3 673d 7ff0 72bd
000000a0: 9092 0a3e b521 6cbc b22b fdbd 5932 20be
000000b0: 34be 8ebe 88e2 fc3b d5d3 49bd 4366 3cbd
000000c0: 895d a9bd cdc3 4e3c 3bc7 47be ee5d ab3e
000000d0: 9001 b2bc dbb3 423d e860 02be 811f 8e3d
000000e0: e61f c4bd 28ea 803d 21a7 b83d 2b7f 093d
000000f0: c528 363e bcd5 71bd 7e73 87be 7a0d 5ebd
00000100: 0c41 b0be 7e25 08be b1b2 85bc ff43 443e
00000110: 6384 0cbd 1e5e 4ebe 513b 133e acf3 d93d
00000120: d6c3 04bd 3fb3 003e 2dae 64be 6d53 98bc
00000130: a72e 92be 47fa d43c 7cc2 2b3e fd14 213d
00000140: 6044 5bbe 4274 173e b77e f9bd a05d 253e
00000150: 9a9d 523e c4f3 363d 0f81 ee3d b5fd 413e
00000160: 59ec b33c 5132 fe3c d4f5 c63e 403c 0c3e
00000170: 6e33 363e d321 cfbe 8135 e93d 6ccf b5bd
00000180: f1b7 ea3d 91c6 92bd 0b78 87bd 35dd 69be
00000190: e1f2 bcbd bfbd c5bd babe 70bc 86c7 21bb
000001a0: 3cb3 7e3e 161e 5ebc 77f4 e33d cac8 31be
000001b0: ef2b 443d df99 e7bd 3164 8e3e c5a4 cd3d
000001c0: 404d d33d 8050 333e 5619 86be 8bef 4dbd
000001d0: d7d4 acbd 46b8 f93d cd9e 83bd 5529 21be
000001e0: df63 dfbd 2ad3 4a3d ba3d 76be ff00 5e3d
000001f0: d7bf b33e e767 f9bd 9fdf a7bd 440f 16bd
00000200: 7782 e3bd bd2c a0bd b308 073e 7285 c5bd
00000210: aa90 cd3d e917 a73d b0e7 08be 36c2 babc
00000220: 8b27 183e 689f 023d 8823 343e 6007 a23d
00000230: 0631 0b3e 3765 2c3e c6eb d13e 3cdb 3cbe
00000240: 99ad f23d e438 e83d 0ec2 b0bd 718e d03d
00000250: 4c23 ddbd 6d63 af3c d9a1 85bc 298b b53d
00000260: 209d 5b3d 1d53 463d 3d95 5abd 4404 37bc
00000270: c145 f83d 1184 b33d 9488 93bd dd61 86be
00000280: 75bc 8f3d 5a28 58be 4358 e0bc 2157 c03d
00000290: 9bc4 a93d 33cd e83c 3fb6 13be a2e9 34bd
000002a0: f470 103d efe1 f73d 048c 8bbe 05c5 b6bd
000002b0: f7d0 a9bd 3d27 ddbd e68e 153e 54ea fabd
000002c0: 1902 0ebc 88f8 303e 9f19 813d 04f5 4e3d
000002d0: ca3e 84be 9bdc e7bd 2c82 d93d 4967 603e
000002e0: d473 9c3d 3941 c03d 46db 213e 762b 2d3e
000002f0: ef9b a13d f0c5 2f3e cea7 11be e014 a4be
00000300: 30c0 ff3d d6e5 2bbe be99 30bd 71d6 54bd
00000310: d73b 2dbe 8874 b03c 6ae6 813d 7816 c63a
00000320: 7c13 803b 6357 303e 169e 76bd 1725 57bd
00000330: 4a1a 99be 09c3 03be 3eda c3bd 1d8a 633d
00000340: e5e4 ac3d e03f 003e 0f0e cd3d 78fd d6bd
00000350: eb98 0ebe eb2b cb3c d20a cd3c eb0a 023e
00000360: b91a 4c3e 782f d83d bd88 c7be 44a2 74bd
00000370: 8508 62bc 6a82 96ba d684 7c3e 7042 a93d
00000380: a21f 3fbe 00ef 98bd 0055 943d cb6a 033c
00000390: e434 8d3e afae 39bd 1a39 393e 7c30 283e
000003a0: fab4 343d a32b ffbc 819b 873e b1d4 e9bd
000003b0: 32f3 e73d 1a36 813c b6c6 3dbe fb31 debc
000003c0: c84f 023e 38e4 ebbc 0e44 b43d 7301 253e
000003d0: 8154 b93c 2456 403d 1752 34be 9fb7 90be
000003e0: 5137 acbd a094 9fbe 9ba4 c93d 9831 b6bc
000003f0: 6f93 9fbc 69a9 70be 7772 613e 145a 1f3d
0.010621155 -0.3042675 -0.16122514 0.00536709 -0.06025019 -0.1951286 -0.0954556 0.14808087
-0.015877476 -0.08195109 0.14164937 0.052196216 0.08036317 0.08080362 -0.23899695 0.016404137
-0.33058813 -0.32106164 -0.00010379379 -0.119348735 0.047488295 0.1369432 0.1987505 0.1455848
-0.11096912 0.3123469 -0.061842795 0.06542719 -0.12494114 -0.13362138 0.094735526 -0.06857727
-0.12659423 0.14921151 0.33623844 -0.087419316 0.096216135 0.22425446 0.05662889 -0.059311386
0.13532472 -0.014412333 -0.1236185 -0.15644206 -0.27879488 0.0077174343 -0.049274284 -0.045995962
-0.082697935 0.012619925 -0.19509594 0.334701 -0.02172926 0.047534805 -0.1273228 0.06939603
-0.09576397 0.06294662 0.09016252 0.033568542 0.1778899 -0.059041724 -0.264553 -0.05421207
-0.34424627 -0.13295552 -0.016320558 0.19166563 -0.03430594 -0.2015309 0.14378096 0.1064218
-0.032413326 0.12568377 -0.22332068 -0.018594468 -0.28551218 0.025998248 0.16773409 0.039326657
-0.21412802 0.14790443 -0.12182372 0.16148996 0.20567933 0.044666067 0.1164571 0.18944438
0.021963285 0.031029852 0.38859427 0.13694859 0.17793056 -0.40455493 0.11387158 -0.08877453
0.11460865 -0.0716678 -0.06614693 -0.2283829 -0.09226013 -0.09655332 -0.01469391 -0.0024685576
0.2487306 -0.013556978 0.11130612 -0.17361751 0.04789346 -0.113086455 0.27810815 0.10041193
0.10317469 0.17511177 -0.26191205 -0.050277274 -0.084390335 0.121933505 -0.06426773 -0.15738423
-0.10907721 0.049517788 -0.24046984 0.05420017 0.351073 -0.12178021 -0.08196949 -0.036635652
-0.111088686 -0.07821033 0.13186912 -0.09644593 0.10037358 0.081588574 -0.13369632 -0.022797685
0.14858834 0.031890303 0.17591679 0.07911563 0.1359292 0.16835485 0.41000193 -0.18443006
0.118495174 0.11338976 -0.08630763 0.101834185 -0.10797748 0.021409715 -0.016312527 0.08864433
0.053616643 0.048419107 -0.05336498 -0.011170451 0.121226795 0.08765424 -0.072037846 -0.2624654
0.07018367 -0.21109143 -0.027385836 0.093916185 0.08289453 0.02841816 -0.1442499 -0.044168122
0.03526397 0.1210364 -0.2725526 -0.08924297 -0.0829181 -0.107985 0.14605293 -0.12251726
-0.008667492 0.17282307 0.06303715 0.050526634 -0.25829154 -0.11321374 0.106205314 0.219144
0.0763928 0.0938744 0.15806302 0.1691111 0.0789107 0.17165351 -0.14224169 -0.32047176
0.12487829 -0.16786894 -0.04311537 -0.05196232 -0.16917358 0.021539941 0.06342776 0.0015112897
0.0039085727 0.17220835 -0.060209356 -0.052525606 -0.2990287 -0.12867369 -0.09563111 0.055551637
0.08442096 0.12524366 0.10012447 -0.10497564 -0.13925521 0.024801215 0.025029574 0.12699477
0.19932069 0.10555929 -0.3897151 -0.05972506 -0.0137959765 -0.0011482958 0.24660048 0.08264625
-0.1866441 -0.07467461 0.07242775 0.008021067 0.27579415 -0.045332607 0.18088189 0.16424745
0.044117905 -0.031148737 0.26485828 -0.11417521 0.11325683 0.015772868 -0.18532833 -0.027123442
0.12725747 -0.028795347 0.08802043 0.16113834 0.022623302 0.04695715 -0.1760944 -0.28265092
-0.08408988 -0.3116808 0.09845849 -0.022240445 -0.019479482 -0.23502125 0.22016321 0.038904265

hidden.2.bias f4 [64]
00000000: 0ac8 813e c5bd 2c3e 6bb7 163e 8580 88bd
00000010: 52b6 0abd 145d 4c3e 81be 0f3e 8c32 bc3d
00000020: a5f8 d4bc 99cc 033e 8bfc 9c3e 0b26 d13c
00000030: 7684 473e 4cc7 bf3d 4bf3 52be fded 593c
00000040: 13ba d53d 48af 02be e715 b0bd ac4e 44be
00000050: 25c8 62be af07 0c3e c8e7 5f3e 391d 4cbe
00000060: 4053 f0bd 5036 113e d76d c63e acea a63e
00000070: 1d91 a9bd b5d2 a03c ad17 8cbd 2e2b 493e
00000080: 2930 ac3d 24ab 51be 7f14 24bd f253 febd
00000090: 884d 3abd 050a 65bd d36a 7bbc 18a5 20be
000000a0: 32e6 0dbe 312b 223d 0b14 d43d b4a9 f53d
000000b0: 5195 fd3c 99d1 0a3e 465a 8bbb 730a a23d
000000c0: 0f41 54bd a685 943e 6470 b43d 01d3 a03e
000000d0: 2f75 a3be 375f f1bc bd87 5f3e 1c3a 10be
000000e0: c01b e93d 381c 7f3c 2ede b0be 59d0 23be
000000f0: 43fa 4dbe 23b0 9d3d bbb7 3d3e 38bf d8bd
0.2534793 0.16869266 0.14718406 -0.06665138 -0.03386528 0.19957381 0.14037515 0.091893286
-0.02599747 0.12871017 0.30661425 0.025530836 0.19484124 0.09364185 -0.20600621 0.01330137
0.104358815 -0.12762177 -0.085979275 -0.19170636 -0.22146662 0.13674806 0.21865761 -0.19933023
-0.11734629 0.14180875 0.38755676 0.32600915 -0.08279631 0.019631723 -0.06840453 0.19645378
0.08407623 -0.20475441 -0.04005861 -0.12418355 -0.045484096 -0.05591776 -0.015345293 -0.15687978
-0.13857344 0.03959197 0.103553854 0.11995259 0.030954989 0.13556518 -0.004252705 0.07912149
-0.051819857 0.29008216 0.08810499 0.31410983 -0.3192534 -0.029464347 0.21829124 -0.14084667
0.11382246 0.015570693 -0.3454451 -0.15997447 -0.20114999 0.07699611 0.18527119 -0.10583347

hidden.3.weight f4 [64, 64]
00000000: d3cb 2d3d ef6a 893c 4490 7abd 5f53 c9bd
00000010: 0a71 f83d 1459 0abe 01d7 04be d519 ef3b
00000020: 2503 cebc 38c5 a93e b8ba 37be 3b1d 00bc
00000030: 8a98 dc3d f4a3 febc 57db 4cbe 26a0 6b3b
00000040: 84b5 8cbe 939b 6cbd cf42 ee3e 2c35 79bd
00000050: 1f2a 39be c502 0bbe ca10 cc3d 0dd1 8bbd
00000060: 5702 c8bd 9a93 773e 7852 233e 4c18 7c3e
00000070: 11fb c8bc e6c5 aebd 5b57 543e 7b73 49be
00000080: 7607 4dbc bf67 46be 7449 e1bc ca02 053e
00000090: c0ad 67be de6c 0cbe 28ed b63c 13fa 953c
000000a0: 607a 90bb f513 6a3d da55 583e a3b9 953d
000000b0: 3411 5d3d 035b 02be e0d9 383d 3b39 ee3d
000000c0: 5118 443d ea53 173d 52d6 043d 4241 9e3d
000000d0: efe8 1ebe 06a6 653e 6c3c e93d 20ff 49bd
000000e0: 28ba 8f3e a37c ae3d c0df 91be 43c7 f6bc
000000f0: 4d37 7e3e 78d1 1eba 37fb d53d ead7 bb3d
00000100: 1340 143d c410 533e 1e83 d5bc 3ca1 f9bd
00000110: 8abb 3abd acda 7e3d d56b cf3d c7da 843d
00000120: c3a7 023e f600 133e f25a 8a3d a16e 61bc
00000130: 8a77 8fbd ae76 723d 1c9d c7bd 656e 6d3e
00000140: 9176 51be 5da0 38be 946c 863d 6049 b73d
00000150: 83e8 edbc f6e9 263e ce49 d33c 6f0a 103e
00000160: c223 ad3d 36ef cebd b780 36be 8f47 fdbb
00000170: 4d7b 5abc 73b3 cdbd 7cef 423d ff54 85be
00000180: 42d3 c2bc bd64 203e 52cf a53d 6775 64bd
00000190: fd5d 153e fcc6 6b3d ed0e 0cbe fcd6 863b
000001a0: 5351 20be 1b71 183d 3516 f13d af12 eb3c
000001b0: 4b5d 793d 5f61 e2bd 1105 d6bd 3c4e 6d3e
000001c0: 5b8b 86be 2706 423e c25d 08be 5465 3cbb
000001d0: d912 ccbd e35c afbd 1697 873e df3a c13d
000001e0: 6fee 84bb 429d d83d d5ad 303c 3e3f b6bc
000001f0: 5797 013e 0b7e 03bd b965 053e 0ee7 0b3b
00000200: 86b1 193e ee72 d8bb 1cbf 1d3e 2b64 d8bd
00000210: 99aa de3d 1544 a8be 790a 463e 9ef8 503e
00000220: eaed c73d 74fa 5abe d378 073d 63bf aebd
00000230: 7d5d 74be adf7 b23e 9643 12be 56cc 31be
00000240: a574 11bf d683 44bd c876 f2bd c56a bdbe
00000250: ba23 c8be d481 a0be 4df8 903d f9b8 013e
00000260: 04cf 38be e383 273d 27fb a33e e563 8c3e
00000270: 89a6 53be 9937 243d dfe7 68bd 5e18 ea3d
00000280: 6f6b 693e fa08 e2be fc39 6bbe f196 303d
00000290: 0673 43bd 85b4 103e 11ed 9bbd 559c 98be
000002a0: d52c b3bd 9ef6 00bd a7e5 acbd 60b8 ddbd
000002b0: d1ef 1bbd d42d c03a 2af8 f1be 4d4c dabd
000002c0: 8c9e 9abe 0e5e ba3e 4554 a43e edac 843e
000002d0: 3e16 b5be fcb6 49be 527f 0a3d 0372 ecbc
000002e0: 685a 333e 9cc0 d63e b1cd 9bbe 0975 e0bd
000002f0: 254d 3bbd 781d 443e 6462 303e 3f43 61bd
00000300: 675c 2fbd e1e0 04be 5021 89bd 9d56 1fbe
00000310: 3ffd 813e 73f5 8ebd 03b7 ba3b 217f 0b3e
00000320: 204a 33be 33c3 873e 8fe8 37be 3bac 8dbc
00000330: dfe8 50be 617c 3bbe ce70 203e ad84 993e
00000340: 8a10 00be fb0c 8abe 2516 0f3e 1fbe 1c3d
00000350: e5e8 b8bd 6c5f 0cbf 59ce a9bd 9bb9 c3bc
00000360: 7158 503e 475d b0be ffe1 f23d 761c 723b
00000370: 14c1 6fbd 9baf 1dbc aaf9 843e 8073 e73c
00000380: 6d0a 2fbe 4cf4 aabd a3ce c2be 759f 4c3e
00000390: 349e a1bd 69ee c03b b3dc d4bd 3cb2 923c
000003a0: 70d1 92be e893 2cbe 830d 2bbe 04ec 9fbe
000003b0: 5b29 913e 156f 9dbd 2a74 333b 42cb 673a
000003c0: 1e6a 54be 12c0 453e 3974 60be adcb 383e
000003d0: 2f87 213d d197 37be 3870 38be 8a45 9739
000003e0: 37f1 893e a132 8dbe 52f0 05bd d4ee e33d
000003f0: 6e26 213e cc11 d63d 3cdc 53bc 75a2 433e
0.04243071 0.016774623 -0.06117274 -0.09830355 0.121309355 -0.13510543 -0.12972642 0.0072967806
-0.025147984 0.33158278 -0.17942321 -0.007819469 0.10771282 -0.031084038 -0.20005547 0.003595361
-0.27482235 -0.057765555 0.46535346 -0.060841724 -0.18082474 -0.13575275 0.0996414 -0.06826983
-0.09766071 0.241774 0.15949428 0.24618644 -0.02453378 -0.0853384 0.20736448 -0.19672959
-0.012513986 -0.19375513 -0.027500845 0.12989345 -0.22624874 -0.13713405 0.022329882 0.018307721
-0.0044091195 0.05714794 0.211265 0.07310798 0.053971484 -0.1273003 0.045129657 0.116320096
0.047874752 0.03694526 0.032430954 0.07727291 -0.15518545 0.22426614 0.11388478 -0.04931557
0.28071713 0.08519866 -0.2849102 -0.030124312 0.24825783 -0.0006058435 0.10448306 0.09172042
0.03619392 0.20611864 -0.026063498 -0.12188956 -0.045589007 0.06222026 0.10127989 0.06487041
0.12759309 0.14355835 0.06755628 -0.013759286 -0.07005222 0.059195213 -0.09746763 0.23186643
-0.20455386 -0.18029924 0.065636784 0.08949542 -0.029041534 0.16300187 0.025792029 0.1406648
0.08454086 -0.101042196 -0.17822538 -0.0077294777 -0.013335061 -0.10043993 0.04759167 -0.2604141
-0.023782376 0.15663429 0.08096184 -0.055776026 0.14586635 0.057562813 -0.13677569 0.0041149836
-0.15656023 0.03721724 0.11771814 0.028695432 0.060879987 -0.11053728 -0.10450185 0.23174375
-0.26278195 0.1894766 -0.13317016 -0.002874692 -0.099645324 -0.085626386 0.26482457 0.09435057
-0.004056744 0.105768695 0.010783632 -0.022246953 0.12655388 -0.032102626 0.13027085 0.0021347436
0.15009126 -0.0066054976 0.15404934 -0.105659805 0.10872383 -0.32864442 0.19339933 0.2040734
0.097621754 -0.21384603 0.03307421 -0.08532598 -0.23863788 0.34954587 -0.14283594 -0.17363104
-0.5681861 -0.04797729 -0.11839062 -0.3699552 -0.39089757 -0.3134905 0.070786096 0.12668218
-0.1804772 0.04089726 0.32027552 0.27419963 -0.20668997 0.040092085 -0.056861755 0.11430429
0.22794889 -0.44147474 -0.22971338 0.0431127 -0.047717117 0.14131363 -0.07613576 -0.29806772
-0.087487854 -0.031485192 -0.0844224 -0.10826182 -0.038070504 0.0014662095 -0.47259647 -0.106590845
-0.30199087 0.36399883 0.32095543 0.25913182 -0.35368532 -0.19698709 0.03381283 -0.028862959
0.17514956 0.41943824 -0.30430368 -0.10959823 -0.045727868 0.19151866 0.17225033 -0.05499577
-0.04281273 -0.1297641 -0.06695807 -0.15560384 0.25388524 -0.069804095 0.005698086 0.13622715
-0.17508745 0.26516113 -0.17959808 -0.01729404 -0.20401333 -0.18309166 0.15668032 0.29984036
-0.12506309 -0.26963028 0.13973291 0.03826725 -0.09028796 -0.548331 -0.08291311 -0.023892215
0.20346238 -0.34446165 0.118595116 0.0036943234 -0.058533743 -0.009624387 0.2597173 0.028253317
-0.17093821 -0.08347377 -0.38048276 0.19982703 -0.07891503 0.0058877957 -0.103936575 0.017907254
-0.28675413 -0.16853297 -0.16704373 -0.31234753 0.28351864 -0.07687203 0.0027382472 0.00088422385
-0.20743605 0.1931155 -0.21919335 0.18046446 0.03943556 -0.17929007 -0.18011558 0.00028852775
0.26941845 -0.2757769 -0.03269989 0.11129537 0.15737316 0.10452613 -0.012930926 0.19104941

hidden.3.bias f4 [64]
00000000: bd26 243e 263e 98bd 96d6 d53e 9a44 1c3e
00000010: 52d7 493e 6027 aebd a8e6 07be 5d3a a3bd
00000020: 0c87 373e 855c e6be 10df 50bd 8bdd 3abe
00000030: cacf 42be 81bd 7cbe eee7 093e becd c3bb
00000040: 15fb 73be 8d36 2d3e f1dc efbb fe43 8cbb
00000050: ac07 2f3c fa31 6f3b 7d23 28be 0ac0 57bd
00000060: d295 d8bd 5337 8c3e 91bf 1e3d a0e2 493e
00000070: b5c7 223e 67d2 23bd a31e 45be 5ad9 dd3e
00000080: d401 3d3e bbc1 153d 22d8 93bd c363 47bd
00000090: 3580 1e3e 0379 2bbe 8ddc 1f3a aa44 94bc
000000a0: c648 2c3b 75b4 643d 6aff c23d 694b 8a3d
000000b0: 6464 b6bd ff5d 823e c80b 273e b0f4 4bbe
000000c0: e096 64be 3c7e 233e 3a27 96bd f5dc 00be
000000d0: 454d 41bd f003 f33d 7255 2cbe 2cea 76bc
000000e0: e5db 9b3e ce2f 10be f39b eebd 1071 b93d
000000f0: 41b7 043e 68b6 b9bd 3459 c23d 30b4 673e
0.16030402 -0.07433729 0.4176528 0.15260544 0.19711044 -0.08503604 -0.13271582 -0.07970116
0.1792261 -0.44992462 -0.05099398 -0.18248574 -0.19024578 -0.24681665 0.1346738 -0.005975454
-0.23826249 0.1691534 -0.0073200394 -0.0042805662 0.010682981 0.0036498294 -0.16419788 -0.052673377
-0.10575451 0.2738596 0.03875691 0.19715357 0.15896495 -0.039995577 -0.19249968 0.4332989
0.18457729 0.03656171 -0.072189584 -0.048679125 0.15478595 -0.16745381 0.0006098233 -0.018099148
0.0026288494 0.05583616 0.095213726 0.067526646 -0.08905867 0.25462338 0.16313088 -0.1991756
-0.22323179 0.15966123 -0.073317006 -0.12584288 -0.04719283 0.118659854 -0.1682947 -0.015070479
0.30441204 -0.14080736 -0.11650839 0.09054768 0.12960531 -0.09067994 0.094896704 0.2262733

hidden.4.weight f4 [64, 64]
00000000: ba8d 8cbc 1fa6 4fbd 1996 e93c 29da 57bd
00000010: a357 833d dfe0 883d aff5 063e b4ae ea3c
00000020: 6910 d53c 264c 9d3d 47a8 21be 6bda f33c
00000030: df46 833d 8528 933c 231b ee3d d80f b2bd
00000040: c987 9b3d 7f4d 0bbe 0731 443e dfe3 13be
00000050: 70e8 fc3c b5e8 5ebd b48e 6b3e 6286 043e
00000060: 79a7 5c3e 43dd 0f3e 7c53 ed3c 0312 0b3e
00000070: a35d 203e 0640 f53d 79ad 813d 0c96 00be
00000080: 2173 12be 05f8 0ebe 537b c43d 8174 14be
00000090: 0946 6b3e 6275 5c3d 25df 423d 0878 6dbd
000000a0: c335 ebbd b1ec 803d 7c2e 92bd e76b 29bd
000000b0: 7e0c 0a3e 1856 d53d b0da 6b3e 0429 b1bd
000000c0: d361 53be 2df4 3bbd bf89 b63d 1079 48bd
000000d0: 1daf 673e 0325 22be 969e 163e 978a 92bd
000000e0: f1cf e0bd 9060 243d c350 bfbb 2127 96be
000000f0: 8efb d8bd 3a00 de3d 0e03 903d 2eff 0d3e
00000100: bf16 24be 8571 1b3d 59e3 6cbe cfec f03b
00000110: ab9f 1c3e 72fa 733a 79a3 8a3d eab0 0a3d
00000120: 3fad 763e cd84 863d e1c3 843d 7965 01be
00000130: 4d57 0dbd 4448 bf3d 2f1c 103e 7f4c ef3d
00000140: 850e a8bc c3b8 dabd f745 a83d cafd 893e
00000150: 549c ad3d 7aa4 e1bd 5a76 123e 8e45 453d
00000160: 2eaa 123e d9aa d6bd 1159 51be 8754 32bd
00000170: 5b87 313e 1a3c 4b3d 5839 0b3e 0b04 153d
00000180: 1b42 a1bd e356 403e 1e70 83be 7436 20be
00000190: 2c16 4fbd c0b0 62be 47a1 2d3e b5db 33be
000001a0: e49d 95bd f918 a13d eb61 1dbd 2cac 013e
000001b0: e19c f6bd 5c89 2f3d c765 a73c a066 23be
000001c0: 655a 223e 4df8 243e eb17 be3d a5ab 5d3e
000001d0: 8c1c 63bd 68c2 a8bd e7c5 b53d bf97 80be
000001e0: 93bb bebd 9154 04be a7c5 b03d ad2b 10bd
000001f0: 8281 283e 21a9 683e 3713 b1ba 585b e33d
00000200: a143 db3d c5f6 923d ac3b ea3d f7f1 f63d
00000210: b160 f23d cd58 bf3c 6249 ac3d 7de4 14bd
00000220: 63e6 463e 6378 84bd 92f2 b8bd 5809 6cbe
00000230: 5631 9fbd d3ae 6bbd 73c7 413d 141e a5bd
00000240: 0351 8b3e 0a12 adbc d610 553e ab38 be3d
00000250: beb4 d4bd 4552 14be e8a2 e9bc 1bf9 8dbd
00000260: 51a1 f53c 5280 20bd 1a75 c2bd 3f79 e13d
00000270: b5fc 323e 8f99 a93d 85ef 3fbd 56fa c0bd
00000280: 12b3 80bd 9426 943d d82c 053e 8f88 883e
00000290: e2ce 83bd 075e c73d b1db 4fbe 4eb8 853d
000002a0: 0b26 4c3e 0bdf 27bc 351e 97bd dc6d 55be
000002b0: 5d92 0fbe e3c5 a9bd bc09 5a3e 1651 a8be
000002c0: 9550 733e f28d 5bbe 0c1b 51bd f8a4 04be
000002d0: 7318 6ebe 0bf7 f7bd e912 9abd 1395 973d
000002e0: 92a6 f3bc 5a7d 523c d174 1ebe a87d 7d3d
000002f0: 366c 773e 321c c43d 8893 263e 4774 e7bd
00000300: ceb7 e83b b38b 583d 9944 43be 9ade 0a3d
00000310: 3c0e d13d 1644 903e db51 a5bd 31e2 743e
00000320: 8c59 903c 7f58 a2bc a087 1f3e 527c 073e
00000330: 8931 16be ff52 31bd fd7c b63e 3404 2f3d
00000340: 722c acbd 89d3 153d b70c c8bc 88ee 07bd
00000350: 0e51 2d3d 73ad b23d 65a7 ba3d f5a7 d1bc
00000360: 8c5d 5fbd 7291 25bd 5d5b 9c3d 2448 4e3e
00000370: 75ca 8dbc 804b 97ba 49d1 2b3e a999 e03d
00000380: dc63 52be 390d 843e 2093 74bd 9fb3 89bd
00000390: 83a8 d93d 0382 ab3c e1f9 883d b11a 9dbd
000003a0: 3923 afbd 721a e1bc 6b68 d43c 57c4 0abd
000003b0: ff84 5a3d 7fa2 0ebe 2a68 22bd 03eb 18be
000003c0: 2c3e 373d a987 093e cd76 43be e372 e0bc
000003d0: bd97 81bc a8ca 20bb 8bf4 3c3e 0a91 a53d
000003e0: 8fb9 7e3d 27eb 483c ea79 023d da95 003e
000003f0: c0a0 f73d 117c 893d 26e7 403c f978 2ebd
-0.017157424 -0.050695535 0.028513955 -0.052698288 0.064132 0.06683516 0.13179658 0.028647758
0.026008802 0.0768054 -0.15786849 0.029767236 0.06410002 0.017963657 0.1162627 -0.08694428
0.07594258 -0.13603781 0.19159327 -0.14442395 0.030872554 -0.054421145 0.23003656 0.12941888
0.21548261 0.14049248 0.028970473 0.1358109 0.1566072 0.11975102 0.063319154 -0.12557238
-0.1430173 -0.139618 0.09593835 -0.14497568 0.22975935 0.053822882 0.04757609 -0.0579758
-0.114848636 0.06295145 -0.071377724 -0.04136267 0.13481328 0.10416812 0.23032641 -0.08650401
-0.20642786 -0.04588716 0.08912992 -0.04894358 0.22625394 -0.15834431 0.14708933 -0.0715534
-0.10977162 0.04013115 -0.005838485 -0.29326728 -0.10594855 0.10839887 0.07031833 0.13866875
-0.16024302 0.037950058 -0.23133601 0.0073524485 0.15295283 0.00093070336 0.06769461 0.033860125
0.24089526 0.065682985 0.064826734 -0.12636365 -0.034507085 0.093399554 0.14073251 0.11684512
-0.020514736 -0.10679772 0.0821647 0.26951438 0.08477083 -0.110176995 0.1430296 0.048162036
0.14322731 -0.10481805 -0.20444132 -0.043537643 0.1733679 0.049617864 0.13596094 0.03638081
-0.07873937 0.18783145 -0.25671476 -0.15645772 -0.050558254 -0.22137737 0.16956054 -0.1756428
-0.07305506 0.07866091 -0.03842346 0.12663335 -0.12041641 0.042855605 0.020434273 -0.15957117
0.15854795 0.16110344 0.09281906 0.21647508 -0.055447146 -0.08240205 0.088756375 -0.25115773
-0.09313121 -0.12922885 0.08631449 -0.035197902 0.16455653 0.22720768 -0.0013509755 0.11101407
0.107062586 0.07175974 0.11437163 0.1205787 0.11834849 0.023357773 0.08412434 -0.036350716
0.19423823 -0.064682744 -0.090306416 -0.2305044 -0.07773082 -0.057539772 0.04730935 -0.080623776
0.27210245 -0.021126766 0.20807204 0.09288152 -0.10386036 -0.14484508 -0.028520063 -0.06932279
0.029984148 -0.039184876 -0.094949916 0.11009454 0.17479213 0.08281242 -0.046859283 -0.09422748
-0.06284155 0.07233921 0.13005388 0.26666686 -0.06435944 0.09734731 -0.2029865 0.06529294
0.19936387 -0.010246049 -0.073788084 -0.2084269 -0.14020677 -0.08289697 0.21292776 -0.32874364
0.23761208 -0.21440867 -0.051051185 -0.12953556 -0.23251514 -0.121076666 -0.07523138 0.074014805
-0.029742513 0.012847269 -0.1547425 0.061887413 0.24162373 0.0957569 0.16267216 -0.11301475
0.0071019894 0.052867603 -0.19069137 0.033903696 0.10207793 0.28176945 -0.08072253 0.2391441
0.017620824 -0.019817589 0.1557908 0.13231018 -0.14667334 -0.043292042 0.35642233 0.042728618
-0.08406915 0.03657869 -0.024420125 -0.033186466 0.042313628 0.08724489 0.09113959 -0.025592783
-0.054532573 -0.04042191 0.07634614 0.20144707 -0.017308453 -0.0011542886 0.16779055 0.10966808
-0.20545906 0.25791338 -0.05971062 -0.06723713 0.10627844 0.020936018 0.066882856 -0.076711066
-0.0855164 -0.02747843 0.025928697 -0.03387865 0.05334949 -0.13929175 -0.03965012 -0.149334
0.044737026 0.13430656 -0.19088288 -0.027398532 -0.015819425 -0.0024534855 0.1845266 0.08084305
0.06218868 0.012263096 0.031854548 0.12557164 0.120912075 0.06713117 0.01177386 -0.042595837

hidden.4.bias f4 [64]
00000000: d004 623c 22b4 97bd 0889 2bbd 00d2 6cba
00000010: c059 b63d 8030 b23d 10fd 133d 5a12 833d
00000020: 2a5a ed3d 401f 1ebb a07b c43b 80f2 b4bc
00000030: d0b0 bfbc a8d2 fabd 70ae 7ebd 307d 703c
00000040: 60b4 1d3d dc40 febd 3ca7 9e3d ee0e e6bd
00000050: 903d a1bc 3ed1 d1bd 6c2b 2dbd 9cfb 90bd
00000060: b843 a7bd 681a 8cbd f4d3 be3d 5086 e43c
00000070: 2265 dd3d 50c4 67bd 4eed a7bd faf6 a13d
00000080: ba9d f83d ba4b dcbd 0428 9dbd 6ca9 fc3d
00000090: 8cc1 283d 70c3 d4bc 8a3a b03d 629b b6bd
000000a0: 88b3 ebbd 42ea 903d e083 093c d48c 733d
000000b0: f4af a33d 3875 9c3c 500b ffbd c8b8 ad3d
000000c0: 38dc 26bd c02a c2bb 30aa 693d 28fa abbc
000000d0: 807c 22bc c013 febd f8d4 363d 42f5 e9bd
000000e0: fc60 fe3d 98d3 bb3d caec f33d 4675 803d
000000f0: 9024 593d 406c 3dbc c05f 543c 789b 07bd
0.013795093 -0.074074045 -0.04187873 -0.0009033978 0.08903837 0.08700657 0.03613001 0.06399985
0.11589463 -0.0024127513 0.0059961826 -0.02208829 -0.02339974 -0.12247211 -0.062178075 0.0146782845
0.038502097 -0.12414715 0.07746741 -0.11233316 -0.019682676 -0.10244988 -0.04227774 -0.07079241
-0.08167213 -0.06840974 0.093177706 0.027896076 0.10810305 -0.056583703 -0.08199559 0.07908435
0.12139459 -0.10756631 -0.07673648 0.12337002 0.041200206 -0.025972098 0.086049154 -0.08916356
-0.11508852 0.07075931 0.008393258 0.059460476 0.07992545 0.019098863 -0.124533296 0.0848251
-0.04073736 -0.0059255064 0.05704707 -0.020993307 -0.009917378 -0.12406111 0.044636697 -0.11423732
0.12420842 0.09171218 0.11910398 0.06272368 0.053013384 -0.011561453 0.012962282 -0.03310725

output.weight f4 [9, 64]
00000000: db18 b23d 283d 043e 309e f73c 32e5 cbbd
00000010: 0c76 e5bd 2ffc 8fbe dff7 cabd 2a41 0bbe
00000020: 5d2b 0e3c 9441 a33f 2e7d 66be 99f2 87be
00000030: 5453 2bbc b08a 343f ceed a4bd 1c47 d0be
00000040: 7881 ae3d b764 19bf d71a 643e bdae 803e
00000050: ca23 663b 2450 073f f5c5 1dbd 72de 3cbf
00000060: 36bd eebb 1d93 553e 7d60 213f 8ab2 ba3e
00000070: 825d 1cbf 7546 20be 42d7 b7bd 5fe8 533e
00000080: 3415 c63d e6ac 13be 160c 52be 0b79 ccbe
00000090: c26e 763e 270c 553d 6d81 adbe 575e c3bd
000000a0: b924 5b3e 2e01 e43e da66 a33e 4f7c cdbe
000000b0: 26a7 663e 434a e2bc 8375 983e 073b 8c3d
000000c0: 8787 c93d f685 f0be c58b a9be b842 0abc
000000d0: 2de4 b53f 06e9 e53d 8d37 d9bd 9a74 82be
000000e0: 3236 443d c579 a13e 0120 763e a510 1cbe
000000f0: ce1d ed3e 645a 23be 3a72 54be 7de9 1c3f
00000100: 5ed4 bb3d 4bd0 ef3d cbb8 88be 2e80 52bd
00000110: 05b3 df3e a4a5 9fbe db92 46bf e20e 103e
00000120: 5f2c bebd 2726 78bf e614 af3e efcd 1ec0
00000130: 6c65 e13c add8 10bf 8627 debe 08b6 af3e
00000140: ee6b 34be 813c 4e3c 5ac9 b1bf feb1 0bbe
00000150: 622b 81be ccd2 c83f 0188 a23e 381f 3e3e
00000160: 93e0 3dbd f13a 433e 7c9c cdbe 680d 6ebf
00000170: 5521 dfbd 3f10 923e 5070 47be 482b 083d
00000180: 7eef 993d b157 e8bd 48a1 bf3d c4a0 debe
00000190: f375 09bf 92f7 6a3e 8b4f d2be 6d9c 113e
000001a0: 32de 613d fcf2 2e3f 8d97 e43e d568 003f
000001b0: 5f71 c73d 69d7 983e fb4f 96be 4928 afbe
000001c0: 98e4 e3bd 48f8 59bf 249a eabd 4c55 ac3f
000001d0: dc71 debe ce21 003f 36ee 033f fd32 a43f
000001e0: 8a21 fbbe 4f8e ee3c 757b 0d3f a3fe 233e
000001f0: 906b a33e a207 863e 5271 203e b4be 14bf
00000200: ab42 a0be 8e5e a9be 836d 613c 0870 773d
00000210: 0dfc c13d dc7a 073e 6968 2c3d ce3e 1e3d
00000220: bfc1 2dbd 203c e1be 0643 5fbe 95ec cb3d
00000230: fa36 99be 2144 13bd bb52 0cbe a813 323e
00000240: 2176 9f3c b5ca 01be 1ce5 30bd 26ec c4bc
00000250: c978 583d ae3c 03be ab0c b9bd 16e4 48bc
00000260: f7bd 363b 9de0 a4bd b031 ec3d 79cf 083d
00000270: e319 1abd e232 653d 7e4a 77bd bc80 0ebe
00000280: 0d05 41bd e3b2 d7bd 1d87 2b3d 4877 d5bc
00000290: b72c 69be 326f 733d f3d1 cc3d 6b8b 873c
000002a0: c6ef 2dbd ac46 463e 6a11 bc3d e92b 86be
000002b0: dc03 88bd 0bb6 03be 9839 9fbd e241 9ebc
000002c0: 1cbb 60be 1be6 053c 4b4d 3abe 1f4d 23bc
000002d0: ae67 b8bd af35 5bbd 00b2 a63c 01da d93d
000002e0: 1fe3 803d df50 77be c413 6c3d 80d1 363e
000002f0: 41b0 c83b e9d3 543e 1da2 c03d dea1 4abe
00000300: be8a 813d 09d7 dc3d 53ce 9dbd 542d cfbd
00000310: 0f42 01be e339 3b3e 1374 403e 6e67 72be
00000320: 047c a0bd 412e 983c a0e5 03bd eb4c 96bd
00000330: 17f2 bcbc aa75 62be 6436 8bbe 09c2 923e
00000340: fe90 67be 1613 3bbd ce7e a43d 28eb cbbe
00000350: 0348 423e 2334 2c3e e012 11be 1e04 c0bd
00000360: e85d 233c 494d fbbc da00 36bd eb15 94be
00000370: e8c8 20be 4b71 f13d 05e9 343d 281a 3d3e
00000380: 758a bf3c c227 aa3e 15e2 6fbe e239 14be
00000390: 9bc7 d3bd e182 ab3c 625e ebbb 26c9 23be
000003a0: 421c 05be 8fa3 febe a6d7 e23d e194 ddbe
000003b0: 9bf3 b83e ac06 923e 741c 273e d148 c7bd
000003c0: cab0 14bc b9e8 743e 9402 903e 2b04 833e
000003d0: 6632 bdba 18a5 63be fbb6 4abc 207e abbc
000003e0: 108a 6abe b815 cebd 94ea 8e3e ad19 b4bd
000003f0: 67d6 f5bd 0892 5c3d 6bca e1bd c67b 7a3e
0.08696147 0.12913954 0.030226797 -0.09955825 -0.11204156 -0.28122088 -0.09910559 -0.13599077
0.008677331 1.2754388 -0.2250869 -0.26552275 -0.010456879 0.7052412 -0.0805317 -0.40679252
0.08520788 -0.59919304 0.22275864 0.25133315 0.0035116547 0.5285666 -0.038518865 -0.73776925
-0.0072857393 0.208569 0.63037854 0.3646434 -0.6108018 -0.15651877 -0.08976604 0.20694111
0.09672013 -0.14421424 -0.20512423 -0.39936098 0.24065688 0.052013543 -0.33887807 -0.09539478
0.21400727 0.4453215 0.31914407 -0.40133902 0.225247 -0.027623301 0.29777154 0.06847196
0.09840303 -0.46977204 -0.33114448 -0.008438759 1.4210259 0.11226086 -0.106062986 -0.25479585
0.047903247 0.31538215 0.24035646 -0.15240724 0.46311802 -0.1595245 -0.20746699 0.61293775
0.09171365 0.117096506 -0.26703486 -0.051391773 0.4369127 -0.3118106 -0.77567834 0.14068177
-0.09285807 -0.96933216 0.34195632 -2.4813192 0.027514182 -0.5658062 -0.4338953 0.34318566
-0.17619297 0.012587667 -1.3889573 -0.13642117 -0.2522841 1.568933 0.31744388 0.18566597
-0.04635675 0.19065453 -0.4015845 -0.92989206 -0.108950295 0.2852802 -0.19476438 0.0332444
0.07516383 -0.11344851 0.09356934 -0.4348203 -0.536956 0.22946003 -0.4107631 0.14219828
0.055143543 0.68339515 0.44646874 0.5015996 0.09738421 0.29851845 -0.29357895 -0.34210423
-0.11127585 -0.8514447 -0.11455181 1.346353 -0.43446243 0.5005158 0.51535356 1.282806
-0.49049026 0.029120592 0.55266505 0.16015105 0.31918 0.26177698 0.15668228 -0.5810349
-0.31300864 -0.33079952 0.01375902 0.060409576 0.09471903 0.13230461 0.04209176 0.038634114
-0.0424211 -0.43991184 -0.21802911 0.09957234 -0.29924756 -0.035953645 -0.13703434 0.17390311
0.019465508 -0.12674983 -0.043187246 -0.024038386 0.052849565 -0.12816116 -0.09035619 -0.012261411
0.0027884224 -0.08050654 0.11532915 0.033400986 -0.037622344 0.05595673 -0.060373776 -0.13916296
-0.047123957 -0.10532167 0.0418769 -0.026057854 -0.22770964 0.059432216 0.10000982 0.016545972
-0.042464994 0.19362897 0.09183009 -0.26205376 -0.06641361 -0.12862413 -0.07774657 -0.019318525
-0.21946377 0.008172537 -0.18193547 -0.009967118 -0.0900415 -0.053517994 0.020348549 0.10637284
0.0629332 -0.24151944 0.057636037 0.17853355 0.0061245267 0.20783962 0.09405921 -0.1978831
0.06325291 0.10783202 -0.07705369 -0.101160675 -0.12622856 0.18283801 0.18794279 -0.23672268
-0.07836154 0.018576743 -0.03220141 -0.0733889 -0.023064656 -0.22115198 -0.27189934 0.28663662
-0.22613904 -0.0456725 0.080319986 -0.39827847 0.18972783 0.16816764 -0.14167356 -0.09375785
0.009971119 -0.0306765 -0.044434406 -0.28922972 -0.1570164 0.11789187 0.044167537 0.18467009
0.023381451 0.33233458 -0.23426087 -0.14475206 -0.10340806 0.020936431 -0.007182882 -0.15994701
-0.12999061 -0.4973416 0.11076288 -0.43277648 0.36123356 0.28520715 0.16319448 -0.097306855
-0.009075353 0.23916902 0.28126967 0.25589117 -0.0014434576 -0.22230947 -0.0123727275 -0.020934165
-0.22904229 -0.10062736 0.27913344 -0.0879396 -0.120037846 0.053850204 -0.11024936 0.24461278

output.bias f4 [9]
00000000: 392c edbc a7c1 e43d dafb 283d d789 6a3d
00000010: ed7c c13d 996a d43e 6d3b 14be 75d2 2e3e
00000020: 0789 703e
-0.028951751 0.11169749 0.04125581 0.05726036 0.09447656 0.41487578 -0.14475794 0.1707247
0.23489772
