results/1_sampling/pinn_set5_mixed_LBFGS_e1000.pth (torch, 79986 bytes, 12 tensors)

hidden.0.weight f4 [64, 10]
000000 a6 28 e1 be 28 10 a8 be c3 86 9b 3c af f5 13 bd
       -0.43976325 -0.32824826 0.018985158 -0.036122974
000010 85 e5 f1 bd 4f 58 9c be 3e 90 82 be e6 e3 38 3e
       -0.118113555 -0.30536124 -0.25500673 0.18055686
000020 11 f3 ec be fd d1 10 bd a9 63 6d 3f b2 be ec 3d
       -0.46279195 -0.03535651 0.92730194 0.1155981
000030 c9 49 d6 bd 62 a5 90 3b cd 6f 22 3f e4 94 b8 3e
       -0.10463292 0.0044142464 0.63451844 0.36051095
000040 26 59 17 3f 3a 8f bb 3e 67 30 a3 3e 3a ac 99 3e
       0.59120405 0.3663271 0.31872866 0.3001421
000050 15 4b 42 be 43 ee 5f 3e e1 9c b8 3a 81 12 98 3c
       -0.18973954 0.21868233 0.001408484 0.01856351
000060 1f 27 ed bd 45 07 c1 bd 5f 77 97 bd 6a 9b ff 3d
       -0.115797274 -0.09425215 -0.07395815 0.12480815
000070 2d f1 f4 bd 68 27 56 be 7e ba 62 be ef f1 45 3e
       -0.11960063 -0.2091347 -0.22141454 0.19330572
000080 28 78 85 3d 3b 59 58 3c 63 2e 9f be 5a ed c2 be
       0.065170586 0.013204868 -0.31090078 -0.3807171
000090 33 7e e6 be 05 77 a6 be c7 69 20 be 90 dd 46 be
       -0.45018157 -0.3251268 -0.15665351 -0.19420457
0000a0 03 24 cf be 75 9e c6 be a7 e3 c6 bc 6c 5a 40 bd
       -0.40457162 -0.38792768 -0.024278475 -0.046961233
0000b0 80 c2 90 3e 67 6b 08 3e 37 0c 06 3e 30 cf 29 3c
       0.28273392 0.1332222 0.13090597 0.010364339
0000c0 b6 31 1e be 07 44 92 be 6e ad 52 bd d2 17 94 3e
       -0.1544865 -0.28567526 -0.051434927 0.28924423
0000d0 ca 58 18 bd a9 91 85 be a2 64 a3 be b9 41 68 be
       -0.03719405 -0.26087692 -0.31912714 -0.22681321
0000e0 2e 7e 87 be 8c 89 10 be 43 85 08 bc 1b 2b 33 3e
       -0.26463455 -0.1411497 -0.008332553 0.17496912
0000f0 a4 9a f9 3e ab b9 86 be ed 24 0b 3e 2b 84 46 be
       0.48750794 -0.26313528 0.13588305 -0.19386356
000100 3a c7 71 3d b5 2a a3 bd ed 19 a4 be 70 c5 06 be
       0.059027888 -0.0796713 -0.3205103 -0.13161254
000110 c7 05 ac 3e 7a ab 43 3d f2 a2 26 3f a4 e9 a5 3e
       0.33598158 0.047770955 0.65092385 0.32404816
000120 f8 18 90 bd 22 0c 47 3e 4a 13 23 be 13 50 6f be
       -0.070360124 0.19438222 -0.15925327 -0.2337039
000130 dd 81 3a bc 1d 00 a5 bd 12 1f 1f be d2 2e 95 be
       -0.011383501 -0.08056662 -0.15539196 -0.29137284
000140 99 bb 64 3f c0 3a 29 3d 4c e8 f5 bc f6 97 c3 be
       0.8934875 0.041315794 -0.030017994 -0.38201874
000150 01 cb 8f 3d b8 66 54 bd 1b a9 9d 3c f3 30 1f be
       0.07021142 -0.051855773 0.019245675 -0.15546016
000160 2d ff cf bd fe e6 d9 3d 02 19 09 3f e2 1f fa be
       -0.10156093 0.106397614 0.53553784 -0.4885245
000170 eb d6 79 3d 09 43 3d be 52 bf 5d bb d0 4c 86 3e
       0.060995977 -0.18482603 -0.003383596 0.26230478
000180 73 23 12 3e 48 29 20 3a 0b b1 6c 3e 04 00 a9 3d
       0.14271335 0.0006109667 0.23114412 0.08251956
000190 9c 31 98 3f 51 25 e9 bd d5 f5 f0 bd 91 df 8c 3d
       1.189014 -0.11384071 -0.11765639 0.068785794
0001a0 20 48 14 be 60 2b b7 bc 5d fa 29 be 63 52 86 3d
       -0.14480639 -0.02235955 -0.16599412 0.06558683
0001b0 3e 06 6f 3e b0 4b 8f 3e a9 df 52 bf 85 01 ee 3e
       0.23342225 0.27987432 -0.8237253 0.46485534
0001c0 e1 b8 7a bd 77 eb 08 3e 35 87 e9 bd cf 67 b0 3d
       -0.06121147 0.13371073 -0.11402742 0.0861355
0001d0 66 a0 97 3d 48 f3 19 be 6f 82 26 be 87 72 c5 bc
       0.074036404 -0.1503421 -0.16260694 -0.024102462
0001e0 49 b1 ad 3d c7 f6 e0 3d aa 22 12 be db 12 81 3d
       0.0848108 0.10984569 -0.14271036 0.063024245
0001f0 3f a7 02 3e 46 5d 6e 3e d9 e2 c8 3e 0f 56 bb 3e
       0.12759112 0.23277768 0.3923557 0.36589095
000200 1a c5 af 3e ee cd 0b 3d 9d ee fd 3d 33 c2 6c 3e
       0.34330064 0.034131937 0.123990275 0.23120956
000210 32 a5 ac bd 1d 86 4b be e2 c9 bf bc 90 75 5a be
       -0.08429946 -0.19875379 -0.023411695 -0.21333909
000220 f1 b7 19 3d ff d7 23 be 14 d9 5d bd 8c f3 dc 3d
       0.037528936 -0.16000365 -0.0541621 0.107886404
000230 55 10 53 c0 83 1d 3a 3d 83 de b8 3b 96 13 2a be
       -3.2978718 0.0454383 0.00564176 -0.16609034
000240 d9 da 87 3e f2 80 04 be 16 8b a4 be 2e bc d4 bc
       0.26534155 -0.12939814 -0.32137364 -0.025968637
000250 2a 75 b3 bd 8c 7c 14 3e 43 48 ae 3e 5f 34 4e 3d
       -0.08762582 0.14500636 0.34039506 0.050342914
000260 e2 64 b8 bd 8b af 0f be 90 ef 73 3c 2a de 57 3d
       -0.09003617 -0.14031808 0.014888659 0.052702107
000270 0c 66 b4 3e c0 4f 91 3e 49 7c f4 3d 2a d8 17 3e
       0.35234106 0.28381157 0.11937768 0.14828554
000280 a8 dc d4 3d 7b 33 de bd 5e 51 a8 bd ac 07 0a 3c
       0.10393649 -0.10849663 -0.082186446 0.008424681
000290 8e d8 80 bd 00 ef 24 3e 9a 79 76 3d 51 34 9c 3e
       -0.062913045 0.16106796 0.060174562 0.30508664
0002a0 65 7c 93 be 01 44 40 3e b3 da 4e bf 62 6f a3 3e
       -0.28805843 0.18775941 -0.8080246 0.31920916
0002b0 08 c4 17 3d 57 d1 ae 3e 2b e2 6a be ee 44 ea 3e
       0.037052184 0.3414409 -0.22937839 0.45755714
0002c0 b3 04 11 3e cb 26 34 3e 14 d7 6a 3e a1 9d 27 3d
       0.14161949 0.17592923 0.22933608 0.04092181
0002d0 6b cc 63 bf 3c a4 9e be af 4e d9 bc 1c f1 34 3d
       -0.8898379 -0.30984676 -0.026526777 0.044175252
0002e0 1d 9c b6 be de 11 b6 3d 1b d1 9e be 08 3b 8f 3e
       -0.3566598 0.08890127 -0.3101891 0.27974725
0002f0 4b 88 ae bd 32 aa 27 bd 2d 33 34 3e bd 68 77 be
       -0.085220896 -0.040933795 0.17597647 -0.24161048
000300 95 d9 85 bd df d7 4f 3e 0a 74 9d be 8c ca b9 be
       -0.06535641 0.20297192 -0.30752593 -0.36287344
000310 68 f4 e1 be c1 b9 27 be fe 6c bd bd 0e e0 8c be
       -0.4413178 -0.16379453 -0.09249304 -0.2751469
000320 b9 bb ce be f0 32 50 be cb 6c 9f 3d f1 16 63 3e
       -0.40377596 -0.20331931 0.077844225 0.2217672
000330 22 31 e4 bc 07 c4 e8 3d 04 84 f8 bd 3e 2f 6a 3e
       -0.02785546 0.11365514 -0.12134555 0.22869584
000340 87 1b 3a 3d 2b a3 91 3c c8 8c 83 bf 28 78 e5 3c
       0.04543641 0.017778 -1.0277338 0.028011397
000350 7b 6e b1 bd 1f ea 48 3d 1d ce 8a 3e c8 43 08 3d
       -0.086636506 0.0490514 0.27110377 0.033267766
000360 bd 6b c1 3d fc f4 8e 3b 33 24 22 be 02 5b 5a be
       0.094443776 0.0043627005 -0.15834121 -0.21323779
000370 16 15 4b 3e e4 fe 2a be d1 49 73 bd cf b7 a2 3c
       0.19832262 -0.16698796 -0.05939657 0.019863037
000380 9f cb 8c bb 99 da 6f 3e 4c 3a 8e be 29 17 8b bc
       -0.0042967345 0.23423232 -0.27778852 -0.016978817
000390 39 25 25 3c 5e be 5c 3d 55 3d f6 bd be f6 0a be
       0.010079675 0.053892486 -0.12023417 -0.13570687
0003a0 2b 57 19 3d 83 fb bf 3d 64 a0 c6 bd 0e 89 94 3d
       0.037436645 0.09374144 -0.09698561 0.072527036
0003b0 fc 81 90 3e 66 11 05 3c 3b 44 69 3e 3c 02 8d 3e
       0.2822417 0.008121824 0.22779934 0.27540767
0003c0 3c 15 cb 3e 7f f9 a0 3e a6 ab 3f 3e ea 68 0e be
       0.39664638 0.3144035 0.18717822 -0.13907209
0003d0 a8 11 bd 3e 47 7c 90 be 0e f1 15 be be 57 5e be
       0.36927533 -0.28219816 -0.14642736 -0.21713158
0003e0 31 60 e7 bd 9e 85 94 be 0f 35 d7 bf 51 ed e3 3c
       -0.11297644 -0.29008192 -1.6813067 0.027823122
0003f0 e8 f4 79 3d 28 0b 83 be 2f cf eb bd 75 01 4b bd
       0.061024576 -0.2559445 -0.115141265 -0.049561936

hidden.0.bias f4 [64]
000000 9b cc 11 3e 8b 8b 8e 3e c1 9c 14 be 17 d8 a7 3b
       0.14238207 0.27840838 -0.14512922 0.0051221955
000010 29 6d 23 be c8 5d 26 3e e3 24 09 be 15 65 58 3e
       -0.1595961 0.16246712 -0.13392977 0.2113231
000020 24 c7 70 bd 15 15 de 3e 54 a9 36 be f9 08 dd bd
       -0.058783665 0.4337546 -0.17838031 -0.10792727
000030 b1 44 ed 3e b5 a1 c6 be 52 9e b4 bd 1d 0c e0 3d
       0.4634147 -0.38795248 -0.0881926 0.109398104
000040 3e 9b 91 3e 7a f4 fd 3d 12 7d 9e be 3e b6 08 be
       0.28438753 0.12400146 -0.30954796 -0.1335077
000050 43 08 0e 3e b4 6f 4b be 76 49 35 3e 55 2d 84 3e
       0.13870339 -0.1986683 0.17703804 0.25815836
000060 36 18 4d bd 56 fc 06 3e f6 90 71 3d 99 85 b6 3e
       -0.050071917 0.13182196 0.058976136 0.35648802
000070 8f c3 54 3d f5 7c 86 3e 87 9f 6d 3e db a9 bb 3e
       0.05194431 0.2626721 0.23205386 0.36653027
000080 9a d9 a1 be 63 ac 00 3d df 85 66 bd e5 c4 81 3e
       -0.3161133 0.0314144 -0.056280013 0.2534553
000090 8f 11 75 bd e0 15 2e bd d7 3f ba bd 9d 33 72 39
       -0.0598312 -0.04250133 -0.09094208 0.00023098146
0000a0 bc 4c 45 bc ec 88 fa bd 28 4e 79 be 22 0e 14 3f
       -0.012042221 -0.12233147 -0.2434622 0.57834065
0000b0 55 f4 89 3e 19 f9 bb 3e 3e 8e 0b 3d d5 17 09 3d
       0.26944223 0.36713484 0.0340712 0.033469994
0000c0 61 49 75 3e e4 a6 2e 3e 0a a4 26 be 21 4b 55 be
       0.23953773 0.17055851 -0.16273513 -0.2082944
0000d0 a3 86 6f 3e 76 f4 7f 3e 52 13 2a be 4c 25 84 3e
       0.23391204 0.24995598 -0.16608933 0.25809705
0000e0 b6 d6 90 3e 5c dc 53 be 11 38 32 be 5f 44 00 be
       0.2828881 -0.20689529 -0.174042 -0.12526082
0000f0 b9 07 f2 3d 10 f1 60 3d d8 06 91 3d 86 36 a0 be
       0.11817879 0.054917395 0.070813835 -0.31291598

hidden.1.weight f4 [64, 64]
000000 92 70 55 3d 6b d7 09 3e 1c ce ce 3c 02 fe b0 3d
       0.05210931 0.13461082 0.025244765 0.08642198
000010 f4 ce 39 3c ed cb 51 bc bc e3 96 3c e0 31 82 bd
       0.011340845 -0.012804967 0.01841914 -0.06357169
000020 28 9e 06 be fa 28 98 be 1f de 6b bd a0 e3 bd bd
       -0.1314627 -0.29718763 -0.057584878 -0.09271932
000030 1d ee 88 be fe 2c 6b 3e 63 83 47 be 87 af 37 bb
       -0.26744166 0.22966382 -0.19483714 -0.0028028206
000040 18 2a a1 be be 9c 62 bd 79 63 9b bd d7 30 ab bd
       -0.31477427 -0.055325262 -0.07587332 -0.08358925
000050 e2 6c 5c 3d 9e ed 35 be 93 07 94 3b bb 9b 84 bd
       0.053814776 -0.17766425 0.0045175045 -0.06475016
000060 c2 ae a1 3c d3 df b7 bd c9 d0 2c be c4 ae 34 bd
       0.019736651 -0.08978238 -0.1687652 -0.044111982
000070 a2 c0 84 3d bb 5f a3 3d 51 e5 4e bd 9d 09 87 be
       0.06482054 0.079772435 -0.050511662 -0.26374522
000080 ab 45 18 3e 41 a8 82 be 5b 95 f1 bc 36 8e 29 be
       0.14870326 -0.25518993 -0.029490164 -0.16558155
000090 8d 7f ff bd 68 9e c8 bd 0b a4 55 3e e5 e5 84 3e
       -0.124755 -0.097958386 0.20863359 0.25956646
0000a0 1b 04 dc 3c 0a 09 3a 3e 73 b9 b0 bd 67 08 9a 3d
       0.026857426 0.1816751 -0.08629122 0.07521134
0000b0 62 2a 7c bd 93 0c 07 be 5d 22 0b 3d c2 eb 9c b7
       -0.061563857 -0.1318839 0.03396832 -1.8706432e-05
0000c0 72 da ae bc f2 e7 40 be 54 65 a2 3e 07 f9 8a 3e
       -0.021344397 -0.1883848 0.31717932 0.27143118
0000d0 0a 61 8a bd e3 e7 59 bc 53 69 a4 bd 21 7b 8c bd
       -0.0675679 -0.013299915 -0.080279015 -0.068594225
0000e0 de 02 7e be 35 66 01 3e 87 a0 87 3e b1 61 42 be
       -0.24805781 0.12636645 0.2648966 -0.18982579
0000f0 79 e2 d6 bc 22 87 ab be ac b5 8b be 11 2c c4 3d
       -0.026231037 -0.33501536 -0.27287042 0.095787175
000100 0f fb b0 be a9 a9 e4 3d 61 0a 4c bd 65 74 f4 bd
       -0.34566543 0.111651726 -0.049814586 -0.11936263
000110 00 f6 3e 3e aa 36 09 be e5 4b 0b be 93 3f 3a 3e
       0.18648529 -0.13399759 -0.1360317 0.18188314
000120 93 47 8d 3d d9 4b df 3c 52 78 75 3d b4 48 a3 3e
       0.06898417 0.027257847 0.0599292 0.31891406
000130 5d fe 61 be 0d d8 84 3e ff da 5a be f2 bc 98 bb
       -0.22069688 0.25946084 -0.21372603 -0.004661196
000140 c9 ef 58 be 4a 9c 2d be 43 70 fa bd 57 3a ad 3d
       -0.21185221 -0.16954151 -0.122284435 0.08458393
000150 e6 a9 8c be 84 7f 79 3d ec 16 02 3c 21 1e 19 be
       -0.27473372 0.060912624 0.007940035 -0.149529
000160 16 64 7b 3e d3 c5 86 be 76 3a 93 3e 15 c4 93 bd
       0.24549899 -0.26322803 0.2875554 -0.07215134
000170 7c 04 03 be 06 58 b5 3c 24 b7 bf bd b4 22 4e be
       -0.1279468 0.0221367 -0.09361103 -0.20130426
000180 7d 6a 8b 3d d1 6d 57 bd 2f 83 da 3c 03 37 4a be
       0.068074204 -0.052594963 0.026673881 -0.19747548
000190 6a 9e 0c 3e 1f 1a fc 3d 35 97 b3 3d 44 92 79 3e
       0.13732305 0.1230967 0.08769075 0.24372202
0001a0 cf 73 3f bc 2c d8 ae bd d2 78 75 be b7 26 d6 3b
       -0.011685326 -0.08537325 -0.2397187 0.006535377
0001b0 b6 5b 14 bd 14 88 07 be 40 9d eb 3a 59 e5 35 bc
       -0.036220275 -0.13235503 0.0017975941 -0.011102044
0001c0 a8 64 28 be ce d1 fa bd 58 cd 3e 3d 44 ba 5d 3e
       -0.16444647 -0.12247048 0.04658255 0.21653086
0001d0 bd 9b 9c bd 33 08 f5 3c 83 48 77 bc 6a 8b 02 be
       -0.07646892 0.029911136 -0.015092972 -0.12748495
0001e0 80 e3 b1 be a1 13 24 3e 24 6b 47 3d a5 bd 02 be
       -0.3474388 0.16023113 0.04868616 -0.12767656
0001f0 b1 03 c0 3d 67 ea 00 3e c1 92 b7 bd 16 a2 75 3e
       0.09375704 0.12589417 -0.08963538 0.23987612
000200 d8 f7 89 3d 80 15 3c bd b9 4b 0d be 84 40 c2 ba
       0.067367256 -0.04591894 -0.13798417 -0.0014820253
000210 18 6f fd 3d b4 f5 6f 3e f8 66 85 3c 13 3c 75 bd
       0.12374705 0.23433572 0.01628445 -0.059871744
000220 ab f2 e9 bd 60 1e 32 3e 3d 32 3a 3e 26 c2 e5 3d
       -0.11423238 0.173944 0.18183227 0.112186715
000230 da 88 da bd ea 46 83 3e 09 50 24 3b 2f da c2 3d
       -0.106706336 0.2564004 0.0025072119 0.095142715
000240 70 07 69 3c 00 31 88 3d 1b 0a 0c be 92 ac c8 bd
       0.014222965 0.06649971 -0.1367573 -0.0979854
000250 0d db 84 3b ad 48 f3 bd 66 b0 0b bd 27 e8 4f 3d
       0.004054433 -0.11879096 -0.034103774 0.050758507
000260 cb 49 e3 3c f1 38 7d 3d 07 01 60 be 26 f7 20 3e
       0.027745148 0.06182188 -0.21875392 0.1571928
000270 9c 53 fa 3d 5c 1e f8 bd 16 e9 22 be fb 84 ea 3d
       0.122229785 -0.121151656 -0.15909228 0.11451145
000280 01 a0 7f 3d 8f 75 3c bd b5 42 13 be ed 27 ad 3d
       0.06240845 -0.04601055 -0.14380915 0.08454881
000290 fe fb 57 3d ac 29 4c 3e b1 21 28 3d db 8d 1b be
       0.052730553 0.19937772 0.041047756 -0.15190832
0002a0 46 b1 a7 bd e1 40 60 3d 79 23 c7 3d 97 31 af 3d
       -0.08188109 0.054749373 0.09723563 0.085543804
0002b0 69 6e f7 bd d5 74 00 be 97 62 0b 3e d3 0e fd bd
       -0.12081606 -0.12544568 0.13611828 -0.12356343
0002c0 b5 10 c4 bd 30 a7 42 bc 64 77 50 be 8a 33 85 bd
       -0.09573499 -0.011880681 -0.20358044 -0.06503971
0002d0 5a 1d 85 3d 47 ae 21 bd 25 2c e7 3d 51 72 a4 bd
       0.06499739 -0.039472844 0.11287717 -0.080296166
0002e0 1d cd 92 3d 87 06 64 3c f0 34 c9 3d 98 62 6a bd
       0.071680285 0.013917572 0.0982455 -0.057222933
0002f0 8d c8 0d be 41 1f f8 bd 64 1d 48 be 37 56 d8 bb
       -0.13846035 -0.12115336 -0.19542462 -0.0066020745
000300 94 c7 82 3d f7 50 3f bd 14 a3 2a 3d 86 88 c0 3c
       0.06385723 -0.046708073 0.04165943 0.0235026
000310 0f 02 36 be a4 64 8b 3d 87 58 0e be a2 14 82 be
       -0.17774223 0.06806305 -0.13900958 -0.25406367
000320 08 34 34 be 13 ec 90 be 15 a0 a8 bd 69 0f a1 3d
       -0.17597973 -0.2830511 -0.08233658 0.078642674
000330 f4 4c cf 3d e3 09 50 bd 3e af 3b 3e fb 08 18 bd
       0.101220995 -0.05079068 0.18328568 -0.03711794
000340 b2 a4 76 3e ca b0 ff bb 3b ab df 3d fd 9e 9f 3e
       0.24086264 -0.0078030573 0.109213315 0.31175986
000350 43 08 72 3c 57 be 90 3d b8 5e 40 be 90 dd 08 3e
       0.014772478 0.070675544 -0.18786132 0.1336577
000360 a3 38 1d be b1 0d 0a 3d 99 23 c1 bd 20 62 39 3d
       -0.15353636 0.033704463 -0.09430618 0.045259595
000370 3f 21 00 3e d8 ef 94 3e 00 41 9c 3d a1 5e 08 3d
       0.12512682 0.29089236 0.07629585 0.03329337
000380 91 90 d6 3c 45 e5 64 bd db 76 04 be 8d ed 6f be
       0.026191982 -0.05588271 -0.12935965 -0.23430462
000390 1a 39 bf bd 17 6a df bc 80 72 fa 3c 5c a1 02 bd
       -0.09337063 -0.027272267 0.030572176 -0.031892166
0003a0 fd 0f 9e bc 8b 8a e8 3c f2 1a 0c bd d2 74 9b 3d
       -0.019294733 0.028386375 -0.034205385 0.07590641
0003b0 dc f4 d4 3c d8 60 7d 3e 15 56 d2 3d 59 4c 47 3d
       0.025995664 0.24743974 0.10270325 0.048656795
0003c0 8a 77 9d 3d 97 3a 2b 3e 24 2e 82 3e ad af 06 be
       0.07688816 0.16721569 0.25425828 -0.13152952
0003d0 8f e7 14 be db 09 4a bc 5a 63 a9 3e f8 99 eb 3d
       -0.14541458 -0.012331451 0.33083612 0.115039766
0003e0 c7 34 bd bd 8c ec 71 3e 76 8b 47 3d f3 76 c4 3d
       -0.09238582 0.23625392 0.048716985 0.09593
0003f0 0b cb 07 be 69 a8 24 3e 8b c8 60 3e f2 ab 04 be
       -0.13261048 0.16079868 0.21951501 -0.12956217

hidden.1.bias f4 [64]
000000 e4 1f 60 be d9 50 71 be 73 9c a6 bd 63 18 d3 bd
       -0.21887165 -0.23565997 -0.08135309 -0.10307386
000010 5b e1 17 be b8 be 24 be c2 d9 9a 3d 00 4a de 3d
       -0.1483206 -0.16088378 0.07561065 0.10853958
000020 aa dd dc 3d 68 8d 88 3d c8 d7 69 3e 45 b7 f8 3d
       0.107844666 0.06667596 0.2283622 0.12144331
000030 42 b1 fd 3d 52 66 cf be 0c 5b e8 bc 67 c1 f9 bc
       0.12387325 -0.40507752 -0.028363727 -0.03048773
000040 0b bf b2 be f6 af b9 bd 6a 57 4a 3e 2b 32 f1 bd
       -0.3491138 -0.09066765 0.19759908 -0.11777147
000050 8e 6d 7a 3e bd 61 80 3e bc 78 69 3d a9 d7 58 3e
       0.24455854 0.25074568 0.056999907 0.21176018
000060 27 29 e8 bd d5 14 92 3e d8 1e 43 be f7 04 6a bc
       -0.11335974 0.2853152 -0.19054735 -0.01428341
000070 d6 77 87 3e e8 85 3d be 85 d0 ed 3d 0d 63 76 bc
       0.26458615 -0.18508112 0.116120376 -0.015038264
000080 dc e0 6d be 38 88 b4 3e a1 01 95 3e 63 b4 f2 3b
       -0.23230308 0.35260177 0.29102805 0.0074067577
000090 39 b3 54 bd 01 44 80 bc 30 97 16 3e 63 15 da bd
       -0.051928733 -0.015657427 0.14706111 -0.106486104
0000a0 c0 85 41 bd 35 4f 5d 3d fa 0a 92 3d 04 0e bd bd
       -0.047246695 0.054030616 0.07131 -0.09231189
0000b0 18 ec 83 be 8f 72 79 3b 8b 25 4a 3d 0e ae e1 bc
       -0.25766063 0.0038062667 0.04935221 -0.027548816
0000c0 b7 5a 03 3d d4 60 05 3e df b1 4d bd a8 0d 48 3e
       0.032068934 0.13025218 -0.05021846 0.1953646
0000d0 68 01 23 be 75 4e 06 be f5 3d 88 3d 77 e8 9d b8
       -0.15918505 -0.13115866 0.06652442 -7.529643e-05
0000e0 a1 30 f3 bb 18 85 ea 3d fa 63 8a 3b 76 cb 50 3d
       -0.0074215685 0.11451167 0.004223344 0.050975285
0000f0 30 df 0e 3e b7 db 13 3e 41 66 4c be 03 45 59 be
       0.13952327 0.14439283 -0.19960882 -0.21217732

hidden.2.weight f4 [64, 64]
000000 a7 b2 c2 3c 5b 01 96 be c0 03 13 be 9e f3 a0 bb
       0.023766829 -0.2929791 -0.143569 -0.004911854
000010 0d 3b 1f bd 13 5a 34 be 94 4c fd bd 42 d5 1f 3e
       -0.038874675 -0.17612486 -0.12368122 0.15608695
000020 96 0c ce bc eb a7 b6 bd 01 8e 1c 3e c3 9f 16 3d
       -0.025152486 -0.089187466 0.15288545 0.036773454
000030 ec 1c 92 3d 8b a6 f0 3d 62 5e 64 be d8 8b d7 3c
       0.07134423 0.117505156 -0.22301629 0.0263118
000040 50 5d a3 be 13 73 9b be 69 39 c3 bc a1 d8 e3 bd
       -0.3190713 -0.30361232 -0.023831086 -0.11125303
000050 d9 d8 b2 3c 1a 4c fc 3d e3 be 30 3e 5f b6 fa 3d
       0.021831917 0.12319203 0.17260318 0.12241816
000060 9c 6f c2 bd 72 bc 9f 3e 2f 62 71 bd d8 cc 72 3d
       -0.09493944 0.3119846 -0.058931526 0.059277385
000070 da be 1c be 9b 2c 00 be cd e9 c2 3d e3 38 8e bd
       -0.15307179 -0.12517016 0.0951725 -0.06944444
000080 ea 98 e9 bd 7e 4d 14 3e 9a d2 9e 3e 9d e1 c6 bd
       -0.11406119 0.14482686 0.3102005 -0.09711001
000090 14 2c 01 3e 5c 8e 5a 3e 63 11 42 3d 63 17 32 bd
       0.1261447 0.21343368 0.047379863 -0.043479335
0000a0 0e 38 17 3e 96 58 b4 ba cd cf 0a be 5e c3 20 be
       0.14767477 -0.0013759311 -0.13555832 -0.15699527
0000b0 69 45 8b be bf 2e 4a bb 03 e8 4c bd cd ea 3a bd
       -0.27201393 -0.0030850617 -0.05002595 -0.04563408
0000c0 30 27 c5 bd 4f f5 da 3b 6c d9 4f be 9f ff a0 3e
       -0.09626615 0.006682075 -0.20297784 0.31445023
0000d0 0f 6e 81 bc 85 46 89 3d 79 a2 0a be c7 00 9a 3d
       -0.01579955 0.06702904 -0.13538541 0.075196795
0000e0 b6 76 c6 bd a4 72 5b 3d 49 5a d8 3d 2a 69 c3 3c
       -0.09690611 0.053576127 0.105640955 0.023853857
0000f0 18 d6 34 3e d8 8e 63 bd 8a 18 84 be e2 f9 0f bd
       0.17659795 -0.05555615 -0.25799972 -0.035150416
000100 49 d6 c0 be 24 1b 0b be 46 34 a2 bd 05 00 fe 3d
       -0.37663487 -0.13584572 -0.079201266 0.124023475
000110 0d c5 c3 bd db 06 42 be 68 cd 0c 3e 49 60 03 bd
       -0.09559069 -0.18947928 0.13750231 -0.032074247
000120 1d df bd 3d 26 9b ec 3d 8d 29 5e be f7 4c 9b 3d
       0.09271071 0.1155303 -0.21695538 0.07583039
000130 f4 3f 8e be fa ff 88 3b 1f 00 22 3e c4 f8 9e 3d
       -0.27783167 0.0041809054 0.15820359 0.07762292
000140 89 fc 84 be 5e 39 a1 3d cb 6f f7 bd 3c 9d 14 3e
       -0.2597392 0.0787227 -0.1208187 0.14513105
000150 cc 28 49 3e 9c 0c 98 3d 77 37 08 3e ef 34 d9 3d
       0.19644469 0.0742428 0.13302408 0.106057994
000160 27 69 5d bd 13 56 22 3d 0b 47 29 3e ea 54 71 3d
       -0.05405536 0.039632868 0.16531007 0.05891887
000170 0f 6f bb bd c1 68 c1 be 27 33 40 3d b2 04 f5 3a
       -0.09152042 -0.37775233 0.046923783 0.0018693416
000180 18 c4 03 3e dc 21 0d bd 70 4d 54 b9 69 19 8e be
       0.12867773 -0.03445612 -0.00020246743 -0.2775376
000190 b1 f8 fa bd a3 f9 cf bd bf 64 d1 bc 97 a3 18 be
       -0.12254465 -0.10155036 -0.025560735 -0.14906155
0001a0 8e d1 ab 3e 5d 21 1b bc be a0 10 3e 40 ad 0d be
       0.33558315 -0.009468404 0.14123818 -0.13835621
0001b0 a1 8d 96 bd 8d 1c d2 bd fb 2f 14 3e c1 b3 1f 3d
       -0.07351232 -0.10259352 0.14471428 0.038989786
0001c0 72 a6 9d 3d d3 7c 55 3e d3 15 35 be 9d ad 3f bd
       0.076977625 0.20848398 -0.17684107 -0.04679643
0001d0 c8 be ec bd 04 01 d1 3d 9a 62 85 bd 5e 8a fd bd
       -0.11559826 0.10205272 -0.065129474 -0.12379907
0001e0 1d 45 da bd 12 34 e9 3d c9 3e 94 be e7 3e 5c 3d
       -0.106577136 0.11386885 -0.2895415 0.053770926
0001f0 7c 03 66 3e 51 20 cb bc 04 f3 1d be 69 3a 8b bd
       0.22462267 -0.024795683 -0.15424734 -0.0679825
000200 0b ba ac bd 93 d7 68 bd e1 7f 25 3e 02 ff 25 be
       -0.084339224 -0.056846213 0.16162063 -0.16210559
000210 95 f9 a0 3d 70 32 03 3d bd 74 54 be f6 3d 2e be
       0.07860104 0.032030523 -0.20747657 -0.17015824
000220 26 88 6a 3e 42 66 1a bd 29 67 23 3e d5 13 3f bd
       0.22903499 -0.037695177 0.15957321 -0.046649773
000230 34 4c f2 3d 4d 85 1b 3e 2b 4f aa 3e 18 ae cc 3d
       0.11830941 0.15187569 0.33263525 0.09994143
000240 a8 00 1c 3e bd 98 d9 3d 3b 14 bb bd 6e 2e 64 3d
       0.15234625 0.10624836 -0.09134718 0.05570834
000250 26 e2 28 be 86 7b a7 bb a9 5b 61 ba 32 5a 6e 3d
       -0.16492519 -0.0051111607 -0.0008596727 0.058191486
000260 ae 4f c3 3b 02 74 26 3d ac 5e 60 3d fd de ce 3b
       0.0059604263 0.040637977 0.054777786 0.0063132034
000270 65 d3 de 3d bc 70 b8 b8 d6 bb d0 bd 84 77 15 be
       0.10880164 -8.794802e-05 -0.10192077 -0.14596373
000280 53 0d 54 bc 99 d4 7a be 8e 71 36 3c 02 fd 05 3e
       -0.01294263 -0.24495162 0.011135472 0.13084796
000290 eb 53 f4 bd aa 50 1d 3b 20 c9 36 be 16 a9 38 be
       -0.119300686 0.0024004378 -0.1785016 -0.18033251
0002a0 10 c1 f2 3c b9 c0 4f 3e d8 63 87 be 04 19 6e bd
       0.029633075 0.20288362 -0.26443362 -0.058129326
0002b0 d1 2b 0d be 27 69 ec bd 1b be 68 bd f8 ea c3 3a
       -0.13786246 -0.11543494 -0.056821924 0.0014947345
0002c0 9f 1a 23 bc eb df 22 3e 3f 16 ba bc 9d ef 87 bb
       -0.009955077 0.1590573 -0.022715686 -0.004148437
0002d0 4d 7f 6e be 5a 5c b9 bd 98 11 3a 3e 3d 1e 5f 3e
       -0.23290749 -0.09050818 0.18170774 0.21788879
0002e0 62 71 34 3d 75 1f 8a 3d 16 24 46 3e 56 a0 fa 3d
       0.044053443 0.06744281 0.19349703 0.12237613
0002f0 64 53 04 3e df fd 2d 3e 34 f6 34 3d 8e d1 99 be
       0.12922436 0.16991375 0.04418011 -0.3004269
000300 10 8d 03 3e ed 58 a7 bd 85 28 df bb 2e e8 1f bd
       0.1284678 -0.08171258 -0.00681025 -0.039039783
000310 ca b4 57 be ab 4a 43 3d bf 13 1c 3e 01 4e 84 3d
       -0.2106506 0.04767863 0.15241908 0.064601906
000320 82 90 fc bc ac f8 ca 3d 22 f4 73 bd cd 00 5a bd
       -0.030830625 0.09910712 -0.059558995 -0.05322342
000330 3f e6 a5 be 25 59 a7 bd d3 45 13 bc d2 5f 2a 3d
       -0.32402226 -0.081713 -0.008988815 0.041595288
000340 fe e0 c8 3d 03 92 11 3e 21 50 aa 3d 4f 27 be bd
       0.09808539 0.14215855 0.083160646 -0.09284841
000350 2b b2 c7 bd e6 40 97 3c 8c 38 01 bc 9f 68 de 3b
       -0.0975078 0.018463563 -0.007887017 0.006787374
000360 a9 14 32 3e 41 ea cf 3d 80 9e a2 be b0 db 81 bc
       0.17390694 0.10152102 -0.3176155 -0.015851825
000370 81 a8 cf 3d 8a bb c6 3d 8e 75 aa 3e 02 ac d7 3d
       0.101395614 0.09703739 0.33292812 0.10530855
000380 fe b4 18 be 40 2a 95 bd b8 21 90 3d 63 d5 55 3c
       -0.14912793 -0.07283449 0.07037681 0.013051364
000390 6f ac 8c 3e 00 d8 c5 ba 03 5d 62 3e 9a cd 99 3e
       0.27475306 -0.001509428 0.22105794 0.30039674
0003a0 c9 9a ef 3a 25 8d 48 3d c4 63 5f 3e 36 20 da bd
       0.0018280383 0.04896273 0.21815401 -0.10650675
0003b0 cb 01 9c 3d 99 ec 25 3e ac e4 44 be aa 91 15 bd
       0.076175295 0.16203536 -0.19227856 -0.03651587
0003c0 aa 67 01 3e 39 35 18 bd aa ff 2f 3e 68 34 14 3e
       0.12637201 -0.037160132 0.17187372 0.14473116
0003d0 3e 63 4d 3d ab 51 44 3d 10 95 6c be e1 fa 74 be
       0.050143473 0.047929447 -0.23103738 -0.23923828
0003e0 7d 8b 48 bd 6c df 8a be 40 9c be 3d c1 56 22 bd
       -0.04896115 -0.27123582 0.09307146 -0.039633516
0003f0 5e c0 88 bd 0e d6 5e be e8 54 2c 3e fd 7a 4c 3d
       -0.06677316 -0.21761343 0.16829264 0.04992198

hidden.2.bias f4 [64]
000000 b2 57 72 3e 8d d9 49 3e 6b cf fa 3d 4f 6e a4 bd
       0.23666266 0.19711895 0.12246593 -0.08028852
000010 94 17 96 3c b3 bc 55 3e a3 da bf 3d ef 21 45 3d
       0.01832179 0.20872764 0.093678735 0.048128065
000020 0c f5 65 3a 04 21 f3 3d 4d 16 8d 3e 75 ff 40 bd
       0.00087721716 0.118715316 0.27556077 -0.047118623
000030 cb 79 4b 3e 3e ea aa 3d 98 fb 2c be ad da 48 3d
       0.19870679 0.083454594 -0.1689285 0.04903667
000040 6f d9 02 3e 26 ee cc bd bb e8 4e bd 8d 12 0a be
       0.12778257 -0.10006361 -0.050514918 -0.13483639
000050 96 6b 56 be b6 29 c3 3d 02 6d 14 3e 6f 56 07 be
       -0.20939478 0.0952944 0.14494708 -0.13216566
000060 79 36 f7 bd 4a 37 20 3e f3 7f 99 3e 6f 71 95 3e
       -0.12070937 0.15646091 0.2998043 0.29188105
000070 86 3e ae bd 8a 64 37 3d 79 35 e6 bc 85 b2 82 3e
       -0.08508019 0.044773616 -0.02810167 0.25526825
000080 48 80 d0 3d d3 08 0b be a4 50 a3 bd 29 7b 12 be
       0.10180718 -0.13577585 -0.07974365 -0.14304794
000090 e1 58 06 bd 5b ec 4e bd 8c 8e 01 bd 5b c3 34 be
       -0.032799605 -0.050518375 -0.031630084 -0.17652647
0000a0 05 75 f1 bd a8 ca 85 3d 40 20 81 3d aa 2f 08 3e
       -0.11789898 0.06532794 0.06304979 0.13299432
0000b0 0b b6 79 3d 13 82 05 3d 15 fc 5e 3d cd 8b 2a 3e
       0.060964625 0.03259475 0.054439623 0.16654892
0000c0 fc 2e e3 bc 08 40 8e 3e f2 f0 07 3d 61 f6 a4 3e
       -0.027732365 0.27783227 0.033188768 0.32219222
0000d0 d9 dd 73 be ff ac 26 3b 73 9b 72 3e 45 e3 00 be
       -0.23815097 0.0025432704 0.23692112 -0.12586696
0000e0 fe 9b cc 3d cc 0b 1a bd d1 cc 9a be eb 64 7b be
       0.09990691 -0.037608907 -0.30234388 -0.24550216
0000f0 5b 0d 27 be d0 9d a8 3d c7 2d 32 3e 41 5d f1 bd
       -0.16313688 0.08233225 0.17400275 -0.11785365

hidden.3.weight f4 [64, 64]
000000 c4 f9 af 3c 03 d2 0f 3d 23 0b a7 bd 4d e9 2b bd
       0.021481402 0.035112392 -0.08156421 -0.04197054
000010 f2 bc c1 3d 91 d8 16 be 37 2d 64 be 47 57 94 bd
       0.094598666 -0.14731051 -0.22282873 -0.07243209
000020 2a 3c b3 3c 04 cf 93 3e d8 1b 3e be d4 01 f5 bc
       0.021879274 0.28868878 -0.18565309 -0.029908098
000030 56 f5 1e 3e ac 53 11 3d a6 4b 78 be 4e 87 1e bc
       0.15523276 0.035480186 -0.24247608 -0.009675814
000040 47 9b 53 be 94 8a 6b bd d2 37 c2 3e d8 18 9b bd
       -0.20664702 -0.057505205 0.37933213 -0.07573098
000050 a4 4b 4b be cd 4b b7 bd bd 90 a4 bb 4b 2a 49 bc
       -0.19853073 -0.08950005 -0.005022137 -0.01227815
000060 40 9e cf bd e4 fd 52 3e e0 54 19 3e 19 69 8f 3e
       -0.10137606 0.20604664 0.14973783 0.2800987
000070 d0 e8 72 3c 99 fa 9b bd cb b4 84 3e eb 45 7c be
       0.014826015 -0.07616157 0.25919184 -0.24636047
000080 85 f0 94 bd 29 8f 23 be 79 8e a2 bd c4 ee 2b 3e
       -0.07272438 -0.1597258 -0.07937331 0.167903
000090 60 52 48 be 53 5c 3f bd 97 55 af 3c 35 59 1c 3d
       -0.19562674 -0.046718907 0.021403117 0.038171012
0000a0 38 d9 0e 3d 7f 66 07 3d 50 96 12 3e 64 c7 90 3d
       0.034875125 0.033056732 0.14315152 0.07069281
0000b0 9e 04 86 3d cd 4f 1e be 35 5e 4a 3d 36 da 01 3e
       0.065438494 -0.15460129 0.04940625 0.12680897
0000c0 0e af fd 3c 4a ef 87 3d a9 1d 24 bd 68 b0 b7 3d
       0.030967262 0.06637438 -0.04006735 0.08969194
0000d0 ee a1 ff bd a5 6e 80 3e 15 86 17 3e 01 26 12 bd
       -0.124820575 0.25084415 0.14797242 -0.035680775
0000e0 b0 99 8a 3e b1 18 bb 3d bb 37 9b be 4a b1 7d bc
       0.2707038 0.09135569 -0.30315956 -0.015484164
0000f0 4f 64 61 3e c5 32 0c 3d fe 24 0d 3e 69 3a 87 3c
       0.22010921 0.034228105 0.13783643 0.016507344
000100 24 9d 17 3d 49 2e 4c 3e 21 dc 2b 3e bb 06 2f be
       0.037015095 0.19939531 0.16783191 -0.17092411
000110 7a f5 a9 bb 0e 99 b6 3d dd 7c bd 3d 75 70 1d 3e
       -0.005186734 0.089159116 0.092523314 0.1537493
000120 11 7f 03 3e 19 28 8d 3d ab 43 9f 3d 42 04 76 3a
       0.1284144 0.06892414 0.077765785 0.000938479
000130 3d ba 72 bd dd 40 4b bb 03 9d ea bd ba a8 75 3e
       -0.059259642 -0.0031014003 -0.11455729 0.23990145
000140 4b 6b 19 be 96 21 43 be a3 e8 47 3d 6b b4 22 3e
       -0.14982335 -0.19055781 0.048805844 0.15889136
000150 3c e0 e7 bb 47 fb ed 3d 2f ee bb bd 7f 59 9c 3d
       -0.0070762914 0.11620193 -0.09176289 0.076342575
000160 64 42 88 3c 99 16 4a bd be 66 26 be f2 75 80 3c
       0.01663322 -0.049337957 -0.1625013 0.01568124
000170 71 3f 20 bc e0 f2 cf bd d4 49 5f 3c 96 d8 79 be
       -0.009780751 -0.101537466 0.013628442 -0.24399027
000180 ad e5 17 bd 5d ac 7c 3e 0e b6 e2 3b 74 fb b8 3c
       -0.03708427 0.24675126 0.0069186753 0.02258084
000190 97 b6 51 3e 0a bb ec 3d b7 fa 00 be 3d 91 f4 3d
       0.20479809 0.11559112 -0.1259564 0.119417645
0001a0 ed a5 15 be 35 59 04 3e cf d5 f8 bb 85 54 c7 3c
       -0.14614077 0.12924655 -0.0075938473 0.024332294
0001b0 b5 5b 80 3d fa d8 52 be 3e 0d e3 bd 19 48 80 3e
       0.06267492 -0.20590582 -0.1108651 0.25055006
0001c0 97 27 aa be 4d 10 40 3e 49 b4 03 be d3 12 f1 3d
       -0.3323333 0.18756218 -0.12861742 0.117711686
0001d0 18 da 50 be d6 cf 88 bd e4 8b 78 3e dc f8 8e 3e
       -0.20395696 -0.066802666 0.24272114 0.2792424
0001e0 cd 07 08 be e2 88 7e 3e f8 72 8e 3a 31 7a 73 bd
       -0.13284226 0.24856904 0.0010868004 -0.059442703
0001f0 a9 b1 cf 3d 61 68 19 bb 22 ad 1d 3e 4a 3a a4 3d
       0.10141308 -0.0023408162 0.15398076 0.0801893
000200 97 d3 1e 3e 7a 1c bb bc 28 ee 3c 3e a4 49 04 be
       0.15510403 -0.022840727 0.18450224 -0.12918717
000210 7a 47 d5 3d fe 73 a2 be ad 79 6c 3e 6e ef 20 3e
       0.10414024 -0.3172912 0.2309329 0.15716335
000220 dd 6c ab bc ee 83 37 be 57 07 8e 3d bb 34 59 be
       -0.020925933 -0.17921421 0.06934994 -0.21211521
000230 e3 bf 42 be fb 62 b6 3e df c1 2c be 2a 56 b3 bd
       -0.19018511 0.3562239 -0.16870831 -0.08756669
000240 99 57 f4 be 37 b4 1c be 65 b2 d1 bd 8b 08 17 be
       -0.47723082 -0.15303122 -0.10239104 -0.14749353
000250 12 ae cb be 66 f8 8f be 73 34 f4 3d 5d e6 51 3e
       -0.39781243 -0.281192 0.119240664 0.20498033
000260 32 d9 6d be 48 86 74 3d e9 f1 8e 3e ed ba 9b 3e
       -0.23227385 0.059698373 0.27918938 0.3041605
000270 7a bd 82 be c9 8a e4 3c dc e7 bf bc 80 f5 90 3e
       -0.25535184 0.02789821 -0.023425989 0.28312302
000280 5f 38 91 3e 9a a2 d9 be c0 44 70 be 1f 70 42 3d
       0.2836332 -0.42506868 -0.23463726 0.04747021
000290 77 b9 04 bc f6 a7 06 3e f5 ff 35 be 46 fc 88 be
       -0.008100859 0.1315001 -0.17773421 -0.2675497
0002a0 9d a2 f9 bd 97 ae 8e bd 71 22 49 bd b2 eb a5 bd
       -0.12189219 -0.06966894 -0.04910511 -0.08101596
0002b0 ec b6 13 3d 71 2f c7 3b da e0 e3 be 13 fc 00 be
       0.03606312 0.0060786535 -0.44507486 -0.12596159
0002c0 9f 19 92 be 3e 5f c2 3e 30 c5 35 3e a9 71 58 3e
       -0.28535172 0.3796329 0.17751002 0.21137108
0002d0 fa 9e b5 be 62 5b 2b be a0 46 8e 3d 0e 42 d8 bd
       -0.35472852 -0.16734079 0.069470644 -0.10559474
0002e0 54 5e 6a 3e 5e d6 ca 3e 57 87 96 be 83 49 11 be
       0.22887546 0.39616674 -0.2940013 -0.14188199
0002f0 dc 1f 8a bd cc 36 51 3e f2 d8 34 3e 42 c4 f1 bd
       -0.06744358 0.2043106 0.17660883 -0.11805011
000300 f7 05 06 bd 9d 69 97 bd d4 22 bb bd 71 84 cd bd
       -0.032720532 -0.07393191 -0.09137502 -0.10035027
000310 2b 3a 71 3e cf 4e c9 bc 87 5a cd bd c4 82 bd 3d
       0.23557346 -0.024573712 -0.10027032 0.09253457
000320 e6 af b0 bd cc a5 6b 3e d4 65 22 be 9f cd 53 be
       -0.086273 0.23012465 -0.15859157 -0.20683907
000330 a4 a3 21 be c4 be 59 be f2 bc 12 3e cb 2b 60 3e
       -0.1578508 -0.21264178 0.1432989 0.21891706
000340 82 91 9e bd 43 dd f0 bd f1 b6 65 3e 6c bf 15 3e
       -0.07742597 -0.11760952 0.22433068 0.14623803
000350 ea 0b 8e bd 0a 8b c4 be d5 2c 89 bd 4b d4 4d bd
       -0.06935866 -0.38387328 -0.06698004 -0.050251286
000360 52 47 20 3e 35 9b 98 be e3 7d ea 3d 24 cf b1 3c
       0.15652207 -0.29805914 0.11449792 0.021705218
000370 76 c3 ad bc 50 45 29 3b b2 ec 9a 3e c9 2c 8c bc
       -0.021211367 0.0025828667 0.3025871 -0.017111199
000380 73 fe a5 3c 97 91 91 be eb 64 dd be f4 79 88 3e
       0.020262932 -0.2843139 -0.43241057 0.26655543
000390 7e 54 30 bd c7 f3 ad bd c4 ff 5d be 2b 42 06 3e
       -0.043049328 -0.084937625 -0.21679598 0.13111179
0003a0 62 ae 74 be 28 8f 59 bd 85 13 f0 bd 05 3a 90 be
       -0.23894647 -0.05311504 -0.11722473 -0.28169265
0003b0 a5 8b c3 3e 71 61 1a be f0 34 df 3d ce 29 d0 bc
       0.38192478 -0.15076233 0.10898769 -0.025410559
0003c0 50 8e 8f be 0a 87 51 3e 4b 2b 5a be ad a8 31 3e
       -0.28038263 0.2046167 -0.21305577 0.17349501
0003d0 02 d0 4f bd 63 a3 38 be 68 58 31 be 90 af bf 3d
       -0.05073548 -0.18031077 -0.1731888 0.09359658
0003e0 20 f8 01 3d 01 d8 76 bd 5a 66 09 bd bb ff 00 bc
       0.03173077 -0.06026459 -0.033544876 -0.007873471
0003f0 0a f0 17 3e 8e 5e c4 3d 5e 4b 05 bc 53 ab 74 3e
       0.14837661 0.095883474 -0.008135645 0.2389348

hidden.3.bias f4 [64]
000000 8e f2 12 3e 64 c8 5e bd e7 df c9 3e 2e 3b 01 3e
       0.1435034 -0.054390326 0.39428636 0.12620232
000010 a9 d8 79 3e ac 87 33 bd 8e 56 28 be c6 b2 bf bd
       0.24399056 -0.04383056 -0.16439268 -0.0936027
000020 63 0b 04 3e 90 ef ce be d4 19 2d 3c 1f 5c 0d be
       0.12894969 -0.40417147 0.01056524 -0.13804673
000030 db c0 2d be 36 bc 45 be 2f 1b 08 3e 16 64 d0 3d
       -0.169681 -0.19310078 0.1329162 0.1017534
000040 44 3b 68 be 79 53 01 3e a5 84 86 3d e2 4d ae bc
       -0.22678858 0.12629499 0.06568269 -0.021277372
000050 1c a2 2a 3c 70 d9 9f 3c 90 fd c8 bd 82 db 4b bb
       0.010414626 0.019512862 -0.09813988 -0.0031106179
000060 47 a5 8b bd 0b e8 80 3e 63 da 31 bd e4 b4 a5 3e
       -0.068186335 0.25177035 -0.04342116 0.3236457
000070 50 1a 13 3e 35 78 d6 bd 71 27 2c be 4c 37 83 3e
       0.14365506 -0.104721464 -0.1681192 0.25628126
000080 e2 7c 3e 3e 58 de 2c 3d 9d a4 90 bd 46 53 62 bd
       0.18602327 0.04220423 -0.070626475 -0.055255197
000090 af 66 07 3e a2 df 0f be 6e 78 bd 3d 33 a3 3e bc
       0.13222764 -0.14050153 0.09251486 -0.011635589
0000a0 fd 09 d3 bc 5a 5e ab 3c ed 01 b9 3d 9e fd 95 3d
       -0.025761599 0.020919014 0.090335704 0.07323764
0000b0 75 ed 33 bd 14 a7 82 3e fc b3 5b 3e d7 4d 62 be
       -0.04392763 0.25518095 0.21455377 -0.22100006
0000c0 a4 0a 43 be 61 ca ff 3d 75 63 b5 bd 2a 6e 20 bd
       -0.19047028 0.124897726 -0.088568605 -0.03916756
0000d0 32 35 5b bd 6e f6 ce 3d 38 e3 21 be 4e 7e 09 bc
       -0.053517528 0.101055965 -0.15809333 -0.00839193
0000e0 8f 77 a1 3e 15 d7 1a be 5d 19 d8 bd e7 e2 5b bc
       0.31536528 -0.1512111 -0.10551713 -0.013420797
0000f0 60 b8 e6 3d fb 2f d4 bd 60 94 94 3d 97 fe 43 3e
       0.112656355 -0.10360714 0.07254863 0.19140087

hidden.4.weight f4 [64, 64]
000000 ba 8d 8c bc 1f a6 4f bd 19 96 e9 3c 29 da 57 bd
       -0.017157424 -0.050695535 0.028513955 -0.052698288
000010 a3 57 83 3d df e0 88 3d af f5 06 3e b4 ae ea 3c
       0.064132 0.06683516 0.13179658 0.028647758
000020 69 10 d5 3c 26 4c 9d 3d 47 a8 21 be 6b da f3 3c
       0.026008802 0.0768054 -0.15786849 0.029767236
000030 df 46 83 3d 85 28 93 3c 23 1b ee 3d d8 0f b2 bd
       0.06410002 0.017963657 0.1162627 -0.08694428
000040 c9 87 9b 3d 7f 4d 0b be 07 31 44 3e df e3 13 be
       0.07594258 -0.13603781 0.19159327 -0.14442395
000050 70 e8 fc 3c b5 e8 5e bd b4 8e 6b 3e 62 86 04 3e
       0.030872554 -0.054421145 0.23003656 0.12941888
000060 79 a7 5c 3e 43 dd 0f 3e 7c 53 ed 3c 03 12 0b 3e
       0.21548261 0.14049248 0.028970473 0.1358109
000070 a3 5d 20 3e 06 40 f5 3d 79 ad 81 3d 0c 96 00 be
       0.1566072 0.11975102 0.063319154 -0.12557238
000080 21 73 12 be 05 f8 0e be 53 7b c4 3d 81 74 14 be
       -0.1430173 -0.139618 0.09593835 -0.14497568
000090 09 46 6b 3e 62 75 5c 3d 25 df 42 3d 08 78 6d bd
       0.22975935 0.053822882 0.04757609 -0.0579758
0000a0 c3 35 eb bd b1 ec 80 3d 7c 2e 92 bd e7 6b 29 bd
       -0.114848636 0.06295145 -0.071377724 -0.04136267
0000b0 7e 0c 0a 3e 18 56 d5 3d b0 da 6b 3e 04 29 b1 bd
       0.13481328 0.10416812 0.23032641 -0.08650401
0000c0 d3 61 53 be 2d f4 3b bd bf 89 b6 3d 10 79 48 bd
       -0.20642786 -0.04588716 0.08912992 -0.04894358
0000d0 1d af 67 3e 03 25 22 be 96 9e 16 3e 97 8a 92 bd
       0.22625394 -0.15834431 0.14708933 -0.0715534
0000e0 f1 cf e0 bd 90 60 24 3d c3 50 bf bb 21 27 96 be
       -0.10977162 0.04013115 -0.005838485 -0.29326728
0000f0 8e fb d8 bd 3a 00 de 3d 0e 03 90 3d 2e ff 0d 3e
       -0.10594855 0.10839887 0.07031833 0.13866875
000100 bf 16 24 be 85 71 1b 3d 59 e3 6c be cf ec f0 3b
       -0.16024302 0.037950058 -0.23133601 0.0073524485
000110 ab 9f 1c 3e 72 fa 73 3a 79 a3 8a 3d ea b0 0a 3d
       0.15295283 0.00093070336 0.06769461 0.033860125
000120 3f ad 76 3e cd 84 86 3d e1 c3 84 3d 79 65 01 be
       0.24089526 0.065682985 0.064826734 -0.12636365
000130 4d 57 0d bd 44 48 bf 3d 2f 1c 10 3e 7f 4c ef 3d
       -0.034507085 0.093399554 0.14073251 0.11684512
000140 85 0e a8 bc c3 b8 da bd f7 45 a8 3d ca fd 89 3e
       -0.020514736 -0.10679772 0.0821647 0.26951438
000150 54 9c ad 3d 7a a4 e1 bd 5a 76 12 3e 8e 45 45 3d
       0.08477083 -0.110176995 0.1430296 0.048162036
000160 2e aa 12 3e d9 aa d6 bd 11 59 51 be 87 54 32 bd
       0.14322731 -0.10481805 -0.20444132 -0.043537643
000170 5b 87 31 3e 1a 3c 4b 3d 58 39 0b 3e 0b 04 15 3d
       0.1733679 0.049617864 0.13596094 0.03638081
000180 1b 42 a1 bd e3 56 40 3e 1e 70 83 be 74 36 20 be
       -0.07873937 0.18783145 -0.25671476 -0.15645772
000190 2c 16 4f bd c0 b0 62 be 47 a1 2d 3e b5 db 33 be
       -0.050558254 -0.22137737 0.16956054 -0.1756428
0001a0 e4 9d 95 bd f9 18 a1 3d eb 61 1d bd 2c ac 01 3e
       -0.07305506 0.07866091 -0.03842346 0.12663335
0001b0 e1 9c f6 bd 5c 89 2f 3d c7 65 a7 3c a0 66 23 be
       -0.12041641 0.042855605 0.020434273 -0.15957117
0001c0 65 5a 22 3e 4d f8 24 3e eb 17 be 3d a5 ab 5d 3e
       0.15854795 0.16110344 0.09281906 0.21647508
0001d0 8c 1c 63 bd 68 c2 a8 bd e7 c5 b5 3d bf 97 80 be
       -0.055447146 -0.08240205 0.088756375 -0.25115773
0001e0 93 bb be bd 91 54 04 be a7 c5 b0 3d ad 2b 10 bd
       -0.09313121 -0.12922885 0.08631449 -0.035197902
0001f0 82 81 28 3e 21 a9 68 3e 37 13 b1 ba 58 5b e3 3d
       0.16455653 0.22720768 -0.0013509755 0.11101407
000200 a1 43 db 3d c5 f6 92 3d ac 3b ea 3d f7 f1 f6 3d
       0.107062586 0.07175974 0.11437163 0.1205787
000210 b1 60 f2 3d cd 58 bf 3c 62 49 ac 3d 7d e4 14 bd
       0.11834849 0.023357773 0.08412434 -0.036350716
000220 63 e6 46 3e 63 78 84 bd 92 f2 b8 bd 58 09 6c be
       0.19423823 -0.064682744 -0.090306416 -0.2305044
000230 56 31 9f bd d3 ae 6b bd 73 c7 41 3d 14 1e a5 bd
       -0.07773082 -0.057539772 0.04730935 -0.080623776
000240 03 51 8b 3e 0a 12 ad bc d6 10 55 3e ab 38 be 3d
       0.27210245 -0.021126766 0.20807204 0.09288152
000250 be b4 d4 bd 45 52 14 be e8 a2 e9 bc 1b f9 8d bd
       -0.10386036 -0.14484508 -0.028520063 -0.06932279
000260 51 a1 f5 3c 52 80 20 bd 1a 75 c2 bd 3f 79 e1 3d
       0.029984148 -0.039184876 -0.094949916 0.11009454
000270 b5 fc 32 3e 8f 99 a9 3d 85 ef 3f bd 56 fa c0 bd
       0.17479213 0.08281242 -0.046859283 -0.09422748
000280 12 b3 80 bd 94 26 94 3d d8 2c 05 3e 8f 88 88 3e
       -0.06284155 0.07233921 0.13005388 0.26666686
000290 e2 ce 83 bd 07 5e c7 3d b1 db 4f be 4e b8 85 3d
       -0.06435944 0.09734731 -0.2029865 0.06529294
0002a0 0b 26 4c 3e 0b df 27 bc 35 1e 97 bd dc 6d 55 be
       0.19936387 -0.010246049 -0.073788084 -0.2084269
0002b0 5d 92 0f be e3 c5 a9 bd bc 09 5a 3e 16 51 a8 be
       -0.14020677 -0.08289697 0.21292776 -0.32874364
0002c0 95 50 73 3e f2 8d 5b be 0c 1b 51 bd f8 a4 04 be
       0.23761208 -0.21440867 -0.051051185 -0.12953556
0002d0 73 18 6e be 0b f7 f7 bd e9 12 9a bd 13 95 97 3d
       -0.23251514 -0.121076666 -0.07523138 0.074014805
0002e0 92 a6 f3 bc 5a 7d 52 3c d1 74 1e be a8 7d 7d 3d
       -0.029742513 0.012847269 -0.1547425 0.061887413
0002f0 36 6c 77 3e 32 1c c4 3d 88 93 26 3e 47 74 e7 bd
       0.24162373 0.0957569 0.16267216 -0.11301475
000300 ce b7 e8 3b b3 8b 58 3d 99 44 43 be 9a de 0a 3d
       0.0071019894 0.052867603 -0.19069137 0.033903696
000310 3c 0e d1 3d 16 44 90 3e db 51 a5 bd 31 e2 74 3e
       0.10207793 0.28176945 -0.08072253 0.2391441
000320 8c 59 90 3c 7f 58 a2 bc a0 87 1f 3e 52 7c 07 3e
       0.017620824 -0.019817589 0.1557908 0.13231018
000330 89 31 16 be ff 52 31 bd fd 7c b6 3e 34 04 2f 3d
       -0.14667334 -0.043292042 0.35642233 0.042728618
000340 72 2c ac bd 89 d3 15 3d b7 0c c8 bc 88 ee 07 bd
       -0.08406915 0.03657869 -0.024420125 -0.033186466
000350 0e 51 2d 3d 73 ad b2 3d 65 a7 ba 3d f5 a7 d1 bc
       0.042313628 0.08724489 0.09113959 -0.025592783
000360 8c 5d 5f bd 72 91 25 bd 5d 5b 9c 3d 24 48 4e 3e
       -0.054532573 -0.04042191 0.07634614 0.20144707
000370 75 ca 8d bc 80 4b 97 ba 49 d1 2b 3e a9 99 e0 3d
       -0.017308453 -0.0011542886 0.16779055 0.10966808
000380 dc 63 52 be 39 0d 84 3e 20 93 74 bd 9f b3 89 bd
       -0.20545906 0.25791338 -0.05971062 -0.06723713
000390 83 a8 d9 3d 03 82 ab 3c e1 f9 88 3d b1 1a 9d bd
       0.10627844 0.020936018 0.066882856 -0.076711066
0003a0 39 23 af bd 72 1a e1 bc 6b 68 d4 3c 57 c4 0a bd
       -0.0855164 -0.02747843 0.025928697 -0.03387865
0003b0 ff 84 5a 3d 7f a2 0e be 2a 68 22 bd 03 eb 18 be
       0.05334949 -0.13929175 -0.03965012 -0.149334
0003c0 2c 3e 37 3d a9 87 09 3e cd 76 43 be e3 72 e0 bc
       0.044737026 0.13430656 -0.19088288 -0.027398532
0003d0 bd 97 81 bc a8 ca 20 bb 8b f4 3c 3e 0a 91 a5 3d
       -0.015819425 -0.0024534855 0.1845266 0.08084305
0003e0 8f b9 7e 3d 27 eb 48 3c ea 79 02 3d da 95 00 3e
       0.06218868 0.012263096 0.031854548 0.12557164
0003f0 c0 a0 f7 3d 11 7c 89 3d 26 e7 40 3c f9 78 2e bd
       0.120912075 0.06713117 0.01177386 -0.042595837

hidden.4.bias f4 [64]
000000 d0 04 62 3c 22 b4 97 bd 08 89 2b bd 00 d2 6c ba
       0.013795093 -0.074074045 -0.04187873 -0.0009033978
000010 c0 59 b6 3d 80 30 b2 3d 10 fd 13 3d 5a 12 83 3d
       0.08903837 0.08700657 0.03613001 0.06399985
000020 2a 5a ed 3d 40 1f 1e bb a0 7b c4 3b 80 f2 b4 bc
       0.11589463 -0.0024127513 0.0059961826 -0.02208829
000030 d0 b0 bf bc a8 d2 fa bd 70 ae 7e bd 30 7d 70 3c
       -0.02339974 -0.12247211 -0.062178075 0.0146782845
000040 60 b4 1d 3d dc 40 fe bd 3c a7 9e 3d ee 0e e6 bd
       0.038502097 -0.12414715 0.07746741 -0.11233316
000050 90 3d a1 bc 3e d1 d1 bd 6c 2b 2d bd 9c fb 90 bd
       -0.019682676 -0.10244988 -0.04227774 -0.07079241
000060 b8 43 a7 bd 68 1a 8c bd f4 d3 be 3d 50 86 e4 3c
       -0.08167213 -0.06840974 0.093177706 0.027896076
000070 22 65 dd 3d 50 c4 67 bd 4e ed a7 bd fa f6 a1 3d
       0.10810305 -0.056583703 -0.08199559 0.07908435
000080 ba 9d f8 3d ba 4b dc bd 04 28 9d bd 6c a9 fc 3d
       0.12139459 -0.10756631 -0.07673648 0.12337002
000090 8c c1 28 3d 70 c3 d4 bc 8a 3a b0 3d 62 9b b6 bd
       0.041200206 -0.025972098 0.086049154 -0.08916356
0000a0 88 b3 eb bd 42 ea 90 3d e0 83 09 3c d4 8c 73 3d
       -0.11508852 0.07075931 0.008393258 0.059460476
0000b0 f4 af a3 3d 38 75 9c 3c 50 0b ff bd c8 b8 ad 3d
       0.07992545 0.019098863 -0.124533296 0.0848251
0000c0 38 dc 26 bd c0 2a c2 bb 30 aa 69 3d 28 fa ab bc
       -0.04073736 -0.0059255064 0.05704707 -0.020993307
0000d0 80 7c 22 bc c0 13 fe bd f8 d4 36 3d 42 f5 e9 bd
       -0.009917378 -0.12406111 0.044636697 -0.11423732
0000e0 fc 60 fe 3d 98 d3 bb 3d ca ec f3 3d 46 75 80 3d
       0.12420842 0.09171218 0.11910398 0.06272368
0000f0 90 24 59 3d 40 6c 3d bc c0 5f 54 3c 78 9b 07 bd
       0.053013384 -0.011561453 0.012962282 -0.03310725
