results/1_sampling/pinn_set5_wide_LBFGS_e1000.pth (torch, 79906 bytes, 12 tensors)

hidden.0.weight f4 [64, 10]
000000 98 4f bb be 8c 61 46 bf 82 93 07 bc af f5 13 bd
       -0.36584163 -0.77492595 -0.008274915 -0.036122974
000010 9b 2a 4a 3e fb a3 02 bf 8d 84 f6 be f6 14 27 bd
       0.19742815 -0.51031464 -0.48148003 -0.040791474
000020 6a 74 1b bf 75 1f 38 be f4 92 6a 3f c6 bf 21 3d
       -0.6072451 -0.1798075 0.9163048 0.03948953
000030 f7 d6 02 bc 62 a5 90 3b 8a 70 fe 3e f0 13 c9 3e
       -0.007985822 0.0044142464 0.49695235 0.39273024
000040 4d 76 20 3f 2f 60 cd 3e ed d0 ae 3e c0 4c a5 3e
       0.6268051 0.40112445 0.34143773 0.32285118
000050 2c 01 9e 3d 15 82 aa be 64 22 e2 3d 81 12 98 3c
       0.07715067 -0.3330237 0.11041716 0.01856351
000060 16 3e 4d bd e9 ac 6c be 96 9c 66 be 6e 90 bc bc
       -0.050108038 -0.23112835 -0.2252067 -0.023018088
000070 c1 41 5d be 5b 78 9c be 78 ea 53 3c dc 0e 1a be
       -0.21607114 -0.30560574 0.01293432 -0.15044731
000080 4b 40 80 bc 3b 59 58 3c 26 dc 40 be 57 d5 7e be
       -0.015655657 0.013204868 -0.1883398 -0.2488607
000090 19 e5 9b be a8 1b 3b be b0 80 82 bd 37 68 cf bd
       -0.30448225 -0.18272269 -0.063722014 -0.10127299
0000a0 86 92 2a be cd e2 b9 3d 5f 5d 63 bd 6c 5a 40 bd
       -0.16657457 0.09076462 -0.055508967 -0.046961233
0000b0 3b 28 b1 3e 95 56 08 3e 31 f5 05 3e 94 69 28 3c
       0.34601006 0.13314278 0.13081814 0.010279078
0000c0 7d 40 1e be 53 4b 92 be ad ff aa be f5 29 32 3e
       -0.15454288 -0.28573093 -0.3339819 0.17398818
0000d0 fe a5 68 bd a9 91 85 be 56 58 08 be f3 88 fa 3c
       -0.056798927 -0.26087692 -0.13314947 0.03058288
0000e0 cc 19 a2 3c 6c 1f 0c 3e fd 3b 31 3e c1 77 b6 3e
       0.019787692 0.13683861 0.1730804 0.3563824
0000f0 8f f5 e4 3e bd 73 9d be 05 0c ac bc 2b 84 46 be
       0.44718596 -0.30752364 -0.021001825 -0.19386356
000100 85 50 dd 3e e2 33 16 bc 5b 6d 78 be 8a 33 63 bd
       0.43225494 -0.009167643 -0.24260466 -0.055469073
000110 10 77 c5 3e 26 9a c7 3d 14 80 6b 3f 93 59 77 3e
       0.385674 0.09746198 0.91992307 0.24155264
000120 1e a5 69 bc 22 0c 47 3e 48 07 73 be ef ee 2b be
       -0.014260558 0.19438222 -0.23733246 -0.16790365
000130 5d 31 7b 3d 43 ac 1b bc 71 43 df bd 50 e0 7a be
       0.061326373 -0.00950152 -0.10901535 -0.24499631
000140 7f c8 48 3f 85 82 f1 3d 8e ea 2a bd f6 97 c3 be
       0.7843093 0.11792473 -0.041727595 -0.38201874
000150 4c 90 09 be d0 5b 3d be 8b db 02 be d9 2c 99 be
       -0.13433951 -0.18492055 -0.12779061 -0.2991703
000160 8f 08 48 be 09 a8 4e 3c e9 28 1a 3f f7 45 ba be
       -0.19534515 0.012613305 0.60218674 -0.36381504
000170 28 22 91 3c 09 43 3d be 12 e1 b0 3d 2e 89 74 3d
       0.017716482 -0.18482603 0.08636679 0.059701137
000180 ff 38 a6 bd 08 70 5f be 70 f0 b4 3d ff e2 76 bd
       -0.0811634 -0.2182008 0.08834922 -0.060275074
000190 3d 45 80 3f 0c b9 3f 3d ec 1f 41 bd 91 df 8c 3d
       1.002113 0.046807334 -0.047149584 0.068785794
0001a0 2c 3a e4 bd 9d 75 5a 3c f2 96 01 be 4f 44 d5 3d
       -0.11143908 0.013333705 -0.12655237 0.104134195
0001b0 82 64 84 3e fe 2c 9c 3e 94 e2 21 bf f4 a1 cf 3e
       0.2585793 0.30503076 -0.63236356 0.40553248
0001c0 bd a8 8a 3c 77 eb 08 3e 0b 97 18 bd 3b e1 ee 3d
       0.016926164 0.13371073 -0.03725342 0.11664053
0001d0 ca a8 dc 3d fd 6d f0 bd 4c 7e 10 be fa 92 2a bb
       0.107743815 -0.117397286 -0.14110678 -0.0026027546
0001e0 cd 3f 23 3b 9c 7e 7a 3d 5b 49 45 3c db 12 81 3d
       0.0024909854 0.0611559 0.012041415 0.063024245
0001f0 4c 39 11 3e 2b 32 a0 3e bc 34 f6 3e b4 a1 e7 3e
       0.14182013 0.31288275 0.48087108 0.45240557
000200 37 ad cc 3e 66 87 b9 3d f8 2c af 3d b8 d6 36 3e
       0.39975902 0.09059028 0.08553499 0.17855346
000210 54 16 11 3e 1d 86 4b be c1 cc 9d be e0 d7 e4 be
       0.14168674 -0.19875379 -0.30820277 -0.4469595
000220 a9 ea 61 be b6 1a d3 be c3 11 60 be 19 87 68 bd
       -0.22062172 -0.41231316 -0.21881776 -0.056769464
000230 f5 53 61 c0 7f 02 df bc 0f c3 65 3c 96 13 2a be
       -3.5207493 -0.02722287 0.014023556 -0.16609034
000240 db b1 db 3d bd 3a 0f be 1d 78 aa be a4 b5 18 bd
       0.107272826 -0.1398725 -0.33294764 -0.0372826
000250 fa 93 c2 bd 14 ed 0c 3e b3 b4 04 3f 2b a3 36 bf
       -0.095008805 0.13762313 0.51838225 -0.71342725
000260 62 51 09 bb 8b af 0f be b1 11 5d 3e 63 c6 af 3d
       -0.002095305 -0.14031808 0.2158878 0.08582761
000270 b4 23 c7 3e db a0 a3 3e 68 26 12 3e 4e c0 2f 3e
       0.38894427 0.3195866 0.14272463 0.17163202
000280 d4 4e 2d 3d be 45 5c be ee 79 b0 bc ac 07 0a 3c
       0.042311504 -0.2151098 -0.021542516 0.008424681
000290 d9 93 bf be e2 cc e9 3d 63 a7 08 3c 3e 44 82 3e
       -0.37417486 0.114160314 0.008340689 0.2544269
0002a0 a1 69 a4 be 24 69 1e 3e a3 6d 65 bf a5 f6 0f 3f
       -0.32111838 0.15469795 -0.8962042 0.56235725
0002b0 a9 7b fd 3c 57 d1 ae 3e 27 9a d8 bc 88 c0 3e 3e
       0.030942755 0.3414409 -0.026440693 0.18628132
0002c0 98 ef 21 be 59 b7 ef bd 34 39 1c 3d 79 e1 19 be
       -0.15814054 -0.11704893 0.03814049 -0.15027417
0002d0 7c 74 3a bf 3f 24 5b bd f3 54 73 bb 1c f1 34 3d
       -0.7283399 -0.053501364 -0.003712949 0.044175252
0002e0 76 2c 40 bf 77 31 f4 3e cf e1 f2 3d 83 e6 32 3f
       -0.7506784 0.4769399 0.11859476 0.6988298
0002f0 a9 c9 40 3e 57 23 6e 3e 8a 12 a7 3e b1 e9 2b 3f
       0.18826927 0.23255669 0.32631332 0.6715346
000300 f0 8d ab bc df d7 4f 3e e5 bd 3d be 7f 2c fb be
       -0.020941705 0.20297192 -0.1852947 -0.49057385
000310 00 1a 15 bf 12 7a 9a be a3 e0 3a be 14 f5 ba be
       -0.582428 -0.30171257 -0.18249755 -0.36515105
000320 32 72 63 be a2 71 ea bd af 94 0e be f1 16 63 3e
       -0.22211531 -0.11447455 -0.13923906 0.2217672
000330 04 eb 2a 3e 3f 45 b1 3d 25 eb 1a be 7a 37 4c 3e
       0.16691214 0.08655786 -0.15128763 0.19943038
000340 c3 c2 d7 3c bc 10 ad ba b4 9a 60 bf fe 7e ea be
       0.026337987 -0.001320384 -0.8773606 -0.45800012
000350 89 ef 0f bd 1f ea 48 3d 7c f7 9e 3d 2d 58 8b bd
       -0.035140548 0.0490514 0.07762048 -0.068039276
000360 73 5b 8f bc 52 23 d7 bd a5 41 6b be 28 bc 91 be
       -0.017499661 -0.10504784 -0.2297426 -0.28463864
000370 08 c9 e9 3e c9 b2 0d be a1 1c df bd cf b7 a2 3c
       0.45661187 -0.13837732 -0.108941324 0.019863037
000380 9d 32 75 bc 3a fd 00 3e f2 7a cb be bb 1e 09 be
       -0.01496568 0.12596598 -0.39742237 -0.13390629
000390 da a1 87 bd 56 9d b7 bc 52 6b b9 be 98 95 81 3e
       -0.066226676 -0.02241389 -0.3621469 0.25309443
0003a0 08 f8 32 3c 83 fb bf 3d 60 aa da be 97 8a 0f 3e
       0.010923393 0.09374144 -0.4270811 0.14017712
0003b0 10 c8 b6 3e a6 43 a6 3d a6 0b 8d 3e bb 6b a5 3e
       0.3569951 0.08118372 0.2754795 0.32308754
0003c0 ab 89 6d 3f f0 ac 81 3e e5 fa c0 ba ea 68 0e be
       0.9278819 0.25327253 -0.001472321 -0.13907209
0003d0 a3 0b a1 3e f6 42 5a bd 93 26 da 3d 25 82 f6 3c
       0.3145419 -0.053286515 0.10651889 0.030091355
0003e0 64 15 46 3d ae d5 03 be c3 f6 cc bf 51 7d 7a 3c
       0.048360243 -0.12874481 -1.6012806 0.015288667
0003f0 7b 2a f8 bc 28 0b 83 be 67 4a 93 bd d4 d7 c4 bd
       -0.030293694 -0.2559445 -0.071919255 -0.096114784

hidden.0.bias f4 [64]
000000 6f 25 80 bd ab 0a 9f 3e f9 62 90 be ce 43 0c 3e
       -0.0625714 0.31062827 -0.2820051 0.1369774
000010 e2 81 23 be 4f f8 d6 3e a6 e5 81 bd 4b e3 8d 3e
       -0.15967515 0.4198632 -0.0634263 0.27712473
000020 d3 73 44 be d8 b2 6c 3e 5c 1c 12 be c4 8f 9e bd
       -0.19184808 0.23115098 -0.1426863 -0.07742265
000030 29 24 0b 3f 66 1f 1f bf 67 12 ca bd a5 f1 11 3e
       0.5435205 -0.62157285 -0.09866791 0.14252336
000040 a7 2d 73 3e 4c cf 16 be 59 c0 a0 3d 3e bd 85 be
       0.23747884 -0.14727515 0.078491874 -0.26120943
000050 ae 91 e4 3d 71 96 99 be 35 d8 8c 3d 6a d0 a6 3e
       0.11160599 -0.2999759 0.06877176 0.32580882
000060 8d 21 37 3e bd a1 ae 3d cf b6 88 3e 76 8c d4 3e
       0.17883892 0.08526943 0.26701972 0.41513413
000070 80 66 7f be 6a e6 d6 3e a9 ab ef 3e 60 3c 1b 3f
       -0.24941444 0.41972667 0.46810654 0.60639
000080 68 6c 04 bf 9c f5 91 3d 4a dd fe 3c 03 a4 b9 3e
       -0.51727915 0.071269244 0.031111378 0.36257944
000090 f1 d7 91 3e 30 8b 77 be 36 f7 22 be 2e be 6c be
       0.28485063 -0.2417419 -0.15914616 -0.23119423
0000a0 99 2d 41 3d f9 ae 92 3c 74 de 80 bf bb be 17 3f
       0.047162626 0.0179057 -1.0067887 0.59275407
0000b0 71 af e7 3e 45 ef cc 3e 7a c0 37 3d c4 d0 a0 3d
       0.4525104 0.40026298 0.044861294 0.07852319
0000c0 24 d7 18 3e 2e d6 a3 3e fa 97 5e be 3f 57 81 be
       0.1492582 0.31999344 -0.21737662 -0.25261876
0000d0 0c 91 d0 bd c2 c7 15 3e 8d 3d 14 be f9 6a e6 3d
       -0.101839155 0.14626983 -0.14476605 0.11250872
0000e0 a7 19 d9 3e 2d 43 c4 be 80 41 45 be 62 03 81 be
       0.42402384 -0.383325 -0.19263268 -0.25197893
0000f0 5c 81 aa bd f4 af 23 3e 41 75 58 3e f1 0b cb be
       -0.083254546 0.1598509 0.21138479 -0.39657548

hidden.1.weight f4 [64, 64]
000000 76 4e 46 3d 4d 3a 89 3d bb e6 eb 3d 6d c4 29 3e
       0.04841467 0.06700573 0.11518618 0.16578837
000010 51 4b cf bb 1d e0 dd bc 57 04 d8 3d 6e e2 48 bd
       -0.006326117 -0.027084405 0.10547703 -0.049044065
000020 00 50 de bd 4b 2b b2 be 5a a4 03 be 89 3b a9 bd
       -0.108551025 -0.34798655 -0.12855664 -0.082633086
000030 88 0c c3 be 01 de a5 3e a8 b2 5f be 95 85 b6 bc
       -0.38095498 0.32395938 -0.21845496 -0.022280494
000040 24 c4 a6 be af 4e 82 bd bc 96 3a be 55 9f be bd
       -0.32571518 -0.06362664 -0.18221563 -0.09307734
000050 7b e5 0c bd 6e 5a 1f be f1 3f d1 3c 30 29 f9 bd
       -0.034398537 -0.1556184 0.025543185 -0.12166059
000060 4c 29 1e 3d 49 36 88 bd 05 f2 0b be 1b 17 d0 bd
       0.038613603 -0.06650979 -0.13666542 -0.10160657
000070 11 ae 4d 3e 32 3e 6a 3c f1 82 39 be 17 52 aa be
       0.20085932 0.014297055 -0.18116356 -0.33265755
000080 f2 ab 63 3e 9e 11 a9 be d3 b9 2d bd a5 eb 5f be
       0.2223356 -0.33021253 -0.042413544 -0.21867235
000090 29 ac 50 be 95 5e 01 bd 64 72 9a 3e bc 2b ac 3e
       -0.20378174 -0.03158434 0.30165398 0.33627117
0000a0 dd 39 2c bb 49 54 24 3e 32 6a 5e bd 2e 3c c1 3d
       -0.0026279606 0.16047777 -0.054300494 0.094353065
0000b0 7c eb c3 bd a7 b8 09 be b1 9e 1b 3d f4 71 b1 3c
       -0.095663995 -0.13449346 0.037993137 0.021660782
0000c0 f8 54 37 bc f9 2c 8b be 09 0c c4 3e e1 5a 9c 3e
       -0.011189692 -0.2718275 0.38290432 0.30538085
0000d0 24 0c fe bc ac f0 13 3d 21 fd 9d bd d7 bf ee bd
       -0.031011648 0.036118194 -0.07714296 -0.11657684
0000e0 4e 1b af be 6b a7 15 3e e8 d1 89 3e d8 0f 3f be
       -0.3420052 0.14614646 0.26917958 -0.18658388
0000f0 92 aa 8c 3c aa 3a a7 be b1 ae 94 be c2 45 4e 3e
       0.017171178 -0.32661945 -0.2903953 0.20143798
000100 84 df cf be cb ac 3f 3e 73 12 10 bd 05 60 d1 3d
       -0.40600216 0.18718259 -0.035173845 0.102233924
000110 35 d1 08 3e e2 e0 35 3d 18 f0 0e be 09 7f ac 3d
       0.13361056 0.044403918 -0.13958776 0.084226675
000120 8c b1 3c 3d 99 19 80 be d8 99 11 bb 25 17 e0 3e
       0.04606776 -0.2501953 -0.0022216942 0.43767658
000130 f5 31 90 be f5 32 81 3e 2b 96 a3 bd 5f 11 d1 bd
       -0.28163114 0.2523419 -0.07987627 -0.102083914
000140 7f 4a 6c be 40 27 5a 3d df b8 0b 3d ea ec 85 3e
       -0.23075293 0.053260088 0.034111854 0.26157314
000150 82 db 91 be 46 5e 3b 3d 4b 7b b6 bd 68 a3 a9 bd
       -0.28487784 0.045744203 -0.08910235 -0.082831204
000160 b4 a8 4a 3e a1 12 86 bd ea d6 2f 3e 59 8d 11 be
       0.19790918 -0.06546522 0.17171827 -0.14214076
000170 17 78 8f bd f9 09 7b 3d 71 b2 f4 bd 63 3c 67 be
       -0.07005327 0.061288808 -0.119480975 -0.2258163
000180 57 11 fa 3d 56 9b e9 bd 6a bb 20 be 43 4e 2d be
       0.122103386 -0.11406581 -0.15696493 -0.16924386
000190 4a 1f d8 3d 38 17 62 3e f7 3f 1e 3e 7c 61 e5 3e
       0.10552843 0.2207917 0.15454088 0.44800937
0001a0 d3 53 1c be b3 a5 da bd 54 84 aa be 27 96 89 be
       -0.15266351 -0.10676136 -0.33304083 -0.2687237
0001b0 ee df 85 3d 17 b9 3b 3d ae 5e be 3d a1 e1 ae 3d
       0.06536852 0.045830812 0.092954025 0.08539129
0001c0 35 b7 29 be 36 0c 28 be 82 56 c7 bd f7 21 d5 3d
       -0.16573794 -0.16410908 -0.09733297 0.10406869
0001d0 7d 48 e4 bd 5b eb 1d 3d 21 2a 53 3d 81 50 44 be
       -0.111466385 0.03855453 0.05155385 -0.19171335
0001e0 a8 14 e0 be 22 80 5f 3e d5 44 8b 3d 7e e4 43 be
       -0.4376576 0.21826223 0.06800238 -0.19130132
0001f0 08 d1 85 3c 0f ae 07 bd 66 23 33 bd ef bd a2 3e
       0.016335025 -0.03312498 -0.04373493 0.31785533
000200 91 00 07 3c 84 ac 33 3b b2 10 22 be ad b6 01 be
       0.008239881 0.002741606 -0.15826681 -0.12667342
000210 4b f0 fb 3d ae d8 c4 bb 20 ad 98 3e 02 14 66 be
       0.123016916 -0.0060072755 0.29819584 -0.2246857
000220 4e f9 ad bd d9 0d b3 3e 37 60 69 3e 90 72 3a bd
       -0.08494817 0.34971502 0.2279061 -0.04551941
000230 06 a4 1b 39 ed c3 43 3e 30 78 b9 be 66 ac 23 3e
       0.00014843055 0.19117709 -0.36224508 0.15983734
000240 28 e9 be 3d 80 b1 09 be a9 b9 6d be e3 eb 40 be
       0.09321815 -0.13446617 -0.23215355 -0.18839984
000250 59 9d d1 bd 87 a7 54 be 64 ea d8 bc c5 4d a3 3d
       -0.1023509 -0.20767032 -0.026478954 0.07973818
000260 34 46 97 3d ad 95 40 be b1 d9 11 be ce c5 9d 3e
       0.07386437 -0.18807097 -0.14243199 0.30814976
000270 0d 91 3b bd 96 c3 54 be d0 b2 57 be 48 86 83 3e
       -0.045792628 -0.20777735 -0.21064305 0.25688386
000280 91 03 3e 3b f9 ac 50 3d e3 40 13 bb 2c 79 01 3e
       0.0028993825 0.05094621 -0.0022469095 0.1264388
000290 95 98 4a 3e 4e 3b 1b 3e 6f 1d 83 bd 17 06 80 be
       0.19784768 0.15159342 -0.064020984 -0.25004646
0002a0 ab 7d 6d 3c 8c 02 ba 3c 1c c7 48 3d 8b 64 0f 3c
       0.014495294 0.022706293 0.04901801 0.008751999
0002b0 e7 91 3d be aa 6a 29 be 5c 27 27 3d bd df 90 be
       -0.18512689 -0.16544595 0.04080902 -0.282957
0002c0 af 39 d9 bd 6f ef f0 3c ae 53 ef bd d9 d9 0e 3d
       -0.106067054 0.029411046 -0.116858825 0.034875724
0002d0 f7 3f bb 3b 33 c7 02 be f1 e4 d7 3d d6 ed e9 bd
       0.0057144123 -0.12771301 0.10541714 -0.11422317
0002e0 4a 67 26 3e 8a 02 a7 bd a4 69 eb 3d 05 8c 89 3d
       0.16250339 -0.08154781 0.11494759 0.0671616
0002f0 89 4e 2f 3d 42 db 06 bd 53 2e 29 be 8e 86 cd bd
       0.042799506 -0.032923944 -0.16521578 -0.1003543
000300 2f 9f 24 3e 4d 0c 0b bd d7 c8 a1 3d 92 60 1a 3d
       0.16076349 -0.033947278 0.07899635 0.037689753
000310 6c b3 4c be eb f8 10 3d bc 11 28 be b5 00 ec be
       -0.19990319 0.035393637 -0.16413015 -0.4609429
000320 03 fb 8f be 3d fd 2e be a5 1c ef be 99 53 da 3e
       -0.28121194 -0.1708879 -0.46701542 0.42641905
000330 db 38 c5 3d 8b 50 8a bd 62 65 4b 3f e3 ef d5 bd
       0.09629985 -0.067536436 0.7945157 -0.104461454
000340 7a f6 9c 3e 17 ae b1 3e 6c e0 53 3e 1d 48 be 3e
       0.30656797 0.34703133 0.20691079 0.37164393
000350 b5 52 8c bd 13 da af 3d ec 1a d2 be ca 8f bf 3d
       -0.068517126 0.08586516 -0.41036165 0.093535975
000360 8a 3d 52 bd d1 3d 97 3e 33 80 67 be bc 45 ce 3d
       -0.05132822 0.2953935 -0.22607498 0.100718945
000370 48 5f d1 3d ea de 3c 3e ba fb a2 3d 72 1a a4 bd
       0.102232516 0.1844441 0.07958169 -0.080128565
000380 cc c4 0d 3e ab ff 0a bd dd b5 95 be 48 00 a1 be
       0.13844603 -0.03393523 -0.29240313 -0.31445527
000390 06 cf 0b be f5 7b 00 3c c8 b8 42 3c 12 f2 c4 3b
       -0.13653192 0.007842054 0.011884876 0.0060103023
0003a0 a8 af 09 be 61 42 b5 3d 9d a9 b3 bd ee f3 0b bd
       -0.13445914 0.088505514 -0.087725855 -0.034168176
0003b0 dd 7e f0 3d 97 5d 4b 3e cc 11 52 3e 8e ab 18 3e
       0.11742947 0.1985992 0.20514601 0.14909193
0003c0 27 a7 35 bd c9 3e 7a 3e f8 00 6d 3e d9 3f be bd
       -0.044348862 0.24438013 0.23144901 -0.09289522
0003d0 9d e8 12 be ed 2a 75 3c fe a2 82 3e 77 e3 6d 3e
       -0.14346547 0.014963848 0.25514978 0.23231302
0003e0 39 45 ef bd 5d c2 76 3e 45 6c 5b 3d 19 57 65 3d
       -0.11683125 0.24097581 0.05357005 0.055991266
0003f0 82 2c 2a bd cc ca 88 3d 75 32 2e 3e 64 b1 1d be
       -0.041546352 0.066793054 0.17011435 -0.153997

hidden.1.bias f4 [64]
000000 91 71 b3 be 06 0e 9e be c8 68 6b 3c a9 ae f1 bd
       -0.35047582 -0.30870074 0.0143682435 -0.11800892
000010 62 fa 1d be a6 3f bb be ca 23 87 3e 9d c9 87 3e
       -0.15427545 -0.36571997 0.26394492 0.26521006
000020 c2 13 89 3d d4 20 b3 3d 70 24 61 3e 29 f1 8a 3d
       0.06693222 0.08746496 0.21986556 0.06784279
000030 0c 73 23 3e 03 d9 81 be 9c 41 82 bd 02 3d ac bd
       0.15961856 -0.2536088 -0.0636017 -0.08410074
000040 24 84 c3 be dc 13 5e bd bf 15 ae 3d c4 5c 0a be
       -0.38186753 -0.054218158 0.085002415 -0.1351195
000050 e7 73 4b 3e b2 d8 9b 3e f8 43 43 3e 14 b6 41 3e
       0.19868432 0.30438763 0.19068897 0.18917114
000060 a7 21 03 be f4 91 96 3e 9f 9f 8d be c5 98 0b bd
       -0.12805806 0.29408228 -0.27660844 -0.03408124
000070 fb 3f 52 3e 18 9c 95 be b9 72 1f bd 40 de eb bb
       0.20532219 -0.29220653 -0.038927767 -0.007198125
000080 03 d6 b2 be 33 88 ba 3e 7f 98 dd 3e 93 11 aa 3d
       -0.34928903 0.36432037 0.43280408 0.08304133
000090 e4 2a 88 bd 6a 98 50 3e b8 59 0d be ef 3f b9 be
       -0.06648806 0.20370641 -0.13803756 -0.3618159
0000a0 c9 06 09 3d 06 f9 8f 3e ed fa 6a 3d eb 2a 6c be
       0.033453736 0.28119677 0.057368208 -0.23063247
0000b0 6f 14 90 be f9 93 ae 3c ff 2c 68 bd bc 89 92 bd
       -0.2814059 0.021310793 -0.056683537 -0.07155177
0000c0 3b 0d fa 3d 56 ad f4 3d 7b 45 ed bd fc 16 3f bd
       0.12209555 0.11947124 -0.11585518 -0.04665278
0000d0 93 a8 03 be 9c 8d e8 bd 6e a8 56 be 38 6b af 3d
       -0.12857275 -0.11355135 -0.20962688 0.08565372
0000e0 4a fc 1f 3d 30 76 39 3e 25 b8 77 bc 7d 63 83 bd
       0.03905896 0.18111491 -0.015119587 -0.0641546
0000f0 b2 47 16 3d 69 ff 31 3c 63 ef a5 be 57 30 55 be
       0.036689468 0.010864117 -0.324092 -0.20819221

hidden.2.weight f4 [64, 64]
000000 af ca 60 3d 24 c4 8e be df 65 c4 bd e5 09 ea bd
       0.054880794 -0.27884018 -0.09589743 -0.114276685
000010 47 f4 10 be 75 85 a9 be b4 a2 3b be b7 7b 22 3f
       -0.14155684 -0.33109632 -0.18323785 0.63470024
000020 9d 30 f4 bd ca bb b5 3d 1d 6d 00 3f 9a 74 f7 3d
       -0.11923335 0.088737085 0.50166494 0.12082787
000030 59 ed c3 bc c5 b8 bf 3e c6 32 88 be 7c 1b 2a bd
       -0.023916887 0.37445655 -0.26601237 -0.041530117
000040 06 e5 8d be d1 49 8f be 52 fd 56 bd a7 3a 03 bd
       -0.27713794 -0.27986005 -0.05248768 -0.032038357
000050 07 86 4e be 6e bd 02 3e 99 15 60 3e 33 04 e8 bc
       -0.20168315 0.12767574 0.21883239 -0.028322315
000060 1d 04 20 be 7c c7 da 3e 56 31 a1 bc 5b 14 02 3e
       -0.15626569 0.4273032 -0.019676846 0.12703077
000070 99 63 05 be ec 31 95 be 6e f9 4b bd e4 c5 7d 3e
       -0.13026275 -0.2913965 -0.04979842 0.2478252
000080 71 52 07 be 2f 35 11 3e 8f 64 dd 3e 48 4a d0 3d
       -0.13215043 0.14180444 0.43240783 0.10170418
000090 ae 8e 27 3e b6 6a 4c 3c ac d4 a9 be bd a5 71 bd
       0.16363022 0.012476614 -0.33170068 -0.05899595
0000a0 50 cf 69 3e a8 ee cb 3e d1 d2 77 be 2e 8a 96 be
       0.2283299 0.39830518 -0.24201514 -0.29402298
0000b0 6c 34 c7 be 8b 2c 4e bc cb 27 a8 bd 7e ed d9 be
       -0.38907182 -0.012583862 -0.08210715 -0.42564005
0000c0 05 78 ba bd f4 79 8c bd f8 45 93 be 25 1a c9 3d
       -0.09104923 -0.06859198 -0.2876432 0.0981944
0000d0 a2 82 93 be da b9 51 3e 42 d9 9c be 5c 4b 00 3e
       -0.28810602 0.20481053 -0.30634505 0.12528747
0000e0 33 55 1f be f4 08 53 3e fd 51 98 3e 1a 4b ce bd
       -0.15559845 0.20608884 0.29750052 -0.10072918
0000f0 e1 4d dc 3e b0 f1 24 3c 07 a1 d6 be 88 fa 2f 3d
       0.43028167 0.010067388 -0.4191973 0.042963535
000100 eb 97 05 bf 63 cd 8d be 40 d3 22 bd 51 84 08 3e
       -0.52184933 -0.2769576 -0.039752245 0.13331725
000110 24 68 1f be d6 3e 90 be 30 5f 39 3e c3 7d d8 3d
       -0.1556707 -0.2817294 0.18102717 0.10570862
000120 70 a2 73 3d 54 f3 e3 3d a7 b6 fc bd ba dd ff 3d
       0.059481084 0.111303955 -0.12339526 0.12493463
000130 53 a6 5c be 3d 82 87 3d 2a 80 a6 3c 73 1f 61 bc
       -0.21547823 0.06616638 0.020324785 -0.013740408
000140 85 06 c9 be c9 7b 0a bd a5 15 ad bd bc 7a b4 3d
       -0.39262787 -0.033809457 -0.08451394 0.08812472
000150 79 2f 6c 3d f8 f6 4c 3e 37 51 43 3e 01 12 06 3e
       0.05766246 0.20016086 0.1907395 0.13092805
000160 28 d8 fa bc 51 42 ce 3d c3 7a a9 3d b4 85 79 3d
       -0.03062065 0.100712426 0.08275368 0.060918525
000170 98 91 59 3e fb af 02 bf 48 84 89 bc fb 6f 89 3c
       0.21246946 -0.51049775 -0.01678671 0.01677703
000180 25 7d 01 3e 62 da 01 3d ad c0 f5 3d 27 c7 02 be
       0.12645395 0.031702407 0.119996406 -0.12771283
000190 7e 0b 75 bd dd f7 98 bd 45 08 e0 bd 20 da 6d be
       -0.059825413 -0.07469151 -0.10939077 -0.2322774
0001a0 3c 2a 82 3e 08 1e 1b 3e b5 cd 05 3e 92 7e e0 bd
       0.25422847 0.15148175 0.13066752 -0.10961641
0001b0 69 da 61 be a0 7a 8d bd e9 4e 64 3d 26 5d ca bd
       -0.22055973 -0.069081545 0.055739317 -0.09881048
0001c0 95 72 6f 3e cc 8d 8a 3e 35 a9 82 be ba 92 c7 bd
       0.23383553 0.27061307 -0.2551972 -0.09744783
0001d0 2a a5 64 be dc e2 5b 3d 33 d7 d6 bd 98 39 f4 3b
       -0.2232863 0.053683147 -0.10490265 0.007453155
0001e0 20 bc dd bc 1c 01 91 3e 08 35 50 be 23 63 b6 bd
       -0.027067244 0.2832116 -0.2033273 -0.089056276
0001f0 c4 77 8f 3e cc 65 de bc 6e 2a 86 be d9 1b 0d be
       0.2802106 -0.02714815 -0.26204246 -0.13780154
000200 85 65 49 be 6e ff 46 be 31 0d fe 3d 0f 6e 51 be
       -0.19667633 -0.19433376 0.1240486 -0.2045214
000210 1d 21 63 3d 2a e5 a4 bd 67 94 71 be 9c 5e 73 3d
       0.0554515 -0.08051522 -0.23591767 0.0594164
000220 da b0 0e 3d d6 9d d1 3d 4c 39 bd 3e 95 02 43 3c
       0.034836628 0.10235183 0.36957777 0.011902471
000230 55 4f 52 3e 8c ce 22 3e 42 d8 14 3c f5 3b 9e 3d
       0.20538075 0.15899104 0.009084763 0.0772628
000240 71 c0 57 3d ab d6 19 3d 54 5b 83 bd 76 e5 6b 3d
       0.05267376 0.03755824 -0.06413904 0.057591878
000250 49 4e 45 be 65 32 93 3d 0f bc 44 3d e4 e8 c6 3c
       -0.19268145 0.07187346 0.04803091 0.024280973
000260 49 49 8f 3d 6b 6e 3b 3e 75 57 d2 ba 9c f0 b6 3c
       0.069964 0.1830384 -0.0016047793 0.022331528
000270 99 32 4f ba 8b 27 e8 bd e0 43 25 be 2d 99 16 be
       -0.0007903963 -0.11335667 -0.16139174 -0.1470687
000280 63 65 e1 3d 06 47 07 be 12 40 a7 3c 39 1b ce 3e
       0.11005666 -0.13210687 0.020416293 0.40255144
000290 d8 7e c5 3d 4f df 9e ba b0 e6 5e be 75 70 27 be
       0.09643334 -0.0012120995 -0.21767688 -0.16351493
0002a0 14 92 05 3e 79 2f 56 3e e4 8e a4 be 51 06 68 bb
       0.13044006 0.20916547 -0.32140267 -0.0035404155
0002b0 cf a5 99 bd af ec 57 be 40 6f c6 bd e8 5f 88 bd
       -0.075023286 -0.21086381 -0.09689188 -0.06658918
0002c0 0b e9 1c 3e 58 f8 4f 3e f0 99 29 be 20 a8 24 bd
       0.15323274 0.2030958 -0.16562629 -0.0401994
0002d0 67 c6 bd be 2a d1 f4 bd 7e c7 0d bd e9 bf 69 3e
       -0.3706543 -0.119539574 -0.03461408 0.22827114
0002e0 b5 91 00 bc 59 0c 39 3e 35 6b 8f 3e 28 88 e7 3d
       -0.007847239 0.18071117 0.2801148 0.113052666
0002f0 e4 93 a4 3e 87 85 76 3b 5c a2 f2 bd f9 ca ac be
       0.32144082 0.003761621 -0.11847374 -0.33748606
000300 1e 25 5d 3e 3b e5 de bd ae a6 32 be 4c b1 95 3d
       0.2159619 -0.10883566 -0.17446396 0.07309207
000310 ce 89 99 be 27 be 46 3d a6 ad 17 3e b3 67 8b be
       -0.2998795 0.048521187 0.14812335 -0.27227554
000320 6f d3 22 be e0 6d 7c bc db 74 c6 be aa 81 c0 bc
       -0.15900968 -0.015407056 -0.3876103 -0.023499329
000330 7d 5e b4 be 74 e2 ee bd be e9 2c bd d3 af 24 3d
       -0.3522834 -0.11664286 -0.0422151 0.04020674
000340 9e 64 11 3e f5 b0 4b 3e 38 78 d9 3d ea 5e 9e bd
       0.14198539 0.19891723 0.10618633 -0.07732947
000350 2a 7c 9e bd 52 4e 13 bc a8 fa 9d bd 42 63 40 3d
       -0.07738526 -0.008990841 -0.077138245 0.04696966
000360 c5 70 e0 3d 92 67 51 3d d5 8f a1 be 05 46 ee be
       0.10959009 0.051124163 -0.31555048 -0.46537796
000370 28 30 ac 3d b9 ea b2 bb ef b5 88 3e 2c 61 c3 3c
       0.084076226 -0.00546011 0.26701304 0.023850046
000380 06 c3 6e be ff b9 b4 bd 93 1a 9c 3d a5 c0 c3 bc
       -0.23316583 -0.088245384 0.07622256 -0.023895571
000390 0a bf bc 3d a5 a8 40 bd 74 48 4b 3e af e0 5a 3e
       0.09216125 -0.047035832 0.19851857 0.21374772
0003a0 f8 5e 6d 3d 94 7f 73 3b 03 1b 65 3e a8 6b 33 be
       0.057951897 0.00371549 0.22373585 -0.17521536
0003b0 00 c8 4b 3d e4 61 ec 3e e5 c4 27 be f9 5e 85 3d
       0.04975128 0.46168435 -0.16383703 0.06512255
0003c0 2c 3b 13 3d 64 63 43 bd 77 a2 38 3e 9a 4d 9d 3e
       0.035945103 -0.04770221 0.18030725 0.30723268
0003d0 d9 2c d6 3d 88 af df 3d 9a c4 7e bd f1 c7 dd bd
       0.10457773 0.10922152 -0.062199213 -0.108291514
0003e0 b0 67 3e bd b0 8b a1 be 33 4d 8f 3d 00 d4 91 3d
       -0.046485603 -0.31551886 0.069971465 0.07120514
0003f0 fc e7 76 be 5e b5 62 be 08 07 5c 3e 40 21 a7 3d
       -0.24111933 -0.22139499 0.21487057 0.08160639

hidden.2.bias f4 [64]
000000 5c de 1f 3e 33 53 b9 3e f8 44 70 3e 09 4d 10 be
       0.15612167 0.36196288 0.2346381 -0.14091887
000010 e0 51 f7 bd 7f b0 92 bd 0b ec f3 bc 01 a6 d9 bd
       -0.12076163 -0.0716257 -0.02977564 -0.10627366
000020 e8 f5 6b be 4b 34 90 3e 31 98 a8 3e c5 24 5e 3d
       -0.23043025 0.28164896 0.32928613 0.054234285
000030 ba c5 de 3e 54 ea 01 3e 98 4a 50 be cc 71 d5 3d
       0.43510228 0.12687045 -0.20340955 0.10422096
000040 a9 79 b2 bb 45 d1 78 be d1 77 2f be 3e 69 88 be
       -0.005446632 -0.2429858 -0.1713555 -0.26642793
000050 86 36 82 be d2 13 58 3e 0d 07 9e 3d 27 08 65 bd
       -0.25432223 0.21101311 0.077161886 -0.055915978
000060 9e 51 9c be 84 9e 44 3d 91 92 ad 3e 12 3c be 3e
       -0.3053102 0.048002735 0.33900884 0.37155205
000070 89 02 f7 3d bb 99 47 bd cf a5 f6 bd 2e 66 e2 3d
       0.120610304 -0.048730593 -0.12043344 0.110546455
000080 ff 9f 76 3e 0a 08 3f be 7f c6 b1 bd 7e cf 91 be
       0.24084471 -0.1865541 -0.08680438 -0.28478616
000090 76 41 ac be 21 9a 55 bd 71 68 84 3d cf 90 40 be
       -0.33643693 -0.052148942 0.06465233 -0.1880524
0000a0 50 ac 02 3d 15 74 f0 3d 27 fc 38 3d ff 79 36 3e
       0.03190261 0.11740891 0.045162346 0.17819975
0000b0 e6 af 2b 3d 6e 06 4c bc 74 3a c4 3d 93 50 3b 3e
       0.041915797 -0.012452705 0.095814615 0.18292455
0000c0 72 5b cf bd 16 6d bb 3e 24 85 cd 3d f5 6e d7 3e
       -0.10124864 0.36606663 0.1003516 0.4207684
0000d0 0a 89 b3 be ad ec cf 3c 89 00 bb 3e db be b9 be
       -0.3506549 0.02538141 0.36523846 -0.36278424
0000e0 f3 c0 66 3d 55 24 20 3e 1e af 23 be b9 28 a1 be
       0.056336354 0.1563886 -0.1598477 -0.3147638
0000f0 1b 58 39 be 6a d0 71 3d 50 2e 36 3e b6 dc 91 be
       -0.18100016 0.05903665 0.17791104 -0.28488702

hidden.3.weight f4 [64, 64]
000000 10 20 65 3e b9 00 78 3e 13 46 13 3e 85 fd a8 be
       0.22375512 0.24219026 0.143822 -0.3300592
000010 b2 47 c7 3d a5 9d a8 be 07 33 46 be 2b 28 19 3c
       0.09730472 -0.32932773 -0.19355403 0.009347956
000020 bc 89 e7 bd 08 b2 c6 3e 43 83 26 3c 50 e7 0d 3e
       -0.113055676 0.38807702 0.010163131 0.1385777
000030 17 c4 c7 3e 68 8c 82 3e c2 48 bf be 1b f1 23 3e
       0.39016792 0.25497746 -0.37360197 0.16009943
000040 dd 33 be be a7 f0 38 bd 30 c4 87 bc 41 7b 87 be
       -0.37148944 -0.04515138 -0.016573042 -0.26461223
000050 7f 93 a0 be 3a ff 13 be 4c 77 98 3d 6f f3 6f 3e
       -0.3136253 -0.1445283 0.07444629 0.23432706
000060 35 66 3d be 5d cd 64 3e 4b cb 04 3f ed 7e 0c 3f
       -0.1849602 0.22343965 0.518727 0.54881173
000070 11 5a 7e 3d 5f 40 a5 3d 18 fb e7 3d 5e 5a b4 be
       0.062097613 0.080689184 0.11327189 -0.35225195
000080 67 93 5c 3e 26 84 b3 be 99 13 70 be 03 ad aa 3d
       0.21540605 -0.3506176 -0.23444976 0.083337806
000090 83 bd 08 be cf 91 02 3e cc aa c5 bd 8b 47 99 3d
       -0.13353543 0.12750934 -0.096517175 0.07484349
0000a0 de 6e 58 bd 52 66 f4 3d b4 7f cc 3d bd 7f 86 3c
       -0.052840106 0.119335786 0.09985295 0.016418332
0000b0 40 a8 31 3d 13 e5 66 be 25 b1 5b 3d 01 c0 a4 3e
       0.043373346 -0.22548322 0.053635735 0.32177737
0000c0 92 a6 8f bc 1e 53 92 3e ee a9 16 3e 3a 8d 8d 3e
       -0.017535482 0.28579038 0.1471326 0.2764681
0000d0 78 70 d6 be 43 94 bd 3e 1c 8b 62 3e 50 86 51 be
       -0.41882682 0.37027177 0.22123379 -0.20461392
0000e0 2a c7 f7 3e d4 e4 be 3e 42 4b c7 be 93 23 d4 be
       0.48394138 0.37283957 -0.38924605 -0.4143339
0000f0 92 03 5f 3e 72 d2 a5 3e 88 7a 18 3e 15 0d 85 be
       0.21778706 0.3238712 0.14890492 -0.25986543
000100 b2 50 df 3e 1a 0a 0e 3e 25 c7 7e 3e 47 2f d8 be
       0.43616253 0.13871041 0.24880655 -0.4222357
000110 ce 7c 1b 3e 00 dd 83 3e 55 11 4a bd ce 21 a6 3e
       0.15184328 0.25754547 -0.049332935 0.32447666
000120 f6 c8 69 3e 4b de e8 3e a0 ba 86 3e 92 5a 80 3c
       0.22830567 0.45482096 0.2631426 0.015668187
000130 5a 9a d0 bd cb c4 b8 3d 8e ee 47 bd 5c 6c 93 3e
       -0.1018569 0.0902191 -0.048811488 0.2879361
000140 a5 eb 8d be 68 13 11 be bc 1c dc bd 85 eb d7 3d
       -0.27718845 -0.14167559 -0.10747668 0.10542969
000150 43 18 e5 3c 8c 2b ca 3e b1 95 3e 3d 77 49 0d bd
       0.02796567 0.3948635 0.046529476 -0.03449389
000160 af 08 96 3e 2f 89 76 be 93 27 96 bd 1d 67 35 bc
       0.293035 -0.24075769 -0.07331767 -0.011071947
000170 2c 8e 03 be e5 da 3e be e4 4f d9 3d 75 53 a4 bd
       -0.12847203 -0.18638189 0.10610941 -0.08023731
000180 1b 2e 83 be 69 d6 78 3e 79 49 60 bc f6 e1 05 be
       -0.25621113 0.24300541 -0.013689392 -0.13074479
000190 31 7b 36 3e 3e 27 5d 3e 32 28 d6 bd ef 11 22 3e
       0.17820431 0.21597001 -0.104568854 0.15827154
0001a0 b2 ef 14 bf 42 8d 58 be e2 06 a1 3e ed 7a a7 3d
       -0.58178246 -0.21147636 0.31450564 0.08177743
0001b0 5f cb c2 3d 90 a9 88 39 f5 4f dc bc 04 1c 5e 3e
       0.09511446 0.00026066275 -0.026893595 0.21690375
0001c0 26 79 9c be da 56 c7 3d 5f dd c0 be 06 ce a8 3d
       -0.3056118 0.097333625 -0.37668893 0.08242421
0001d0 85 ab 5d be 80 a7 52 be d3 b8 8a 3e 86 77 bf 3e
       -0.21647461 -0.20571709 0.27094135 0.37395877
0001e0 58 19 0a 3e d0 b5 15 bd 43 e0 69 3e 87 b2 85 3d
       0.1348623 -0.036550343 0.22839455 0.06528192
0001f0 f3 f7 84 3e fa d9 f5 3d 23 7c 05 bd c8 f2 c2 3d
       0.2597042 0.12004466 -0.03258909 0.09518963
000200 7d 9a 90 be 86 5f 8b be 0b 74 20 be 75 7d 40 bc
       -0.28242865 -0.27221316 -0.15669267 -0.011748661
000210 6d 18 3e bd 4f 0c 8c be e0 61 0f 3f 67 6f fd bd
       -0.046410013 -0.2735314 0.5600872 -0.12374764
000220 77 93 ca 3e 88 bc 87 be 29 a7 38 be a1 b4 ac 3d
       0.39565632 -0.26511025 -0.18032517 0.0843289
000230 d8 d6 46 be 75 02 25 be 3d b4 fd bd 80 31 60 be
       -0.19417894 -0.16114219 -0.12387893 -0.21893883
000240 e7 e0 52 be a7 0b 05 3f 3e ce e2 bd 8e 5d 16 be
       -0.20593606 0.51970905 -0.11074494 -0.14684126
000250 9b 22 87 be 0e 11 85 bf cc e4 a3 bd f3 c2 b1 3e
       -0.2639359 -1.039583 -0.08002624 0.34719047
000260 93 84 8a 3e b0 5d 5a bc f1 ea ce 3d ba f3 04 3e
       0.2705427 -0.013328001 0.10103405 0.129836
000270 aa ce 1d bb 73 3a d4 3c b8 5d 12 3e 1a ba 67 bd
       -0.002407948 0.025906777 0.14293563 -0.056573965
000280 19 17 8a 3e c8 1b 98 be 91 8d 5d bf 0f d6 8a 3d
       0.26970747 -0.29708695 -0.8654414 0.0677911
000290 80 06 ab 3e 3d ba b2 be d7 25 78 be 77 9f 8c bd
       0.33403397 -0.34907714 -0.24233185 -0.06866353
0002a0 09 e6 bb 3d 6b af 46 3f 35 5c 8c be e1 09 b4 be
       0.09174735 0.77611417 -0.27414098 -0.35163787
0002b0 80 c8 df 3e 0f 09 aa be f3 70 27 be fb 1e cf be
       0.43707657 -0.33210036 -0.1635168 -0.40453324
0002c0 79 61 12 3e d0 a5 8b 3e 78 d0 96 3f 10 7a 00 3e
       0.14294995 0.27274942 1.178237 0.12546563
0002d0 15 a5 d1 bd cc a8 a7 3e d7 bf 9d bd 7c d3 a5 3e
       -0.10236565 0.3274597 -0.07702606 0.32387912
0002e0 5c 3d 51 3d a0 6d db 3e 90 37 1b be 47 a8 1c be
       0.051083907 0.42857075 -0.15157914 -0.15298568
0002f0 ce 37 69 be 8c 07 11 bc 89 0f 99 3d f9 55 9f 3e
       -0.22775194 -0.008851897 0.07473666 0.3112028
000300 d1 85 80 3e 98 eb c6 bd 02 2e 10 bd d3 98 85 be
       0.25102094 -0.09712905 -0.035200126 -0.26093158
000310 ec d8 8c 3e fe 83 da bd 3c 6b e8 3d f9 ca 87 3e
       0.27509248 -0.10669707 0.11348578 0.26522043
000320 4e 30 22 3e 68 42 ae 3e dd cd a6 be e9 fd 64 bd
       0.1583874 0.3403504 -0.32578936 -0.05590621
000330 05 05 8c be bb d3 0a be 48 f4 20 bd 45 0e 94 bd
       -0.2734758 -0.13557331 -0.039295465 -0.07229284
000340 70 74 cd be 02 23 7b 3e 36 0b e0 be ff 82 a3 3e
       -0.40127897 0.24525073 -0.43758553 0.3193588
000350 0e 58 95 be b4 12 fe be ec 70 e5 bb e6 fc 3a bd
       -0.29168743 -0.49623644 -0.0070019867 -0.04565134
000360 95 49 0b 3e 83 f7 18 bf 31 4f 26 3e f6 0f 1d bd
       0.13602288 -0.5975267 0.16241147 -0.0383453
000370 65 4e 03 be 48 5c 2c be 6a 5a 00 3f cb 75 a9 be
       -0.12822874 -0.16832078 0.5013796 -0.3309768
000380 3e f4 95 bd d8 8a 58 be d3 67 49 bf 0a 6e 6b 3e
       -0.07321976 -0.21146715 -0.7867405 0.22991195
000390 d5 bb 93 3e 69 30 1f 3e a9 ee 9d bd 69 3f 87 3e
       0.28854242 0.15545811 -0.077115364 0.26415566
0003a0 16 f1 71 be a5 ef c8 bd ea 90 9f 3d a8 f1 0d bf
       -0.23627123 -0.098113336 0.07791312 -0.55446863
0003b0 c5 bc d3 3e bc b7 6f 3d 87 1e 09 3f 1a 62 c7 bd
       0.41354957 0.058524832 0.53562206 -0.09735508
0003c0 1a 6a e6 bd 3d a9 f7 3d 07 c2 03 3f 4b 3f 05 3e
       -0.11250706 0.120928265 0.5146794 0.13012426
0003d0 88 5b f5 bd 52 26 fa bb f1 15 b3 be f6 47 f9 3e
       -0.11980349 -0.0076339627 -0.34977677 0.48687714
0003e0 41 5e 77 3d 49 51 a4 3e b7 36 0a bd fd ff 15 3e
       0.060392622 0.32093266 -0.033743586 0.14648433
0003f0 55 8d db 3e 25 cf 28 3e a3 74 d4 bd 41 92 d4 bd
       0.42881265 0.1648527 -0.10373809 -0.10379458

hidden.3.bias f4 [64]
000000 23 68 d1 3e 63 d4 d1 bd 39 a9 5d 3e c5 9e b7 3d
       0.40899763 -0.10245588 0.21646585 0.0896583
000010 22 16 8f 3e 8d 34 4a be 73 3e 35 be 75 dc bf 3d
       0.27946573 -0.19746609 -0.17699604 0.09368221
000020 94 a8 6a 3d a1 9a 60 be e4 e1 90 bd 2a d1 9c be
       0.057289675 -0.21933986 -0.07074335 -0.3062833
000030 2d 51 41 be 0b 58 12 be 33 b7 22 3e 0f 80 69 3e
       -0.18878622 -0.14291398 0.15890197 0.22802757
000040 6e c7 a1 be 6a 49 ac 3e 4d 3e 95 be 3c 80 b7 bc
       -0.31597465 0.3364976 -0.29149094 -0.022400014
000050 be fb d0 3c 4a b7 98 be a3 24 7c be 1e c5 7a 3d
       0.025510665 -0.29827338 -0.24623351 0.06122314
000060 cd 29 42 be fb c4 8b 3e 23 83 12 be b5 47 f5 3e
       -0.18961258 0.27298722 -0.14307837 0.4790627
000070 be a6 fb bc aa 9f c6 bd 96 b0 bc bd 39 ef 88 3e
       -0.030719157 -0.09698422 -0.092133686 0.26745012
000080 29 12 1e 3d 63 2c 20 3e 3b e2 1a bc 29 f9 b8 bd
       0.038591538 0.15641932 -0.009453352 -0.090318985
000090 9a 49 c2 3d d6 51 54 be dd 37 67 3c e7 8f 12 be
       0.09486695 -0.20734343 0.01411244 -0.14312707
0000a0 98 11 1e 3e 7f 3a b4 bd a1 22 8c bd b2 bb 74 3d
       0.15436399 -0.0880022 -0.068425424 0.059749313
0000b0 ea 56 81 bd d1 55 c1 3e 8e 1d 17 3e 72 2e 36 be
       -0.06315406 0.37760785 0.14757368 -0.17791155
0000c0 a8 14 34 be b4 63 9c 3e a6 fe db bd 82 32 81 3e
       -0.17586005 0.30544817 -0.1074193 0.25233847
0000d0 95 ef 91 be 75 44 99 3e 1e be f5 bd 25 52 60 bd
       -0.285031 0.2993504 -0.119991526 -0.05476584
0000e0 9b 2b df 3e 42 c5 f2 bd 6d e5 1b be 4a 0b b1 3d
       0.43587956 -0.1185403 -0.15224238 0.08644731
0000f0 7a 9a 4e be d6 1d 82 bd 48 c4 88 3e 76 f1 10 3d
       -0.20176116 -0.06353347 0.2671225 0.035386525

hidden.4.weight f4 [64, 64]
000000 ba 8d 8c bc 1f a6 4f bd 19 96 e9 3c 29 da 57 bd
       -0.017157424 -0.050695535 0.028513955 -0.052698288
000010 a3 57 83 3d df e0 88 3d af f5 06 3e b4 ae ea 3c
       0.064132 0.06683516 0.13179658 0.028647758
000020 69 10 d5 3c 26 4c 9d 3d 47 a8 21 be 6b da f3 3c
       0.026008802 0.0768054 -0.15786849 0.029767236
000030 df 46 83 3d 85 28 93 3c 23 1b ee 3d d8 0f b2 bd
       0.06410002 0.017963657 0.1162627 -0.08694428
000040 c9 87 9b 3d 7f 4d 0b be 07 31 44 3e df e3 13 be
       0.07594258 -0.13603781 0.19159327 -0.14442395
000050 70 e8 fc 3c b5 e8 5e bd b4 8e 6b 3e 62 86 04 3e
       0.030872554 -0.054421145 0.23003656 0.12941888
000060 79 a7 5c 3e 43 dd 0f 3e 7c 53 ed 3c 03 12 0b 3e
       0.21548261 0.14049248 0.028970473 0.1358109
000070 a3 5d 20 3e 06 40 f5 3d 79 ad 81 3d 0c 96 00 be
       0.1566072 0.11975102 0.063319154 -0.12557238
000080 21 73 12 be 05 f8 0e be 53 7b c4 3d 81 74 14 be
       -0.1430173 -0.139618 0.09593835 -0.14497568
000090 09 46 6b 3e 62 75 5c 3d 25 df 42 3d 08 78 6d bd
       0.22975935 0.053822882 0.04757609 -0.0579758
0000a0 c3 35 eb bd b1 ec 80 3d 7c 2e 92 bd e7 6b 29 bd
       -0.114848636 0.06295145 -0.071377724 -0.04136267
0000b0 7e 0c 0a 3e 18 56 d5 3d b0 da 6b 3e 04 29 b1 bd
       0.13481328 0.10416812 0.23032641 -0.08650401
0000c0 d3 61 53 be 2d f4 3b bd bf 89 b6 3d 10 79 48 bd
       -0.20642786 -0.04588716 0.08912992 -0.04894358
0000d0 1d af 67 3e 03 25 22 be 96 9e 16 3e 97 8a 92 bd
       0.22625394 -0.15834431 0.14708933 -0.0715534
0000e0 f1 cf e0 bd 90 60 24 3d c3 50 bf bb 21 27 96 be
       -0.10977162 0.04013115 -0.005838485 -0.29326728
0000f0 8e fb d8 bd 3a 00 de 3d 0e 03 90 3d 2e ff 0d 3e
       -0.10594855 0.10839887 0.07031833 0.13866875
000100 bf 16 24 be 85 71 1b 3d 59 e3 6c be cf ec f0 3b
       -0.16024302 0.037950058 -0.23133601 0.0073524485
000110 ab 9f 1c 3e 72 fa 73 3a 79 a3 8a 3d ea b0 0a 3d
       0.15295283 0.00093070336 0.06769461 0.033860125
000120 3f ad 76 3e cd 84 86 3d e1 c3 84 3d 79 65 01 be
       0.24089526 0.065682985 0.064826734 -0.12636365
000130 4d 57 0d bd 44 48 bf 3d 2f 1c 10 3e 7f 4c ef 3d
       -0.034507085 0.093399554 0.14073251 0.11684512
000140 85 0e a8 bc c3 b8 da bd f7 45 a8 3d ca fd 89 3e
       -0.020514736 -0.10679772 0.0821647 0.26951438
000150 54 9c ad 3d 7a a4 e1 bd 5a 76 12 3e 8e 45 45 3d
       0.08477083 -0.110176995 0.1430296 0.048162036
000160 2e aa 12 3e d9 aa d6 bd 11 59 51 be 87 54 32 bd
       0.14322731 -0.10481805 -0.20444132 -0.043537643
000170 5b 87 31 3e 1a 3c 4b 3d 58 39 0b 3e 0b 04 15 3d
       0.1733679 0.049617864 0.13596094 0.03638081
000180 1b 42 a1 bd e3 56 40 3e 1e 70 83 be 74 36 20 be
       -0.07873937 0.18783145 -0.25671476 -0.15645772
000190 2c 16 4f bd c0 b0 62 be 47 a1 2d 3e b5 db 33 be
       -0.050558254 -0.22137737 0.16956054 -0.1756428
0001a0 e4 9d 95 bd f9 18 a1 3d eb 61 1d bd 2c ac 01 3e
       -0.07305506 0.07866091 -0.03842346 0.12663335
0001b0 e1 9c f6 bd 5c 89 2f 3d c7 65 a7 3c a0 66 23 be
       -0.12041641 0.042855605 0.020434273 -0.15957117
0001c0 65 5a 22 3e 4d f8 24 3e eb 17 be 3d a5 ab 5d 3e
       0.15854795 0.16110344 0.09281906 0.21647508
0001d0 8c 1c 63 bd 68 c2 a8 bd e7 c5 b5 3d bf 97 80 be
       -0.055447146 -0.08240205 0.088756375 -0.25115773
0001e0 93 bb be bd 91 54 04 be a7 c5 b0 3d ad 2b 10 bd
       -0.09313121 -0.12922885 0.08631449 -0.035197902
0001f0 82 81 28 3e 21 a9 68 3e 37 13 b1 ba 58 5b e3 3d
       0.16455653 0.22720768 -0.0013509755 0.11101407
000200 a1 43 db 3d c5 f6 92 3d ac 3b ea 3d f7 f1 f6 3d
       0.107062586 0.07175974 0.11437163 0.1205787
000210 b1 60 f2 3d cd 58 bf 3c 62 49 ac 3d 7d e4 14 bd
       0.11834849 0.023357773 0.08412434 -0.036350716
000220 63 e6 46 3e 63 78 84 bd 92 f2 b8 bd 58 09 6c be
       0.19423823 -0.064682744 -0.090306416 -0.2305044
000230 56 31 9f bd d3 ae 6b bd 73 c7 41 3d 14 1e a5 bd
       -0.07773082 -0.057539772 0.04730935 -0.080623776
000240 03 51 8b 3e 0a 12 ad bc d6 10 55 3e ab 38 be 3d
       0.27210245 -0.021126766 0.20807204 0.09288152
000250 be b4 d4 bd 45 52 14 be e8 a2 e9 bc 1b f9 8d bd
       -0.10386036 -0.14484508 -0.028520063 -0.06932279
000260 51 a1 f5 3c 52 80 20 bd 1a 75 c2 bd 3f 79 e1 3d
       0.029984148 -0.039184876 -0.094949916 0.11009454
000270 b5 fc 32 3e 8f 99 a9 3d 85 ef 3f bd 56 fa c0 bd
       0.17479213 0.08281242 -0.046859283 -0.09422748
000280 12 b3 80 bd 94 26 94 3d d8 2c 05 3e 8f 88 88 3e
       -0.06284155 0.07233921 0.13005388 0.26666686
000290 e2 ce 83 bd 07 5e c7 3d b1 db 4f be 4e b8 85 3d
       -0.06435944 0.09734731 -0.2029865 0.06529294
0002a0 0b 26 4c 3e 0b df 27 bc 35 1e 97 bd dc 6d 55 be
       0.19936387 -0.010246049 -0.073788084 -0.2084269
0002b0 5d 92 0f be e3 c5 a9 bd bc 09 5a 3e 16 51 a8 be
       -0.14020677 -0.08289697 0.21292776 -0.32874364
0002c0 95 50 73 3e f2 8d 5b be 0c 1b 51 bd f8 a4 04 be
       0.23761208 -0.21440867 -0.051051185 -0.12953556
0002d0 73 18 6e be 0b f7 f7 bd e9 12 9a bd 13 95 97 3d
       -0.23251514 -0.121076666 -0.07523138 0.074014805
0002e0 92 a6 f3 bc 5a 7d 52 3c d1 74 1e be a8 7d 7d 3d
       -0.029742513 0.012847269 -0.1547425 0.061887413
0002f0 36 6c 77 3e 32 1c c4 3d 88 93 26 3e 47 74 e7 bd
       0.24162373 0.0957569 0.16267216 -0.11301475
000300 ce b7 e8 3b b3 8b 58 3d 99 44 43 be 9a de 0a 3d
       0.0071019894 0.052867603 -0.19069137 0.033903696
000310 3c 0e d1 3d 16 44 90 3e db 51 a5 bd 31 e2 74 3e
       0.10207793 0.28176945 -0.08072253 0.2391441
000320 8c 59 90 3c 7f 58 a2 bc a0 87 1f 3e 52 7c 07 3e
       0.017620824 -0.019817589 0.1557908 0.13231018
000330 89 31 16 be ff 52 31 bd fd 7c b6 3e 34 04 2f 3d
       -0.14667334 -0.043292042 0.35642233 0.042728618
000340 72 2c ac bd 89 d3 15 3d b7 0c c8 bc 88 ee 07 bd
       -0.08406915 0.03657869 -0.024420125 -0.033186466
000350 0e 51 2d 3d 73 ad b2 3d 65 a7 ba 3d f5 a7 d1 bc
       0.042313628 0.08724489 0.09113959 -0.025592783
000360 8c 5d 5f bd 72 91 25 bd 5d 5b 9c 3d 24 48 4e 3e
       -0.054532573 -0.04042191 0.07634614 0.20144707
000370 75 ca 8d bc 80 4b 97 ba 49 d1 2b 3e a9 99 e0 3d
       -0.017308453 -0.0011542886 0.16779055 0.10966808
000380 dc 63 52 be 39 0d 84 3e 20 93 74 bd 9f b3 89 bd
       -0.20545906 0.25791338 -0.05971062 -0.06723713
000390 83 a8 d9 3d 03 82 ab 3c e1 f9 88 3d b1 1a 9d bd
       0.10627844 0.020936018 0.066882856 -0.076711066
0003a0 39 23 af bd 72 1a e1 bc 6b 68 d4 3c 57 c4 0a bd
       -0.0855164 -0.02747843 0.025928697 -0.03387865
0003b0 ff 84 5a 3d 7f a2 0e be 2a 68 22 bd 03 eb 18 be
       0.05334949 -0.13929175 -0.03965012 -0.149334
0003c0 2c 3e 37 3d a9 87 09 3e cd 76 43 be e3 72 e0 bc
       0.044737026 0.13430656 -0.19088288 -0.027398532
0003d0 bd 97 81 bc a8 ca 20 bb 8b f4 3c 3e 0a 91 a5 3d
       -0.015819425 -0.0024534855 0.1845266 0.08084305
0003e0 8f b9 7e 3d 27 eb 48 3c ea 79 02 3d da 95 00 3e
       0.06218868 0.012263096 0.031854548 0.12557164
0003f0 c0 a0 f7 3d 11 7c 89 3d 26 e7 40 3c f9 78 2e bd
       0.120912075 0.06713117 0.01177386 -0.042595837

hidden.4.bias f4 [64]
000000 d0 04 62 3c 22 b4 97 bd 08 89 2b bd 00 d2 6c ba
       0.013795093 -0.074074045 -0.04187873 -0.0009033978
000010 c0 59 b6 3d 80 30 b2 3d 10 fd 13 3d 5a 12 83 3d
       0.08903837 0.08700657 0.03613001 0.06399985
000020 2a 5a ed 3d 40 1f 1e bb a0 7b c4 3b 80 f2 b4 bc
       0.11589463 -0.0024127513 0.0059961826 -0.02208829
000030 d0 b0 bf bc a8 d2 fa bd 70 ae 7e bd 30 7d 70 3c
       -0.02339974 -0.12247211 -0.062178075 0.0146782845
000040 60 b4 1d 3d dc 40 fe bd 3c a7 9e 3d ee 0e e6 bd
       0.038502097 -0.12414715 0.07746741 -0.11233316
000050 90 3d a1 bc 3e d1 d1 bd 6c 2b 2d bd 9c fb 90 bd
       -0.019682676 -0.10244988 -0.04227774 -0.07079241
000060 b8 43 a7 bd 68 1a 8c bd f4 d3 be 3d 50 86 e4 3c
       -0.08167213 -0.06840974 0.093177706 0.027896076
000070 22 65 dd 3d 50 c4 67 bd 4e ed a7 bd fa f6 a1 3d
       0.10810305 -0.056583703 -0.08199559 0.07908435
000080 ba 9d f8 3d ba 4b dc bd 04 28 9d bd 6c a9 fc 3d
       0.12139459 -0.10756631 -0.07673648 0.12337002
000090 8c c1 28 3d 70 c3 d4 bc 8a 3a b0 3d 62 9b b6 bd
       0.041200206 -0.025972098 0.086049154 -0.08916356
0000a0 88 b3 eb bd 42 ea 90 3d e0 83 09 3c d4 8c 73 3d
       -0.11508852 0.07075931 0.008393258 0.059460476
0000b0 f4 af a3 3d 38 75 9c 3c 50 0b ff bd c8 b8 ad 3d
       0.07992545 0.019098863 -0.124533296 0.0848251
0000c0 38 dc 26 bd c0 2a c2 bb 30 aa 69 3d 28 fa ab bc
       -0.04073736 -0.0059255064 0.05704707 -0.020993307
0000d0 80 7c 22 bc c0 13 fe bd f8 d4 36 3d 42 f5 e9 bd
       -0.009917378 -0.12406111 0.044636697 -0.11423732
0000e0 fc 60 fe 3d 98 d3 bb 3d ca ec f3 3d 46 75 80 3d
       0.12420842 0.09171218 0.11910398 0.06272368
0000f0 90 24 59 3d 40 6c 3d bc c0 5f 54 3c 78 9b 07 bd
       0.053013384 -0.011561453 0.012962282 -0.03310725
