results/1_sampling/pinn_set5_sparse_LBFGS_e1000.pth (torch, 80002 bytes, 12 tensors)

hidden.0.weight f4 [64, 10]
00000000: bb4f 3ebf 2bd4 93be 05ae 923d aff5 13bd
00000010: e019 80be 5a1f 72bd 4e12 8c3c 7c9c e43e
00000020: bc16 94be 4c84 0d3e 9bb1 773f 02f0 0dbe
00000030: fbb5 7ebd 62a5 903b 2a1e d93e 865d 8f3e
00000040: 8f93 003f bb0b 8f3e da23 863e 6d3f 793e
00000050: a5eb 4dbe e28f 41bd 0fe5 0abb 8112 983c
00000060: 4157 69be a8f3 8abd 266c 37bd 5c01 1d3e
00000070: 0fd4 cebd f718 43be 54e4 a9bd 5f8a 003f
00000080: b5bc 9e3c 3b59 583c 8573 b0be 70a2 bfbe
00000090: e0da e2be ade8 a2be a0c5 1bbe 7439 42be
000000a0: 8e20 bfbe a831 a1be 8d78 613d 6c5a 40bd
000000b0: d506 9c3e 6125 f83d 41cf f03d ad1a 2ebb
000000c0: 55e5 26be c99d 96be 4788 4ebe 1073 b93e
000000d0: 54cc e9bd a991 85be d8fe 47be 8625 7cbe
000000e0: 8b7b 92be 8504 26be 6167 b4bc 9926 253e
000000f0: 85a3 b73e 3b54 c1be 77ff 893d 2b84 46be
00000100: 8d55 723e 1649 70bd 4737 98be be13 dfbd
00000110: 969a b33e a528 803d c33e 283f f722 583e
00000120: e89c 05be 220c 473e 93f8 84be 510a 1cbe
00000130: f5b7 a03d cde3 ed3b b1dc c8bd 03ad 6fbe
00000140: c67e 733f 528f 473d 629a 23bd f697 c3be
00000150: 6857 b83d b22b 01bd 88cd 2a3d 09b8 08be
00000160: ddaa b2bd 493b f73d 16f0 213e d40f 5bbe
00000170: 8001 1a3d 0943 3dbe 1cbc 1a3e 2790 d73c
00000180: 3ec7 f1bd 422e 82be 16bf 843d d4a2 abbd
00000190: 120e b43f 8483 c4bd 80d5 a6bd 91df 8c3d
000001a0: 53b6 77be 965a 83bc 19d2 22be ac4f 943d
000001b0: df96 733e e093 913e b950 45bf 6bb3 b23e
000001c0: 4ee3 b4bd 77eb 083e 1687 80bd b5d8 353e
000001d0: 4b4a 333e b541 53bd 5204 c9bd 4547 253d
000001e0: 6095 a53d 299c 283e da7a d0bd db12 813d
000001f0: 8dfc ba3d ddf1 5a3e 1928 be3e 79d9 b03e
00000200: 34ed a83e f21c aa3c 45c8 273d f161 bd3e
00000210: 9e3b a93c 1d86 4bbe 58d2 13bb fce0 58be
00000220: 97b4 203d e022 22be 6864 59bd d62d df3d
00000230: 3cc6 50c0 e439 733d e8ad 9ebd 9613 2abe
00000240: 52b3 933e f0e2 13be da0a adbe 8bd2 2cbd
00000250: b523 c9bd 2aa5 093e 3dc6 bc3e 7850 bebd
00000260: a860 82bc 8baf 0fbe b578 1f3e 0dbf 9f3d
00000270: 34b6 c23e f84c 9f3e 5d80 0c3e 371a 2a3e
00000280: c68d 37bc 3e3f 17be 93b1 2dbe ac07 0a3c
00000290: f4a1 e63c 4ac4 2a3e 6620 883d ad5a 9f3e
000002a0: 266e 91be 1b60 443e 87d1 6bbf e478 5c3e
000002b0: 3f5c 3b3e 57d1 ae3e 46ea babe 3cef de3e
000002c0: ddef ef3d edaa 1b3e a6dc 5a3e e167 cf3c
000002d0: c761 4bbf 8d32 4a3d 2bc4 0dbe 1cf1 343d
000002e0: 1fb4 ddbe 6f74 413e b175 4cbe ab89 c63e
000002f0: e149 71bc 1628 f23c b8c6 e13d c12d 06be
00000300: 9795 fcbd dfd7 4f3e 3adb 8dbe 7dac adbe
00000310: cf90 d4be 6a8d 0dbe ea43 9bbd d755 84be
00000320: 93c6 cfbe eb0d 70bd ec62 df3d f116 633e
00000330: f312 03be 056e 453e b9cc 0abd 78db a03e
00000340: 124c cf3d 21a7 963d e219 aabf aa0a 21be
00000350: 5aa3 863c 1fea 483d f695 c13e 8905 c73c
00000360: a91d ad3d fc97 aebb 279e 28be f3d4 60be
00000370: 1958 433d 82e2 5fbe 83c0 d7bd cfb7 a23c
00000380: 3c82 57be beec f03d fb30 d0be 4654 12be
00000390: 99a6 93bd 99b0 e7bc 79ec 1ebe 410d 923c
000003a0: 004d c03c 83fb bf3d ffde 813d 60f2 813d
000003b0: 785f 8b3e 4257 dcba 48b7 623e ccbb 893e
000003c0: 07ac ae3e 0a98 c93e ea99 b13d ea68 0ebe
000003d0: 2d33 893d 627b 94be 4ac6 1ebe d8f9 66be
000003e0: 99a4 f2bd c356 97be ee5a c4bf 4fa3 f43c
000003f0: 9aa4 363d 280b 83be d4d2 5cbe f1bd 1dbd
-0.7434041 -0.2887281 0.07162098 -0.036122974 -0.2501974 -0.05911193 0.017098572 0.44650638
-0.28923595 0.13819999 0.9675538 -0.13861087 -0.06218527 0.0044142464 0.42405826 0.2800104
0.50225157 0.27938637 0.26199228 0.24340601 -0.20109423 -0.047256358 -0.0021193658 0.01856351
-0.22787191 -0.06784755 -0.044780873 0.1533255 -0.10099041 -0.19052492 -0.08295503 0.5021114
0.019377092 0.013204868 -0.34463134 -0.37428617 -0.44307613 -0.31818143 -0.15212107 -0.18967229
-0.37329525 -0.31483197 0.055046607 -0.046961233 0.30473962 0.121165045 0.117582805 -0.0026566193
-0.1629842 -0.29417256 -0.20169173 0.36220598 -0.114159256 -0.26087692 -0.19530809 -0.24623689
-0.2860988 -0.16212662 -0.022021951 0.16128005 0.35866943 -0.37759575 0.06738179 -0.19386356
0.23665448 -0.05866345 -0.29729673 -0.108924374 0.35078877 0.06257752 0.65720767 0.21107088
-0.13048136 0.19438222 -0.25970897 -0.1523831 0.07847587 0.007259822 -0.098077185 -0.23405842
0.95115316 0.048720665 -0.039942153 -0.38201874 0.090010464 -0.03153581 0.041699916 -0.13351454
-0.08723996 0.120718546 0.15814242 -0.21392757 0.037599087 -0.18482603 0.1511082 0.026313854
-0.118055806 -0.25425917 0.06481759 -0.083806664 1.4066794 -0.09595397 -0.08146191 0.068785794
-0.24190645 -0.016034406 -0.15900458 0.07241759 0.23788022 0.28433132 -0.770763 0.3490251
-0.088324174 0.13371073 -0.062757656 0.17758448 0.1750881 -0.051576335 -0.09815277 0.04035117
0.08085132 0.1646582 -0.10179682 0.063024245 0.091302015 0.21381326 0.37139967 0.34540918
0.32993472 0.020765755 0.040962476 0.36988786 0.02065831 -0.19875379 -0.0022555795 -0.21179575
0.039234724 -0.15833616 -0.05307427 0.108974144 -3.2620993 0.05938138 -0.07748014 -0.16609034
0.28847748 -0.14442039 -0.33797342 -0.042192977 -0.09821264 0.13441911 0.36869994 -0.09292692
-0.01591523 -0.14031808 0.1557339 0.07800112 0.38029635 0.3111341 0.13720842 0.16611563
-0.011203235 -0.14770219 -0.1696227 0.008424681 0.028153397 0.16676441 0.066468045 0.31123868
-0.2840435 0.19177286 -0.9211659 0.21530491 0.18296908 0.3414409 -0.3650686 0.43541896
0.11715672 0.15201922 0.21373233 0.025318088 -0.7944607 0.049364615 -0.13844363 0.044175252
-0.43301484 0.18892072 -0.1996677 0.38776907 -0.014727087 0.02956013 0.11024231 -0.13103391
-0.123332195 0.20297192 -0.2770632 -0.3392066 -0.4151673 -0.13823476 -0.07581313 -0.2584674
-0.40581188 -0.058607023 0.1090754 0.2217672 -0.12800197 0.1928025 -0.033886645 0.3141744
0.10121931 0.07356096 -1.3289149 -0.15726724 0.016435314 0.0490514 0.37809724 0.024294632
0.08452923 -0.0053281765 -0.1646658 -0.21956234 0.04769144 -0.2186375 -0.105347656 0.019863037
-0.21045774 0.11763905 -0.4066237 -0.1428996 -0.0720951 -0.02828245 -0.15519895 0.017828586
0.023474216 0.09374144 0.06341361 0.063450575 0.27221274 -0.0016810673 0.22140229 0.2690109
0.3411562 0.3937381 0.08671935 -0.13907209 0.06699214 -0.29000384 -0.15505329 -0.22556245
-0.11847801 -0.2955838 -1.534025 0.029863028 0.04459057 -0.2559445 -0.215648 -0.03851122

hidden.0.bias f4 [64]
00000000: a8fa c63e 82a8 4a3e bf25 f3bd eb48 3d3c
00000010: d2c5 2fbe 027a 123e 9e43 e7bd 7ad5 953e
00000020: 028c 1dbd ab82 4a3e 362f 30be c9fc 86bc
00000030: 088f e33e 7dd7 c5be 9a62 d3bd f4ed 093e
00000040: b185 943e 259d d03d 958e 56be a2f4 e0bd
00000050: 4014 5f3e e29f 54be a894 773d 5d0f 7f3e
00000060: a911 6dbd 3e4d 123e 4ba8 883e 654b c03e
00000070: b285 5ebd 4445 9e3e d6c7 903e a3e6 9c3e
00000080: 9e48 94be e111 3abc d112 36bd 2d4f 773e
00000090: f394 b5bd 7fe0 483d 693e 75bd 2d51 1abd
000000a0: 1312 02bd ce0b cebd d867 80be c037 de3e
000000b0: 559c 6a3e 1e9b 7f3e 44a1 533d 35f2 043e
000000c0: 466c 9f3e bbff ea3d c77b e4bd cf9a 82be
000000d0: d6b4 1d3e f4c1 363e bf91 d63d 4f0a 953e
000000e0: 1d8e 563e a9a0 60be 3bae 10be 1239 93be
000000f0: 788f 1cbb 84db 543d 3c18 8c3d a9e4 a2be
0.3886311 0.19790843 -0.11872434 0.0115530295 -0.17165306 0.14304355 -0.11292194 0.29264432
-0.0384636 0.19776408 -0.1720551 -0.01647796 0.44445062 -0.38640967 -0.10321541 0.13469678
0.29008248 0.10186223 -0.20952828 -0.1098416 0.21785069 -0.20764115 0.060444504 0.24908204
-0.05787817 0.14287278 0.26690897 0.3755752 -0.05432672 0.3091222 0.28277463 0.30644712
-0.28961653 -0.011356802 -0.04445154 0.24151297 -0.088663004 0.04904222 -0.059873972 -0.03767507
-0.03175552 -0.10060845 -0.25079226 0.4340191 0.22911198 0.24961516 0.051667467 0.1298302
0.31137294 0.11474558 -0.11156421 -0.25508735 0.15401015 0.17847425 0.104770176 0.29109427
0.2095265 -0.21936287 -0.14128964 -0.2875448 -0.0023889225 0.05196716 0.0684056 -0.3181508

hidden.1.weight f4 [64, 64]
00000000: a008 713b 2820 073e 770b a93c 21e4 803d
00000010: b1cb a73b a009 a8bb 4926 223d e448 dcbd
00000020: 789c f0bd b016 8bbe ae13 47bd 7365 13be
00000030: 5829 83be 3928 503e 088a 4fbe dafa fcbb
00000040: 8c38 96be 3997 bbbd 84f1 56bd 100e b7bd
00000050: 28ce 87bc 62f9 2dbe 1179 a03c 8cf1 91bd
00000060: 8e26 263c 89c1 eabd 27fb 3bbe 0a1d cabc
00000070: 7dc7 513d 1ef5 a03d 5a24 65bd 158c 8abe
00000080: fc20 103e 6ece 84be 3dcd b4bc c9b0 29be
00000090: 6db8 8ebd 6377 17be c41b 443e 3cea 8d3e
000000a0: b6d3 543c 4a7e 273e 5976 b9bd 147d c93d
000000b0: cec2 4fbd f6f1 bebd c13a 1b3d c71a ddbc
000000c0: f89d 55bd 42e9 21be de01 a53e 89a4 833e
000000d0: b93b 90bd ef20 6dbc 4fa1 82bd c978 a0bd
000000e0: 6ad4 71be fda0 033e 284b 803e d388 1dbe
000000f0: b115 073d dee6 b0be dfc5 87be 88f5 bf3d
00000100: 240f b3be 7a97 d23d 0364 1abd 4fc1 babd
00000110: c913 503e bc51 10be 7694 f0bd 7da1 f03d
00000120: 23c4 643d e498 7a3d eaba 9f3c 45b0 a13e
00000130: 133c 6bbe adb5 553e 9cef 1cbe 1708 d0bc
00000140: ce0a 55be a4b3 e7bd f0b7 44bd e90b b43d
00000150: afc0 84be 19e0 9c3d 85f5 1f3d 3447 e0bd
00000160: 5736 483e 765d 58be 624b 9a3e 25dc 37bd
00000170: 3e9c c0bd fb6b 3cbc 0eab f1bc c695 43be
00000180: 4e94 223e e16e 53bd ff63 07bb 287a 4dbe
00000190: 2300 0f3e 6cea d53d 3620 983d 8b10 853e
000001a0: 8a3e 3dbd ff51 2ebe 140f 7dbe 4665 373c
000001b0: be54 f73c bbac f3bc f4b6 f9bc f976 0a3d
000001c0: 5142 24be 9b2b 2abe 442a aa3d 0837 0b3e
000001d0: 7ff6 6bbd dcee 9dbc 51fd 493c 7288 36be
000001e0: e0d1 b6be db37 063e 334f 893d 8b30 cdbd
000001f0: 3dd0 9f3d 9c38 0f3e d403 36bd 48f7 813e
00000200: 3d48 87bd 7869 033d 83cc 40be d0f2 14bd
00000210: fb38 c43d 316d 3b3e e927 fb3d cdee 92bd
00000220: 53bc 71bd 7bf6 e23d 3aed 493e c267 3b3d
00000230: 4aba 83bd 8e84 6e3e bbfc 963d 70b2 123e
00000240: ba5f 343d dccb 773c fd68 41be ae40 25be
00000250: 954e 25bd fc05 19be ad6a 4abd 95c0 cb3d
00000260: a9fc 883c 6653 0039 8a53 15be 086a 373e
00000270: dc68 8e3d 18a4 16be 33ce 06be 849d 313e
00000280: 1437 7b3d 77d4 173c 116f c4bd 89ca e33d
00000290: 900a ae3d 8dd9 1d3e 3c9c 0cbc e051 79be
000002a0: 975d 5bbd c56d 003d 58c9 cd3c 6d05 883d
000002b0: 1345 1dbe 144e 13be 0407 7e3d 370c 26be
000002c0: ffb5 5ebd bdd1 1c3d c988 38be f1e2 20bd
000002d0: 3f06 52bd 363b d1bd 7f7d 153d 198b 3dbd
000002e0: 5176 ea3d c8b8 73bc 2bd6 c63d 9aa4 30bd
000002f0: 6565 47bd 09af 76bd b7fb 36be ee58 6abd
00000300: e42b b63d a95d f6bd 8e7a 2abc 9970 0bbe
00000310: bba5 05be ea25 6dbc fc04 c2bd 368b 9fbe
00000320: d476 17be e31d e8bd a521 9cbd cc22 6f3c
00000330: 7e1d 2a3e cdaf 90bd 28dd ae3d dec1 05bc
00000340: 1165 863e 0332 cdbc f92f 8f3d 6190 4a3e
00000350: a3b8 733d 7b70 743d 4e43 10be daab 023e
00000360: da33 46be 147c bf3b 84b2 b73c dc70 573c
00000370: db26 0d3e 27d5 8e3e 5e05 973d 6701 ea3d
00000380: 0172 063d 11d7 133d 65ac 84bd d442 82be
00000390: a747 67bd c4ae 12be d979 76bd bf8f 3dbd
000003a0: 2986 81bc 4677 08bd 25dc 38bd 7413 6b3e
000003b0: a44c 0d3d b985 4f3e 2770 cd3b a3b0 55bc
000003c0: 9e1e 733d 9557 483e eda7 a23e cba0 e0bd
000003d0: 69c6 27be 54b7 24bb dacb 093e 4474 213e
000003e0: c4e3 bbbc e8ad 223e b9ee 2d3c ff34 333e
000003f0: e80a ebbc cf5f 833e 1d0b 653e d56a 54be
0.0036778823 0.1319586 0.02063535 0.06293512 0.0051207175 -0.0051281005 0.039587293 -0.1075609
-0.11748594 -0.27165747 -0.048602752 -0.14394169 -0.2561748 0.20327844 -0.20267498 -0.0077203335
-0.29340017 -0.09159703 -0.05247642 -0.08938229 -0.016577795 -0.16989663 0.019588979 -0.071261495
0.010141028 -0.11462695 -0.18357526 -0.02467205 0.051215637 0.078592524 -0.05594287 -0.2706
0.14075083 -0.25938743 -0.022070521 -0.16571344 -0.0696877 -0.14791636 0.19151217 0.2771777
0.012989929 0.16356769 -0.09055776 0.0983831 -0.05072289 -0.09323494 0.03789783 -0.026990307
-0.052152604 -0.15811637 0.32227987 0.25711468 -0.07042641 -0.014473184 -0.063784234 -0.07835538
-0.23616186 0.12854381 0.2505734 -0.15384226 0.03297967 -0.34551138 -0.2651815 0.09373003
-0.3497249 0.10282798 -0.037693035 -0.09118902 0.20320047 -0.14093679 -0.11747067 0.117495514
0.055851113 0.061180964 0.019498307 0.31579795 -0.22972135 0.20870085 -0.15325779 -0.025394483
-0.20804903 -0.113135606 -0.04802698 0.08791334 -0.25928256 0.07659931 0.039052505 -0.10951081
0.19551979 -0.21129403 0.30135638 -0.04488768 -0.09404801 -0.011500354 -0.02950051 -0.19100103
0.15876886 -0.051619414 -0.0020658968 -0.2006613 0.13964896 0.10445103 0.07428019 0.25989184
-0.04620222 -0.17023467 -0.24712783 0.011193579 0.030191775 -0.02974545 -0.030482747 0.033804867
-0.16040923 -0.16618197 0.08308843 0.13595212 -0.057608124 -0.019278936 0.012328462 -0.17825487
-0.35706997 0.13107245 0.06704559 -0.100190245 0.0780339 0.13986439 -0.044437245 0.25383973
-0.06605575 0.032083005 -0.18828015 -0.036364377 0.09581181 0.18303372 0.12263472 -0.07174454
-0.05901749 0.11082169 0.19719401 0.045753248 -0.06432016 0.23292753 0.07372423 0.14325881
0.044036604 0.015124287 -0.18887706 -0.16137955 -0.040358145 -0.14943689 -0.04941814 0.099488415
0.01672204 0.000122381 -0.14582649 0.17911541 0.06953594 -0.14711034 -0.13164596 0.17345244
0.061331823 0.009266964 -0.09591497 0.11122615 0.084981084 0.1541502 -0.008582171 -0.24347639
-0.05355605 0.031354684 0.025120422 0.0664166 -0.15358381 -0.14385253 0.06201841 -0.16215597
-0.054372784 0.03828596 -0.1802093 -0.03927893 -0.051275488 -0.10216372 0.036496636 -0.046275232
0.11448348 -0.014875598 0.09708818 -0.043125726 -0.04868068 -0.06022552 -0.17869459 -0.057213716
0.0889509 -0.12029583 -0.010405196 -0.13617171 -0.13051502 -0.014474371 -0.09473607 -0.31160897
-0.14791423 -0.113338254 -0.07623605 0.014595699 0.16612813 -0.07064781 0.08538276 -0.008163897
0.26248983 -0.025048262 0.06991572 0.19781639 0.059502255 0.059677582 -0.14088175 0.12760869
-0.19355717 0.0058436487 0.02242399 0.013149466 0.13784353 0.27896997 0.073740706 0.11426049
0.032823566 0.036093775 -0.06478194 -0.2544161 -0.056464817 -0.1432448 -0.060174797 -0.046279665
-0.015811043 -0.033316873 -0.04513182 0.2295664 0.03449692 0.20265855 0.006269473 -0.013042602
0.05935537 0.1956466 0.31768742 -0.10968169 -0.16384281 -0.0025133686 0.1345667 0.15767008
-0.022935756 0.15886652 0.010615998 0.17500685 -0.028691724 0.25659034 0.2236752 -0.20743878

hidden.1.bias f4 [64]
00000000: c9be 4dbe 40fa 60be 0933 ccbc 58c6 16bd
00000010: 5859 9bbd 8244 6dbe b116 be3d 38a0 0a3e
00000020: 2d78 bcbc 4fa2 dc3d 8165 3f3e 6865 2b3e
00000030: b109 eb3d 5d65 b8be a0f2 3cbe fc64 60bd
00000040: 70aa adbe d74a bbbd 255f 233e 5d68 12be
00000050: 4f8a 7c3e 3d48 593e af1f 563d 8ae4 cd3d
00000060: 0ba4 23be 4ab7 833e 5d11 3ebe 21bd 28bb
00000070: 2070 6d3e 3f64 f3bd a939 053d d5b4 da3c
00000080: 014b 8ebe a500 b53e 2975 5f3e 5cf4 94bc
00000090: d086 983b ae03 b33d b005 2f3e cef1 28bd
000000a0: 1e67 26bc ef26 853c 9773 683d 24c3 f6bd
000000b0: 84b7 86be 1b20 483d 08c1 dabc b2bc 8f3b
000000c0: a932 41bc debe 143e 8902 acbd de95 d93d
000000d0: a60d 06be 3c30 18be 5044 af3d 473b a83b
000000e0: 731b 343e 7310 843d e262 8e3c f54c 353d
000000f0: 37eb c23d 2721 233e 2e9e 3ebe def1 61be
-0.2009231 -0.21970463 -0.02492668 -0.03681025 -0.075854 -0.23170665 0.09281672 0.13537681
-0.023006523 0.107731454 0.18691064 0.16737902 0.11476458 -0.36014834 -0.18451929 -0.054783806
-0.33919096 -0.09145134 0.15954264 -0.14297624 0.24662136 0.21218963 0.05227631 0.10053356
-0.15980546 0.25725776 -0.18561311 -0.0025747495 0.23187304 -0.11884355 0.032525692 0.026697556
-0.27791598 0.35352054 0.21822037 -0.018182926 0.004654743 0.08740936 0.17092013 -0.041246228
-0.010156421 0.016253917 0.05675086 -0.12048939 -0.26311886 0.048858743 -0.026703373 0.004386508
-0.0117918635 0.14525935 -0.08398921 0.10624288 -0.13091144 -0.1486215 0.085579515 0.0051340195
0.17588596 0.0644845 0.017381135 0.044262845 0.0951752 0.15930615 -0.18615028 -0.22064921

hidden.2.weight f4 [64, 64]
00000000: 014d eb3c e25f 8cbe 41c1 2cbe 8704 5c3d
00000010: 8e72 51bd c11a 30be d83d a4bd 2f0b f33d
00000020: d6c6 35bd 1e6f 97bd 8e2d cb3d bc66 d23c
00000030: 4abb b43d 640c cd3c 4eff 53be 63e4 d03a
00000040: 8c83 9ebe 8579 a6be bd7e c43a ed35 d2bd
00000050: ed7b 8a3d cf94 f13d e64e 4a3e fc6f 223e
00000060: ca11 f3bd d891 6f3e d191 8fbd 88c5 633d
00000070: d2e5 f4bd 7927 e3bd e20f ea3d 4973 d5bd
00000080: 37e2 13be 54d2 223e 837c 9f3e c1f1 e2bd
00000090: ecff d63d 5635 7d3e 517f dc3d e8c4 4fbd
000000a0: cbcb ee3d 4063 62bd a227 dbbd 72d9 03be
000000b0: 33c6 94be a054 8a3d 93dc 5ebd ea37 b3bc
000000c0: 22b6 edbd d803 193d e3b8 1fbe a374 bb3e
000000d0: b6fb 293c 6bf8 303d eaec c5bd dd0e 623d
000000e0: fdf3 82bd e6ca 833d ab25 843d 6cca 3b3c
000000f0: 9e87 183e 9078 e5bc d286 8abe 823e 4abd
00000100: f19d c8be 243a 06be b06e d6bd b281 393e
00000110: a7df 46be 3cd9 43be 4db2 5b3e 76d5 b7bc
00000120: 3920 913d f226 d73d 7d58 92be a3c7 b13d
00000130: 1191 82be aa65 03bd 8397 82bb a02f 1e3c
00000140: d00a 7cbe ec8f a93d 967c 0fbe 8836 f33d
00000150: d926 513e cd10 a23d 803f 143e 4561 a73d
00000160: f94c 2f3d db13 103c d76e 153e 79bd 41bd
00000170: 60c3 8a3d 14ab dbbe 90c1 bfb8 1057 10bc
00000180: 6f47 b93d 3a72 f7bc 900f 96bd ad60 8fbe
00000190: 1c8d 88be eff3 babd 719b 063d 2ca7 0fbe
000001a0: 5225 8e3e 8735 3cbd f402 503e 796e 33be
000001b0: 64e4 d9bd b14c 0bbd 37e7 d03d ea3e c03b
000001c0: ba29 003e 3439 543e 7b54 ecbd 48af d63d
000001d0: 2e70 a9bd 0dd3 a03d 9a3a 183d 0aa6 c3bd
000001e0: a356 06be ce73 163e c4ff 9cbe 183d 58bc
000001f0: aeb2 0c3e 3364 9ebd 727c 2bbe 88e8 a6bd
00000200: 3f70 9dbd 05ed 97bd a8ed b53d 1097 77be
00000210: 0ed8 003e d7f8 f73b 2c9d 59bd df96 07be
00000220: 471e da3d 3e0a 01be 59d9 033e 8721 3cbe
00000230: 493c a83d 477a e23d fca2 f83d 36c3 4e3e
00000240: 9bc9 3b3e 844b 003e d55e e4bc 6786 2d3d
00000250: 3d17 15be 7870 eebc a863 8bbb f369 1e3e
00000260: ab83 4abd c86a cd3c 6dba 953d 8408 0f3e
00000270: 5bfd 983e 8302 f8ba 948c a4bd 74b5 56be
00000280: 8601 c53d 0349 86be 28ba 2f3c 5065 a73e
00000290: ed60 f0bd f646 04be 8b0d 5cbe b3cd febd
000002a0: e200 7bbd e4f9 333e 11e5 2ebe 2a91 9f3c
000002b0: 592b a4bd 5f18 4bbe 9391 edbd fbcf b33c
000002c0: 549c 95bd 6848 1f3e dbc5 e83d ed38 023e
000002d0: f547 6abe 3219 e7bd e2ef 853d 1b81 783e
000002e0: 0b6d 593e dba0 d63d b451 643e ac83 4e3e
000002f0: 4b17 103e b3bf 463e ac43 423d 0cc9 93be
00000300: 22e0 d93d c734 30be 8b91 18bc eeea 073e
00000310: 2005 09be 524c b33c 6c22 1dbd a203 df3d
00000320: d82b bcbc a65a 933e 05e0 41bc 69df 2e3d
00000330: 6fd9 88be 05a1 a2bd 5646 bb3d 3fc2 153e
00000340: cc11 973d b9ce c63d 651c e63d e58a 68bd
00000350: a107 e9bd 271a e93c aa24 0b3c 3b4a cf3c
00000360: 0ac1 3b3e 528d 023e 8513 c0be d89d 05be
00000370: c082 9a3b 3ac1 d43d 46bb b13e f145 5d3c
00000380: 5f22 60be 70bd 86bd 167e 873c 8431 a53c
00000390: cf93 003f 2950 d53d 2db7 853e e0da 873e
000003a0: 6756 c23d 6da9 8c3c b1d1 103e fa24 4cbd
000003b0: 60c3 ca3d b26d 2a3e e9a8 55be 3072 febd
000003c0: 9620 283e 1c73 05bd 89a1 443d 0ead bc3b
000003d0: 1e5d c33c ce12 583d 7055 7dbe 17d8 82be
000003e0: 90f1 e6bd 9321 adbe 3d7b 1f3e 5b38 83bd
000003f0: 00d6 f6bc 4f52 78be 129e 223e 1094 c43c
0.028723242 -0.27416903 -0.16870596 0.053715255 -0.05113464 -0.17197706 -0.08019608 0.118673675
-0.044379078 -0.07394241 0.09920798 0.025683753 0.08824785 0.025030322 -0.2070286 0.0015937205
-0.30959737 -0.32514587 0.0014991384 -0.10264192 0.06761918 0.11795961 0.1975666 0.15863031
-0.11868627 0.23395479 -0.07010234 0.055608302 -0.11957897 -0.11091513 0.11428811 -0.104223795
-0.14441763 0.15900546 0.31149682 -0.11081267 0.10498032 0.24727377 0.10766471 -0.050724894
0.11659964 -0.055270433 -0.10700919 -0.12875918 -0.29057464 0.06754422 -0.054409575 -0.021877248
-0.11607005 0.03735718 -0.15597872 0.36612424 0.010374954 0.04320566 -0.096643284 0.055189956
-0.06394193 0.06435184 0.06452497 0.011461835 0.14895484 -0.02801159 -0.27055985 -0.04937602
-0.39183 -0.13108116 -0.10470331 0.18115881 -0.19421254 -0.19125837 0.21454735 -0.022440653
0.07086224 0.10505475 -0.28583136 0.08680656 -0.25501302 -0.032079376 -0.0039853468 0.009654909
-0.246135 0.08279404 -0.1401237 0.118756354 0.20424975 0.07913361 0.14477348 0.081728496
0.042798016 0.008793796 0.14593063 -0.047299836 0.06775546 -0.4290396 -9.1436435e-05 -0.00880982
0.09046828 -0.030205835 -0.07327187 -0.28003445 -0.26670158 -0.09128558 0.032863084 -0.14028615
0.27762848 -0.045949485 0.20313627 -0.1752261 -0.10639265 -0.034008685 0.10200351 0.005866875
0.12515917 0.20724946 -0.11539551 0.10482651 -0.0827335 0.07852755 0.03716526 -0.09553154
-0.13118987 0.14692613 -0.30663884 -0.01319816 0.13740036 -0.07733955 -0.16746691 -0.081498206
-0.07687425 -0.07418255 0.0888322 -0.2417872 0.12582418 0.007567506 -0.053128406 -0.13241147
0.10650306 -0.12601563 0.1287588 -0.18372165 0.082146235 0.11058479 0.12140462 0.20191655
0.18338625 0.12528807 -0.02787725 0.042364504 -0.14559646 -0.029106364 -0.0042538233 0.15470104
-0.049441975 0.025075331 0.073109485 0.13968092 0.29880795 -0.0018921647 -0.08034626 -0.20967656
0.09619431 -0.2622758 0.010725535 0.32694483 -0.11737237 -0.12917694 -0.21489541 -0.12441578
-0.06128014 0.17575794 -0.1707957 0.0194784 -0.080160804 -0.19833516 -0.11600032 0.021949759
-0.07305208 0.15554965 0.11365863 0.12717028 -0.22879012 -0.112841025 0.06539895 0.24268
0.21233003 0.104798995 0.22296792 0.20167416 0.14071386 0.19409065 0.04742782 -0.28864324
0.10638453 -0.17207633 -0.009312044 0.13273212 -0.13380861 0.021886978 -0.038362905 0.10889365
-0.022970125 0.28780097 -0.011833196 0.04269353 -0.2672839 -0.07940868 0.09144275 0.1462488
0.07376441 0.09707398 0.112358846 -0.056773085 -0.11378408 0.028454853 0.008492628 0.02530395
0.18335357 0.12749222 -0.37514892 -0.13048494 0.0047152936 0.103884175 0.3471319 0.013505445
-0.21888112 -0.06579101 0.016539615 0.020165212 0.5022554 0.1041568 0.26116315 0.26534176
0.09489136 0.017170632 0.14142491 -0.04983995 0.09900546 0.16643408 -0.20865215 -0.12424123
0.1641868 -0.03258048 0.048005614 0.0057579344 0.023848113 0.05275231 -0.24739623 -0.25555488
-0.11276543 -0.33814678 0.15574355 -0.06407233 -0.03013134 -0.24250148 0.15880612 0.023996383

hidden.2.bias f4 [64]
00000000: 4ea7 803e e46d 443e 1754 cd3d 5797 41bd
00000010: ac9f e93c 6a8b 263e a5a1 e43d 24a6 a03d
00000020: 38cd 6ebd eb2c 4b3e 094e 843e 9f87 27bd
00000030: d9ee 463e 77a6 db3b 7abe 05be ba5c 093d
00000040: 013c d63d 2a42 29be 3339 cfbc bd13 0dbe
00000050: 51f7 5bbe 6bf4 ad3d c00a 223e 0f71 07be
00000060: 38c3 03be 76d5 933c 3125 923e 93d9 873e
00000070: c5f2 9dbd f14b 443d ea6c 903c f4db 813e
00000080: e2f1 b03d 936e 9ebd 4e73 44bd 87cb e0bd
00000090: 90a5 c9bc 5884 5cbd 90bc cd3c 8ed6 38be
000000a0: 325f a9bd 1ddf df3d c46c 853d 1912 b13d
000000b0: 2f53 8b3d 1b51 8c3d cb24 ed3c 03e5 d03d
000000c0: 9992 0abe 61b0 893e b566 833c 48cd a23e
000000d0: 4e8d 91be 1356 273d ca7d e23d 2314 03be
000000e0: a91e ae3d 91eb d93c 8231 74be c62e 86be
000000f0: b112 3fbe 9fdf a03d 1479 303e 09fc f1bd
0.25127643 0.19182545 0.100258045 -0.04726347 0.02851852 0.1626412 0.11163644 0.07844189
-0.05830118 0.19841354 0.25840786 -0.040900823 0.1942705 0.0067031938 -0.13060942 0.033535697
0.104606636 -0.16529146 -0.02529583 -0.13777061 -0.21481062 0.08493885 0.15824413 -0.13226722
-0.12867439 0.018046122 0.28544 0.26533183 -0.0771232 0.047923986 0.01763006 0.25363123
0.086398855 -0.07735934 -0.047961526 -0.1097632 -0.02461508 -0.05383715 0.025114328 -0.18050596
-0.0827011 0.10931227 0.06514886 0.0864603 0.068029754 0.06851407 0.028948208 0.101999305
-0.13532485 0.2689238 0.016040185 0.31797242 -0.2842812 0.04085357 0.110591486 -0.1280065
0.08501942 0.026601585 -0.2384701 -0.2620756 -0.18659474 0.07855152 0.17233688 -0.1181565

hidden.3.weight f4 [64, 64]
00000000: 800a 85bd 25b2 d33c c283 3dbe 9107 f2bc
00000010: db7c af3c 4cbe 98be 831b 3bbe d115 d63b
00000020: 5c5b bebd 2b7f 8c3e 0b53 79be 66d4 efbd
00000030: 3f1b 403d 9e07 7f3d cd97 ffbd affc 503d
00000040: 27e4 93be 42a2 a0bd 324f ac3e c8cc f0bc
00000050: cf7f 8ebd 181b 4ebd 99ea 71bc d451 a03d
00000060: ba8e 1fbd 8879 533e edbd 1d3e b2fb 473e
00000070: b623 88bb 68ae 2cbd b359 923e 0c52 8dbe
00000080: 7deb 98bd e820 adbd 5527 4f3d f671 1c3d
00000090: e132 a9bd f205 113d 5fe4 debd 60d5 0a3e
000000a0: 3c7b 0a3d 2ea7 de3d 738e 463e 8673 86bd
000000b0: 074d 713d 60c7 28be 90d3 3cbd 3c2c 523e
000000c0: 30fc 923b dcb3 3fbd 07af 04be 0895 a4bc
000000d0: ef01 08be cc55 ff3d 5e07 fb3d 66a9 87bc
000000e0: c671 a23e ff9f 323e 096e a6bd c3d3 6b3d
000000f0: 33ad 953e 8e6f 6bbd db48 433d b382 e83d
00000100: 8e9d 37bc f893 0f3e c5e2 273e e84e 32be
00000110: 1ece f8bc b038 8b3d 2f7d 023e f782 8b3d
00000120: 151c 333e f327 823c 2bc8 17bc 1b88 8c3c
00000130: ea34 a3bd 1fbd 9c3d efe3 b1bd 798c 3d3e
00000140: f9b8 2dbd 5be2 26be 2b46 1d3d 8bd4 403d
00000150: 02dc 813c f8d3 673d 1d91 5ebc 0845 563d
00000160: c153 363d 2145 4f3b d816 b0bd 4707 78bb
00000170: 7148 ae3c 153d a9bd 72c0 c23c 4a0e 78be
00000180: db92 6fbd a818 fd3d d34c 4a3d 313e 38bd
00000190: 60ff 573e 6127 053e da2a 2cbd 684d 153e
000001a0: 58d5 b0bd 656b 853d 576d d0bc 7a02 b6bb
000001b0: fe6b f63d 2c8d 21bd 846e 38bd 3f16 443e
000001c0: b614 33be 53ae 293e 06c1 ecbd c0ed 863d
000001d0: dc76 4fbe c96f 5cbd 3438 973e f4f9 2a3d
000001e0: b409 80bd df4a 1e3e 2063 a43c 321b 823b
000001f0: 57f5 d63d c926 4dbc 5499 183e 97d6 48bc
00000200: 26cd 123e 619d 83be 07a9 823e 89d9 a7bc
00000210: 31c0 b43d 99c4 8fbe fa5b 2b3e adc4 953e
00000220: 3282 0a3d 0d77 5fbe 5ea2 6a3d 8e92 d1bd
00000230: 32b9 34be 727c 923e 264e 27be 1af1 d53d
00000240: 33d5 e0be cbc8 ddbd 5f3a 11be 74da 30bd
00000250: f894 c1be 9b46 a1bd a796 463d bf62 9a3e
00000260: b297 5dbe ccef a4bd 6e92 e03d a8f3 8f3e
00000270: 9dbf 98be 7a16 2cbd 0367 fcbc 4c0b d73e
00000280: 4eeb 1d3e 83c2 debe 0a93 8dbe 9b2c 6e3d
00000290: 18da 0fbd f453 e13d 1455 91be ad32 7cbe
000002a0: f7d9 1ebe f0ba cbbd 1bba abbd df86 40be
000002b0: adbe df3d e833 6bbd 4d35 e3be e40a 04be
000002c0: c7b4 04bf f51d c13e 8397 083e dc32 653e
000002d0: 8627 80be a817 87be 6f13 d33d 6b84 0fbe
000002e0: bdf7 963e bbcd d13e fff8 a0be 359d 37be
000002f0: 4e0c 07be 0e93 603e d5b2 423e 581f dabd
00000300: 5400 86bd 2869 54be c3ca 543b dd4c 17be
00000310: 6384 9f3e 27ed 95bc 6791 04bd 4b51 c93e
00000320: 64c1 96bd 174f bc3e ba4f 13be 5c97 cabc
00000330: a6bc 17be e3ae 22be 9593 2d3e 7dcf 903e
00000340: 863d ad3d e20f a3be 0f2c 353e eba3 8d3e
00000350: f9a1 6fbd 36e8 4dbe 0206 c5bd d1b8 8b3a
00000360: 7bf7 373e 6875 82be c078 943c 10c0 8abc
00000370: 705f 30be 0fb7 35bd 3bd3 063f cb7f 1f3e
00000380: 1501 c0bd 6575 18be b27b 8bbe c4ca 133e
00000390: cd86 3cbd 6d89 8dbd bdc2 19be f438 373e
000003a0: 337a a2be 746a b4be 39d1 e23d b127 a8be
000003b0: 024b b13e 57c0 093e 8c48 18be dc4e a13d
000003c0: c244 2ebe 954f 423e 1df5 8abe 52b3 103e
000003d0: 204f 023e 018d 63be 4179 e4bd e91a ac3d
000003e0: 04fe 823e 5cde b4bd f55a 93bc 68bc 923d
000003f0: 5d93 c53d 1e5b a13d 89e4 3abc 03d5 1c3e
-0.06496143 0.025841782 -0.18507293 -0.029544624 0.02142184 -0.29832685 -0.18272214 0.0065333624
-0.09294769 0.2744077 -0.24348085 -0.11710434 0.046900984 0.062263124 -0.124801256 0.051022228
-0.28885004 -0.07843448 0.3365417 -0.029394522 -0.06957971 -0.050318807 -0.014765405 0.078281075
-0.038954474 0.20651829 0.15404482 0.19529608 -0.0041546477 -0.042158514 0.2858406 -0.2760166
-0.07466791 -0.08453542 0.05057462 0.03819462 -0.082616575 0.03540606 -0.10883402 0.13557959
0.03380893 0.10871731 0.19390278 -0.06565003 0.05891135 -0.16482306 -0.0461002 0.20524687
0.0044856295 -0.046802387 -0.12957393 -0.020090595 -0.13281988 0.12467536 0.122572646 -0.016560268
0.31727427 0.17443846 -0.08126456 0.057575 0.29233703 -0.057479434 0.047676902 0.11353054
-0.011206998 0.1402129 0.163951 -0.17412913 -0.030371722 0.06797922 0.12743066 0.06812089
0.17491181 0.01588819 -0.009264032 0.017154744 -0.07969077 0.076532595 -0.08686053 0.18510617
-0.04241273 -0.16297285 0.038396996 0.047077697 0.015851978 0.056598634 -0.013584402 0.052311927
0.044513468 0.0031626897 -0.08598107 -0.0037846135 0.021274777 -0.082636036 0.023773406 -0.24224201
-0.05848966 0.123582184 0.04938967 -0.044981185 0.21093512 0.13003303 -0.042033054 0.1458031
-0.08634442 0.065146245 -0.025442762 -0.0055544944 0.120323166 -0.039441273 -0.04502727 0.19149111
-0.1748837 0.16570406 -0.11560254 0.06588316 -0.20260185 -0.053817544 0.29535067 0.04174228
-0.06251851 0.15458249 0.020066798 0.003970527 0.104960136 -0.012521454 0.1490224 -0.012258193
0.1433607 -0.25706008 0.25519583 -0.020489471 0.0882572 -0.2807968 0.16734305 0.29251614
0.03381557 -0.21822758 0.05728375 -0.10233031 -0.17648771 0.2861057 -0.16338405 0.10446377
-0.43912658 -0.10829314 -0.14182423 -0.043177083 -0.37808967 -0.07874795 0.048483517 0.30153462
-0.21639898 -0.0805355 0.10965429 0.28115582 -0.2983369 -0.042013623 -0.030810839 0.42000806
0.15421793 -0.43507776 -0.27651244 0.058148008 -0.0351201 0.11002341 -0.28385222 -0.24628706
-0.15512834 -0.09947765 -0.08385106 -0.18801449 0.109250404 -0.05742255 -0.44376603 -0.1289478
-0.51838344 0.37718168 0.13339047 0.22382683 -0.25030154 -0.26385236 0.10306441 -0.14015357
0.29485884 0.40977272 -0.3143997 -0.17931063 -0.13188288 0.21931097 0.19013532 -0.106505096
-0.06543031 -0.20743239 0.0032469488 -0.14775415 0.3115569 -0.01830156 -0.03236523 0.39319834
-0.07361105 0.3677909 -0.14385882 -0.024730377 -0.14818057 -0.15887026 0.1695083 0.282833
0.08459 -0.31848055 0.17692588 0.27664122 -0.05850408 -0.20108113 -0.096202865 0.0010659938
0.179655 -0.254802 0.018123984 -0.016937286 -0.17223907 -0.04436403 0.5266606 0.15576093
-0.093752064 -0.14888532 -0.2724281 0.14432818 -0.046026994 -0.069109775 -0.15015693 0.1789282
-0.31733856 -0.35237467 0.11075062 -0.32842782 0.3462754 0.13452278 -0.14871424 0.07876369
-0.17018417 0.1897567 -0.27140132 0.14130905 0.12725496 -0.22221757 -0.1115594 0.0840357
0.25584424 -0.08831474 -0.017987708 0.07164842 0.09647248 0.07878707 -0.011407026 0.15315633

hidden.3.bias f4 [64]
00000000: 02d8 283d c7de 99bd 1297 c23e 2c44 cd3d
00000010: 03e6 733e 6805 9cbd 982e c6bd e75a bfbd
00000020: ccd3 083e 7af5 bfbe 98e7 01bb a468 16be
00000030: a259 2bbe 2103 29be e542 183e 959d f03d
00000040: 8d04 dfbd 365d 063e ec75 cb3b 693e 4a3d
00000050: 7b4f 703d 550b 4abd 3945 dabc 6510 843c
00000060: 8f51 453c 9d70 7c3e 2242 41bd a316 173e
00000070: f18e 283d c128 fbbc 4af6 23be 9990 5f3e
00000080: 8c27 463e e2da f83d c7ff 603c 145f 57bd
00000090: 3ee3 013e 9a19 b6bd 9884 b23c 3c59 93bc
000000a0: 9c69 3ebd 280b 9c3d 9ff2 0c3d e35b af3d
000000b0: 15fe 0cbd 19db 5b3e b7d7 203e e74d 2abe
000000c0: 4c1c 33be 4bce f13d 1423 093b c40b bdbd
000000d0: b13a 66bd 67e5 833d 58b3 eabd aa9f 13bc
000000e0: 710c 943e b43f a9bd 71a2 9bbd c079 443d
000000f0: 1401 513e 73f7 0abe 7d65 fb3d 4405 533e
0.041221626 -0.075131945 0.38005883 0.100227684 0.23818211 -0.07618219 -0.09676856 -0.0934351
0.13362044 -0.3749197 -0.0019821879 -0.14688355 -0.16733411 -0.165051 0.14869268 0.117488064
-0.1088954 0.13121495 0.0062091257 0.049375925 0.05866955 -0.049327213 -0.026644336 0.016121099
0.012043371 0.24652334 -0.04718221 0.14754729 0.041151945 -0.030659081 -0.1601192 0.21832503
0.19351023 0.121511236 0.013732857 -0.052580908 0.12684342 -0.08891602 0.021791741 -0.017986886
-0.046487436 0.076193154 0.03441107 0.08562448 -0.034422 0.21470298 0.15707289 -0.1663128
-0.17491263 0.118069254 0.002092545 -0.0923076 -0.056208316 0.064402394 -0.11459988 -0.009010235
0.28915742 -0.082641035 -0.075993426 0.047967672 0.20410568 -0.13570957 0.12275217 0.20607477

hidden.4.weight f4 [64, 64]
00000000: ba8d 8cbc 1fa6 4fbd 1996 e93c 29da 57bd
00000010: a357 833d dfe0 883d aff5 063e b4ae ea3c
00000020: 6910 d53c 264c 9d3d 47a8 21be 6bda f33c
00000030: df46 833d 8528 933c 231b ee3d d80f b2bd
00000040: c987 9b3d 7f4d 0bbe 0731 443e dfe3 13be
00000050: 70e8 fc3c b5e8 5ebd b48e 6b3e 6286 043e
00000060: 79a7 5c3e 43dd 0f3e 7c53 ed3c 0312 0b3e
00000070: a35d 203e 0640 f53d 79ad 813d 0c96 00be
00000080: 2173 12be 05f8 0ebe 537b c43d 8174 14be
00000090: 0946 6b3e 6275 5c3d 25df 423d 0878 6dbd
000000a0: c335 ebbd b1ec 803d 7c2e 92bd e76b 29bd
000000b0: 7e0c 0a3e 1856 d53d b0da 6b3e 0429 b1bd
000000c0: d361 53be 2df4 3bbd bf89 b63d 1079 48bd
000000d0: 1daf 673e 0325 22be 969e 163e 978a 92bd
000000e0: f1cf e0bd 9060 243d c350 bfbb 2127 96be
000000f0: 8efb d8bd 3a00 de3d 0e03 903d 2eff 0d3e
00000100: bf16 24be 8571 1b3d 59e3 6cbe cfec f03b
00000110: ab9f 1c3e 72fa 733a 79a3 8a3d eab0 0a3d
00000120: 3fad 763e cd84 863d e1c3 843d 7965 01be
00000130: 4d57 0dbd 4448 bf3d 2f1c 103e 7f4c ef3d
00000140: 850e a8bc c3b8 dabd f745 a83d cafd 893e
00000150: 549c ad3d 7aa4 e1bd 5a76 123e 8e45 453d
00000160: 2eaa 123e d9aa d6bd 1159 51be 8754 32bd
00000170: 5b87 313e 1a3c 4b3d 5839 0b3e 0b04 153d
00000180: 1b42 a1bd e356 403e 1e70 83be 7436 20be
00000190: 2c16 4fbd c0b0 62be 47a1 2d3e b5db 33be
000001a0: e49d 95bd f918 a13d eb61 1dbd 2cac 013e
000001b0: e19c f6bd 5c89 2f3d c765 a73c a066 23be
000001c0: 655a 223e 4df8 243e eb17 be3d a5ab 5d3e
000001d0: 8c1c 63bd 68c2 a8bd e7c5 b53d bf97 80be
000001e0: 93bb bebd 9154 04be a7c5 b03d ad2b 10bd
000001f0: 8281 283e 21a9 683e 3713 b1ba 585b e33d
00000200: a143 db3d c5f6 923d ac3b ea3d f7f1 f63d
00000210: b160 f23d cd58 bf3c 6249 ac3d 7de4 14bd
00000220: 63e6 463e 6378 84bd 92f2 b8bd 5809 6cbe
00000230: 5631 9fbd d3ae 6bbd 73c7 413d 141e a5bd
00000240: 0351 8b3e 0a12 adbc d610 553e ab38 be3d
00000250: beb4 d4bd 4552 14be e8a2 e9bc 1bf9 8dbd
00000260: 51a1 f53c 5280 20bd 1a75 c2bd 3f79 e13d
00000270: b5fc 323e 8f99 a93d 85ef 3fbd 56fa c0bd
00000280: 12b3 80bd 9426 943d d82c 053e 8f88 883e
00000290: e2ce 83bd 075e c73d b1db 4fbe 4eb8 853d
000002a0: 0b26 4c3e 0bdf 27bc 351e 97bd dc6d 55be
000002b0: 5d92 0fbe e3c5 a9bd bc09 5a3e 1651 a8be
000002c0: 9550 733e f28d 5bbe 0c1b 51bd f8a4 04be
000002d0: 7318 6ebe 0bf7 f7bd e912 9abd 1395 973d
000002e0: 92a6 f3bc 5a7d 523c d174 1ebe a87d 7d3d
000002f0: 366c 773e 321c c43d 8893 263e 4774 e7bd
00000300: ceb7 e83b b38b 583d 9944 43be 9ade 0a3d
00000310: 3c0e d13d 1644 903e db51 a5bd 31e2 743e
00000320: 8c59 903c 7f58 a2bc a087 1f3e 527c 073e
00000330: 8931 16be ff52 31bd fd7c b63e 3404 2f3d
00000340: 722c acbd 89d3 153d b70c c8bc 88ee 07bd
00000350: 0e51 2d3d 73ad b23d 65a7 ba3d f5a7 d1bc
00000360: 8c5d 5fbd 7291 25bd 5d5b 9c3d 2448 4e3e
00000370: 75ca 8dbc 804b 97ba 49d1 2b3e a999 e03d
00000380: dc63 52be 390d 843e 2093 74bd 9fb3 89bd
00000390: 83a8 d93d 0382 ab3c e1f9 883d b11a 9dbd
000003a0: 3923 afbd 721a e1bc 6b68 d43c 57c4 0abd
000003b0: ff84 5a3d 7fa2 0ebe 2a68 22bd 03eb 18be
000003c0: 2c3e 373d a987 093e cd76 43be e372 e0bc
000003d0: bd97 81bc a8ca 20bb 8bf4 3c3e 0a91 a53d
000003e0: 8fb9 7e3d 27eb 483c ea79 023d da95 003e
000003f0: c0a0 f73d 117c 893d 26e7 403c f978 2ebd
-0.017157424 -0.050695535 0.028513955 -0.052698288 0.064132 0.06683516 0.13179658 0.028647758
0.026008802 0.0768054 -0.15786849 0.029767236 0.06410002 0.017963657 0.1162627 -0.08694428
0.07594258 -0.13603781 0.19159327 -0.14442395 0.030872554 -0.054421145 0.23003656 0.12941888
0.21548261 0.14049248 0.028970473 0.1358109 0.1566072 0.11975102 0.063319154 -0.12557238
-0.1430173 -0.139618 0.09593835 -0.14497568 0.22975935 0.053822882 0.04757609 -0.0579758
-0.114848636 0.06295145 -0.071377724 -0.04136267 0.13481328 0.10416812 0.23032641 -0.08650401
-0.20642786 -0.04588716 0.08912992 -0.04894358 0.22625394 -0.15834431 0.14708933 -0.0715534
-0.10977162 0.04013115 -0.005838485 -0.29326728 -0.10594855 0.10839887 0.07031833 0.13866875
-0.16024302 0.037950058 -0.23133601 0.0073524485 0.15295283 0.00093070336 0.06769461 0.033860125
0.24089526 0.065682985 0.064826734 -0.12636365 -0.034507085 0.093399554 0.14073251 0.11684512
-0.020514736 -0.10679772 0.0821647 0.26951438 0.08477083 -0.110176995 0.1430296 0.048162036
0.14322731 -0.10481805 -0.20444132 -0.043537643 0.1733679 0.049617864 0.13596094 0.03638081
-0.07873937 0.18783145 -0.25671476 -0.15645772 -0.050558254 -0.22137737 0.16956054 -0.1756428
-0.07305506 0.07866091 -0.03842346 0.12663335 -0.12041641 0.042855605 0.020434273 -0.15957117
0.15854795 0.16110344 0.09281906 0.21647508 -0.055447146 -0.08240205 0.088756375 -0.25115773
-0.09313121 -0.12922885 0.08631449 -0.035197902 0.16455653 0.22720768 -0.0013509755 0.11101407
0.107062586 0.07175974 0.11437163 0.1205787 0.11834849 0.023357773 0.08412434 -0.036350716
0.19423823 -0.064682744 -0.090306416 -0.2305044 -0.07773082 -0.057539772 0.04730935 -0.080623776
0.27210245 -0.021126766 0.20807204 0.09288152 -0.10386036 -0.14484508 -0.028520063 -0.06932279
0.029984148 -0.039184876 -0.094949916 0.11009454 0.17479213 0.08281242 -0.046859283 -0.09422748
-0.06284155 0.07233921 0.13005388 0.26666686 -0.06435944 0.09734731 -0.2029865 0.06529294
0.19936387 -0.010246049 -0.073788084 -0.2084269 -0.14020677 -0.08289697 0.21292776 -0.32874364
0.23761208 -0.21440867 -0.051051185 -0.12953556 -0.23251514 -0.121076666 -0.07523138 0.074014805
-0.029742513 0.012847269 -0.1547425 0.061887413 0.24162373 0.0957569 0.16267216 -0.11301475
0.0071019894 0.052867603 -0.19069137 0.033903696 0.10207793 0.28176945 -0.08072253 0.2391441
0.017620824 -0.019817589 0.1557908 0.13231018 -0.14667334 -0.043292042 0.35642233 0.042728618
-0.08406915 0.03657869 -0.024420125 -0.033186466 0.042313628 0.08724489 0.09113959 -0.025592783
-0.054532573 -0.04042191 0.07634614 0.20144707 -0.017308453 -0.0011542886 0.16779055 0.10966808
-0.20545906 0.25791338 -0.05971062 -0.06723713 0.10627844 0.020936018 0.066882856 -0.076711066
-0.0855164 -0.02747843 0.025928697 -0.03387865 0.05334949 -0.13929175 -0.03965012 -0.149334
0.044737026 0.13430656 -0.19088288 -0.027398532 -0.015819425 -0.0024534855 0.1845266 0.08084305
0.06218868 0.012263096 0.031854548 0.12557164 0.120912075 0.06713117 0.01177386 -0.042595837

hidden.4.bias f4 [64]
00000000: d004 623c 22b4 97bd 0889 2bbd 00d2 6cba
00000010: c059 b63d 8030 b23d 10fd 133d 5a12 833d
00000020: 2a5a ed3d 401f 1ebb a07b c43b 80f2 b4bc
00000030: d0b0 bfbc a8d2 fabd 70ae 7ebd 307d 703c
00000040: 60b4 1d3d dc40 febd 3ca7 9e3d ee0e e6bd
00000050: 903d a1bc 3ed1 d1bd 6c2b 2dbd 9cfb 90bd
00000060: b843 a7bd 681a 8cbd f4d3 be3d 5086 e43c
00000070: 2265 dd3d 50c4 67bd 4eed a7bd faf6 a13d
00000080: ba9d f83d ba4b dcbd 0428 9dbd 6ca9 fc3d
00000090: 8cc1 283d 70c3 d4bc 8a3a b03d 629b b6bd
000000a0: 88b3 ebbd 42ea 903d e083 093c d48c 733d
000000b0: f4af a33d 3875 9c3c 500b ffbd c8b8 ad3d
000000c0: 38dc 26bd c02a c2bb 30aa 693d 28fa abbc
000000d0: 807c 22bc c013 febd f8d4 363d 42f5 e9bd
000000e0: fc60 fe3d 98d3 bb3d caec f33d 4675 803d
000000f0: 9024 593d 406c 3dbc c05f 543c 789b 07bd
0.013795093 -0.074074045 -0.04187873 -0.0009033978 0.08903837 0.08700657 0.03613001 0.06399985
0.11589463 -0.0024127513 0.0059961826 -0.02208829 -0.02339974 -0.12247211 -0.062178075 0.0146782845
0.038502097 -0.12414715 0.07746741 -0.11233316 -0.019682676 -0.10244988 -0.04227774 -0.07079241
-0.08167213 -0.06840974 0.093177706 0.027896076 0.10810305 -0.056583703 -0.08199559 0.07908435
0.12139459 -0.10756631 -0.07673648 0.12337002 0.041200206 -0.025972098 0.086049154 -0.08916356
-0.11508852 0.07075931 0.008393258 0.059460476 0.07992545 0.019098863 -0.124533296 0.0848251
-0.04073736 -0.0059255064 0.05704707 -0.020993307 -0.009917378 -0.12406111 0.044636697 -0.11423732
0.12420842 0.09171218 0.11910398 0.06272368 0.053013384 -0.011561453 0.012962282 -0.03310725

output.weight f4 [9, 64]
00000000: 28eb 3abd fc62 413e 96b4 b9be 152d e23d
00000010: 050b 11bd 2ed4 54be fd50 afbd 83fd e3bd
00000020: 0f36 10be 8868 843f ea31 31be 73ad 9cbd
00000030: ca0e e0bd f8ad eb3e 23ea 333d 5370 67be
00000040: e8a1 96be 8fd4 08bf 1587 eb3e 3b8d 003d
00000050: 19c1 2f3e 33c4 203f a034 69be 46ba 4bbe
00000060: 75ee 3cbe e98c 683e 6c2d 213f e6dd a23d
00000070: 60db 41bf 75db babe e651 c9bd cef4 b8bb
00000080: 0a8f 183d e5e8 83be 8f00 4fbe 8c77 fbbe
00000090: 31ed 8a3c e2f7 43be 6035 23bc 6a45 333d
000000a0: a8aa 073f b56b 163d 7259 f03d f29f 89be
000000b0: 3395 883d 50bf 0c3d cd1f e73d e793 143d
000000c0: 66c5 9d3d 69cd 6ebe c89e 31bd d1d1 1abf
000000d0: 8bb2 803f 1c17 223e 7d7e 8ebd c172 03bf
000000e0: 3e91 383e 2f33 7a3c 848c 903e 0c44 c0bd
000000f0: 6248 8c3e 7329 44bc 5fa7 69bd 8b6c e23e
00000100: 16ee 88be ee3b d43d 1a1c a0be c1d6 5dbf
00000110: d12d ac3e adb9 babe 2a49 d7be ba43 11bc
00000120: c82a e0bd ea36 7fbf 2461 fc3e 019b a9bf
00000130: b021 d53d 8291 f7be 049e 0dbe a50a 1d3f
00000140: d034 52bf b915 1d3a cf66 7abf 8fd1 72be
00000150: 71ae 92bc 12df 283f 0d60 c13e 1d2a a63f
00000160: 1212 553c 09f6 be3d e0d7 a8be 690c afbf
00000170: ae68 42be c959 6b3e deaf 2abe 7973 35be
00000180: cb68 ecbd 01b4 0abe 4e0b 053f 501f 77bf
00000190: 211f 2dbf 80df a33e 6810 0e3f a6b0 8ebd
000001a0: 2d65 003f 25a1 a23c c11e 3e3d 905c 083f
000001b0: 976a 01be 891e 4d3e f28d c7be 54aa f5be
000001c0: e780 843d 2fbc 23be 07e6 8b3e 00cf 9a3f
000001d0: a88c 47bf 79ba cc3e fd9a f23e 3478 a2bf
000001e0: 6967 2cbe 1f37 3a3e d860 723e 50a3 9d3e
000001f0: cd3c 02bd 706f 3e3e 2460 51bc 4256 0bbf
00000200: 2998 85be 00f9 8ebe b722 b93d 5550 8c3c
00000210: c86d 9d3d 0240 833e 2fce ff3c 4ab1 633d
00000220: 8652 ccbc 8ccd efbe 5950 98be 4b23 f33c
00000230: e328 90be db29 333b 8775 a3bc 7e3e 3f3e
00000240: 532a f63c c88f 3dbd 8ce6 9dbc 1378 85bd
00000250: 94b9 633c 9ac6 e0bd 6452 b6bd 4237 ed3b
00000260: c9b4 44bc 5a54 f3bd 76d3 2e3e 78d4 96bd
00000270: 39a6 15be 2939 dcbd 6a61 213d 9148 5cbd
00000280: 7684 d6bc 3685 42be e80d 09be 43eb a5bd
00000290: 6de8 a9bd 4788 2c3e 750f e03c f8b6 f5bd
000002a0: c392 9dbb 7ac2 51bd 3127 113e b354 5dbe
000002b0: ebfd edbd 381e 27bd d4ad 25be 5248 853d
000002c0: d1d4 54be 5ce2 46bd f8ba 34be 131b 163e
000002d0: 40ea 05be 7210 74bd be26 c0bd 2112 493e
000002e0: e8a7 44be 964b 3dbe 4c98 5a3c 5e3a 1f3e
000002f0: 6d18 273e 30ff 793e 3c8e fc3c 0637 68be
00000300: eff9 c83e 2c04 68bd 4f77 b3bd 874f 96bc
00000310: 12c2 8abb ebe0 d43e aca6 2a3e 1834 d2be
00000320: 5f51 cb3d 6d7e f6bd 6d2f 0b3e 3ffc 93be
00000330: 5cc1 313d 8a6e 24be 9bed 083e 4af4 d63d
00000340: 5551 e23d 97d4 b93d cb38 083d 9d99 d3bd
00000350: 5dd8 af3d 8d6d c2bc 9069 80be 54c4 983e
00000360: 6a29 c3bc 2c11 89bd a50f 11be 7205 a2bd
00000370: f6d8 55be 6c23 123e 60a6 cebd 7b7a b4bd
00000380: ee63 223d 63ef 9b3e a96b bebd 1db3 0b3e
00000390: 8592 8ebe e38e 0dbd edab 753e e9f6 a2bd
000003a0: 54a4 f0bd 6672 f0bd 0fcc 1b3b 4d53 53be
000003b0: 5923 423e e49a 923e d606 1c3e 40da 9c3d
000003c0: 0312 82bc d14b 693e 7632 88b9 bd3d e43d
000003d0: 06f5 833d 4d46 1abf 202b 003e 0502 073e
000003e0: 1087 f9bd 9085 ed3b ad9d 4239 9640 6abe
000003f0: 9518 bbbb d6d0 dc3c 39ab a6bd ea13 5f3e
-0.04563442 0.18885416 -0.3627059 0.11043755 -0.0354109 -0.20784065 -0.08560369 -0.11132338
-0.14083122 1.03444 -0.17304197 -0.0765027 -0.10940321 0.46031165 0.043924462 -0.22601442
-0.294204 -0.5344934 0.46001497 0.031384688 0.17163505 0.62799376 -0.22773981 -0.19895276
-0.18450339 0.22710003 0.62959933 0.0795248 -0.75725365 -0.36495557 -0.09830074 -0.0056444174
0.037245788 -0.25763622 -0.20215057 -0.49114645 0.016958805 -0.19137529 -0.009961456 0.04376737
0.52994776 0.03672381 0.1173581 -0.2687984 0.066690825 0.034362137 0.112853624 0.036273863
0.077036664 -0.23320545 -0.043364316 -0.60476404 1.0054487 0.15829128 -0.069577195 -0.51346976
0.18024155 0.015270992 0.28232205 -0.09387979 0.27398974 -0.011972773 -0.057044383 0.44223437
-0.26744145 0.10362993 -0.3127144 -0.86655813 0.33628705 -0.36469784 -0.42048007 -0.008866245
-0.1094566 -0.9969317 0.49292862 -1.3250428 0.10406816 -0.483532 -0.1382981 0.6134437
-0.82111835 0.00059923116 -0.97813123 -0.23712753 -0.017905446 0.6596538 0.37768593 1.2981602
0.013004797 0.09324271 -0.329772 -1.3675662 -0.18985245 0.22983469 -0.1666865 -0.1771983
-0.11543425 -0.13545229 0.51970375 -0.96532154 -0.67625624 0.32006454 0.55493784 -0.06967287
0.5015438 0.01985223 0.046416048 0.5326624 -0.12638317 0.2003118 -0.38975483 -0.47981513
0.06469899 -0.15989755 0.27323934 1.2094421 -0.77949 0.39986017 0.47383872 -1.2692933
-0.16836323 0.1818509 0.23669755 0.3078866 -0.031796265 0.18597198 -0.012779269 -0.54428494
-0.2609265 -0.27924347 0.090398245 0.017128149 0.07686955 0.25634772 0.031226246 0.055588998
-0.024941694 -0.46836507 -0.297488 0.029679915 -0.28156194 0.002733818 -0.019953502 0.18676183
0.030049479 -0.0462797 -0.019274972 -0.06517043 0.013899226 -0.1097538 -0.089024335 0.0072392533
-0.012005993 -0.11881323 0.17072853 -0.07364744 -0.1461419 -0.1075309 0.039399542 -0.053780142
-0.02618621 -0.18996128 -0.13384211 -0.08101513 -0.08296285 0.1684886 0.02735112 -0.11997789
-0.004808755 -0.051210858 0.14175107 -0.21614341 -0.11620697 -0.040800303 -0.16179591 0.06507935
-0.20784308 -0.048555717 -0.17649448 0.14658765 -0.1307764 -0.059585996 -0.093823895 0.19635822
-0.19204676 -0.18485865 0.0133419745 0.15549609 0.16317911 0.24413753 0.030829541 -0.2267724
0.39253184 -0.056644604 -0.08762991 -0.018348468 -0.0042345608 0.4157785 0.16665143 -0.4105537
0.0992763 -0.120358326 0.1359231 -0.28903386 0.043397292 -0.16057792 0.1337189 0.10495813
0.11050669 0.090737514 0.033257287 -0.10332034 0.0858619 -0.023733879 -0.25080538 0.29837286
-0.023823459 -0.066927284 -0.14166124 -0.07911195 -0.20883545 0.14271325 -0.10090327 -0.08812424
0.03964608 0.30456075 -0.09297878 0.13642545 -0.2784616 -0.034560096 0.23991366 -0.079572506
-0.11750093 -0.1174057 0.0023772751 -0.20637245 0.18958797 0.28633797 0.15236983 0.076588154
-0.01587773 0.22782828 -0.00025977538 0.11144588 0.06443219 -0.6026352 0.12516451 0.13184364
-0.12183964 0.007248588 0.0001856002 -0.228762 -0.0057097175 0.02695505 -0.08138127 0.2178494

output.bias f4 [9]
00000000: 5a91 00bd 65a4 683b 7470 213d 7fcc 603c
00000010: f91c 1d3e 7de4 b53d 4c14 4abe 025a d43d
00000020: 11ae 293e
-0.031388618 0.0035498377 0.039413884 0.013720631 0.15343083 0.08881471 -0.19734305 0.1036873
0.16570307
