results/2_weighting/SM_AVR_GOVDynamicNN_1_1000_80000_100000_10000_None_None_1_0.001_0.0001_0.001_MA.pth (torch, 77617 bytes, 12 tensors)

hidden.0.weight f4 [64, 10]
00000000: c453 24bf 2f0d 763d c9f2 f13d aff5 13bd
00000010: db64 8bbe bbb9 92be fddd 6fbe 4dab 4d3e
00000020: 532b e6be 2c28 b5bc 3ce5 853f 070f cdbc
00000030: 2517 03be 62a5 903b 046e 1c3f 304c b03e
00000040: 74c5 123f e39c b23e d459 9d3e a9d5 933e
00000050: 9beb 8abd c511 513b 5d20 9e3c 8112 983c
00000060: 84f6 bbbd dbbb 99bd 6817 58bd cb05 153e
00000070: 403f d9bd 964e 48be 563e 20be cbef d73e
00000080: 364a 87bd 3b59 583c 9e9b aabe 9381 9abe
00000090: 01d4 b9be cd9e 75be 47df cebd 6ae3 0dbe
000000a0: 1e6a f0be e668 f9bd b90f f93c 6c5a 40bd
000000b0: aec3 dc3e b2c7 d73c 23bb 513c d12d d7bd
000000c0: 4355 6bbe aed5 b8be bbff 09bd f1c7 413e
000000d0: b6fe 84bd a991 85be 404f 9fbe b0e5 75be
000000e0: 8007 8fbe b344 1fbe 2e2b 91bc 158e 293e
000000f0: d1d3 0b3f 4690 b3be bdfb 033e 2b84 46be
00000100: 7c28 803c c120 17be 5e86 cabe 76e1 51be
00000110: e683 933e 3a3e c8b8 d1c2 543f 65af 033e
00000120: 4e9a 95bd 220c 473e 7367 d8be 9d5a 39be
00000130: b2de 3f3d 1ecc c1bc a72e f2bd e82a 82be
00000140: ef2d 903f fbff a8bd 0631 b7bd f697 c3be
00000150: 68b6 b83d daf6 81bc b2bb 713d 7dc6 eebd
00000160: b60b 9cbd 33ed 063e 3253 ca3e fedb 8bbe
00000170: 4dc8 233b 0943 3dbe 18a1 b83d df48 463e
00000180: 83e1 883d e6a0 96bd 1722 3b3e 8ec4 0b3d
00000190: 9251 b43f 85a7 253c 06c8 23be 91df 8c3d
000001a0: e8f1 e4bd 025d e83a f1ab 0ebe 12b2 bb3d
000001b0: 9f38 803e 0a01 983e 554d 4abf 18bf 123f
000001c0: de26 e5bc 77eb 083e e593 0fbe d01c 413e
000001d0: 14bd 3f3e 6f97 22bd 2f23 b9bd b209 453d
000001e0: 8830 e03d 9748 bd3d 3044 0cbe db12 813d
000001f0: a883 053e b520 823e 13fb d43e 5d28 c73e
00000200: 007c b73e 5885 493d 8c72 c43d 8a28 0c3e
00000210: 1bec 9fbd 1d86 4bbe c852 a9bd 2d6e 77be
00000220: 5353 cd3b ea21 43be 03c3 97bd 121d b43d
00000230: 0c5a 6cc0 4de8 753d 7532 213d 9613 2abe
00000240: 2822 273e b3cf 41be a46a c6be 619b b9bd
00000250: e0ef 04be 758e d23d 1b9c f23e f435 87be
00000260: 0a85 573d 8baf 0fbe 6170 a83d 22fc 953d
00000270: d403 c03e 56aa 9c3e d00f 093e aea9 263e
00000280: 8c22 92bc 8bef 20be c3d3 13be ac07 0a3c
00000290: 38f2 43bd 0523 4c3e 2ce0 d13d bd5f b13e
000002a0: aaab 85be 35e5 5b3e 267a 8bbf 025f a23e
000002b0: 64eb f33d 57d1 ae3e fcc4 c5be 0849 f03e
000002c0: 2250 1e3e 9f25 413e eb51 733e 2389 493d
000002d0: 82cf 99bf 5658 0cbf 9cb1 d93c 1cf1 343d
000002e0: 71ff febd f71d ae3c bd16 c5be 0ca6 533e
000002f0: a016 08be df79 b5bd a00e 3c3e 630f 9ebe
00000300: d63e f1bd dfd7 4f3e c545 88be f4bb cbbe
00000310: 1ac8 f5be a07b 4ebe 8902 f0bd 5f85 99be
00000320: dea7 24bf f3e9 453e fca0 493d f116 633e
00000330: a10c 01be 0022 aa3d efdc 1ebe 8e5c 483e
00000340: 41a2 c33c 068d 77bb 774c 9ebf 62d3 153d
00000350: 14d2 05be 1fea 483d 9c78 913e 1a58 143d
00000360: 9118 c83d 365d f73b 4e03 20be 183a 58be
00000370: 2f55 1e3e 5a60 45be df96 7dbd cfb7 a23c
00000380: b6bd f4bd 79fc 903e 2313 65be 1af7 123d
00000390: 4294 363d b304 b53d f8b0 94be fde1 833d
000003a0: 6400 e33d 83fb bf3d b859 4fbe e5eb af3d
000003b0: bc12 983e dad6 b83c ddea 723e 84d5 913e
000003c0: 7d84 153f 3a65 a43e f6eb 773e ea68 0ebe
000003d0: dbaf edbb c946 8cbe efa3 0cbe 9f40 55be
000003e0: 6182 dbbd 4c8e 91be fa28 fbbf 23e8 253e
000003f0: 7f77 05be 280b 83be 69bd bdbe 18e1 e2bd
-0.64190316 0.060071167 0.11813886 -0.036122974 -0.27225384 -0.28657326 -0.23424526 0.20084877
-0.4495493 -0.022113882 1.0460582 -0.02503158 -0.12801798 0.0044142464 0.6110537 0.34433126
0.5733254 0.3488532 0.30732596 0.28873947 -0.067832194 0.003190146 0.019302541 0.01856351
-0.091778785 -0.07506534 -0.052756697 0.14552991 -0.10607767 -0.19561228 -0.1564878 0.42175135
-0.066059515 0.013204868 -0.33321851 -0.30176982 -0.3629456 -0.23986359 -0.101011805 -0.13856283
-0.4695596 -0.12178211 0.030403005 -0.046961233 0.43118042 0.02634034 0.0128009645 -0.10506786
-0.22981744 -0.36100525 -0.03369115 0.18923928 -0.06493895 -0.26087692 -0.3111515 -0.240134
-0.2793541 -0.1555355 -0.017720785 0.16558106 0.5462008 -0.3507101 0.12889 -0.19386356
0.015644304 -0.14758588 -0.3955564 -0.20496163 0.28811568 -9.548334e-05 0.83109766 0.12859876
-0.07304822 0.19438222 -0.42266425 -0.18100972 0.04684324 -0.023656901 -0.118253045 -0.2542336
1.1264018 -0.082519494 -0.08944897 -0.38201874 0.09019166 -0.015864778 0.05901689 -0.116589524
-0.07619421 0.13176422 0.39516598 -0.27316278 0.0024991215 -0.18482603 0.09015101 0.19363736
0.06683638 -0.07354908 0.18274723 0.034122996 1.4087393 0.010110741 -0.15994272 0.068785794
-0.111789525 0.0017727914 -0.13932778 0.091648236 0.25043198 0.29688293 -0.7902425 0.57322836
-0.027972635 0.13371073 -0.14021261 0.18858647 0.18724471 -0.0396952 -0.09039914 0.04810495
0.109467566 0.09242361 -0.13697886 0.063024245 0.13038504 0.25415578 0.41597804 0.38897982
0.35836792 0.049199432 0.095921606 0.1368734 -0.078087054 -0.19875379 -0.082677424 -0.24163122
0.0062660365 -0.19055906 -0.074102424 0.08794607 -3.692996 0.060035992 0.03935476 -0.16609034
0.16321623 -0.18926887 -0.38753235 -0.09062839 -0.1298213 0.10281078 0.47384724 -0.2640835
0.05261711 -0.14031808 0.082245596 0.07323481 0.3750292 0.30598706 0.13384938 0.16275665
-0.017838739 -0.15716378 -0.1443625 0.008424681 -0.04783842 0.19935234 0.102478355 0.34643355
-0.26107532 0.21474154 -1.0896652 0.3171311 0.119101316 0.3414409 -0.3862685 0.46930718
0.15460256 0.18862008 0.23761718 0.04920305 -1.2016451 -0.5482229 0.026573949 0.044175252
-0.12451065 0.021254523 -0.3849391 0.2066881 -0.13289881 -0.08861136 0.18364954 -0.30871114
-0.11779563 0.20297192 -0.2661573 -0.39791834 -0.48004228 -0.20164347 -0.117192335 -0.29984567
-0.64318645 0.19327526 0.049225792 0.2217672 -0.12602474 0.08307266 -0.15513967 0.19566557
0.02388108 -0.0037773266 -1.2367085 0.036578543 -0.1306842 0.0490514 0.2841233 0.036216833
0.09770311 0.0075489534 -0.1562626 -0.21115911 0.15462182 -0.19275036 -0.06191146 0.019863037
-0.11950247 0.2831762 -0.22370581 0.035880186 0.044574983 0.08838787 -0.29041266 0.06439588
0.11084059 0.09374144 -0.20249069 0.08589915 0.29701793 0.022563387 0.23722406 0.28483212
0.58405286 0.3210848 0.24211106 -0.13907209 -0.0072536296 -0.27397755 -0.1373441 -0.20825432
-0.10718227 -0.28428876 -1.962188 0.16201834 -0.13033865 -0.2559445 -0.3705857 -0.110780895

hidden.0.bias f4 [64]
00000000: bb09 253e e242 863e faf6 00be 842c ac3d
00000010: b76f 88be dcb9 183e 67b0 4ebe 582d 873e
00000020: 28b7 babc bcec ba3e 05f3 1dbe 6475 b3bb
00000030: c936 f83e fc1d d5be e49d 17be 8f0c 053e
00000040: 3c35 a53e 3302 0b3e c61f c1be 1299 2cbe
00000050: 266e dd3d 996a 48be 9267 673e 0706 8b3e
00000060: d26c 2bbd ad98 903d 35a7 083e 7bc7 d33e
00000070: f4e6 a03c 5caf 9f3e 8edb 4f3e a486 bc3e
00000080: 0ec3 97be 6db3 983c cd97 0fbe 1051 453e
00000090: cd79 61bd 9d52 b2bd 8c5c f1bd 1c51 7abd
000000a0: 2a4d a8bd a29c 05be fa88 1fbb 2d1e ed3e
000000b0: fc40 bf3e 1384 b53e b813 66bd 9751 553d
000000c0: 7f06 843e db0d cd3d 9b81 3abe e246 3bbe
000000d0: 31a6 b83e e374 953e 4715 f3bd 1260 8d3e
000000e0: 2a30 703e 2a57 4ebe 1161 21be d44c 02be
000000f0: 8f0a fc3d b5ef 9d3d 723b 993d b985 9dbe
0.16116993 0.26222903 -0.12594214 0.08406928 -0.26647732 0.1491465 -0.2018448 0.26401782
-0.022792414 0.3650874 -0.15424736 -0.0054766405 0.48479298 -0.4162444 -0.14806324 0.12993072
0.32267177 0.13575058 -0.37719554 -0.16855267 0.10812025 -0.19571914 0.22598103 0.27153036
-0.041851826 0.070603706 0.13345034 0.4136313 0.019641377 0.31188476 0.20298597 0.36821473
-0.29641002 0.018640244 -0.14022751 0.19269204 -0.0550478 -0.087071635 -0.1178523 -0.06111251
-0.08217843 -0.13048032 -0.002434312 0.46312085 0.37354267 0.35452327 -0.05617115 0.052079763
0.25786206 0.10012408 -0.18213503 -0.18288758 0.36064294 0.2919074 -0.11869293 0.27612358
0.23455873 -0.20150438 -0.15759684 -0.1272462 0.123067014 0.07711736 0.074820414 -0.30766085

hidden.1.weight f4 [64, 64]
00000000: 4506 633d d88b 0a3e 183b a03c ca3a ee3d
00000010: cd0b c63c cca8 803c 5b99 a63d 53b6 dabd
00000020: b5ff eebd 9f4e 8ebe f5f4 c7bc 0a10 fcbd
00000030: 8f0e 9abe 5e96 6d3e 24ef 3fbe cfc3 d8bc
00000040: d69a a4be e332 bfbd 302a 0bbd 52f2 1dbd
00000050: c12e 173d c915 36be 730e a93c b863 8dbd
00000060: 8255 943c 3e9e b8bd b08c 1fbe 6767 21bd
00000070: e9ab 803d 085c 5d3d 554b 6ebd d160 91be
00000080: 57ea 273e 66a5 93be e3af 8ebc b9cb 39be
00000090: 5dc9 01be 6afc c7bd 8153 823e a135 913e
000000a0: d0b2 403c adab 453e f6f9 9cbd 3d0c 8e3c
000000b0: 4b9a 10bd 8d37 01be a2c7 2e3d 31e7 dfbc
000000c0: 3eae 17bd 0d82 50be c34f 9c3e 9426 663e
000000d0: 45ad 6fbd e247 22bd be1c 14bd f679 ccbd
000000e0: d11b 8ebe 1879 143e 1e21 8a3e 2b59 4fbe
000000f0: 9b20 bfbc 8307 c0be e81e 85be 4bd9 013e
00000100: a67a adbe aba0 0d3e 9794 84bd 953b 56bd
00000110: a66d 733e 49b4 d6bd ae29 5bbd 0ad7 df3d
00000120: a701 993d 1944 1b3d 48c2 b43d 22c3 a03e
00000130: 2d9f 7cbe b883 703e 3e24 55be 76d9 2ebd
00000140: 37c0 7ebe c954 3cbe 203e 2fbd f699 013e
00000150: 62c0 83be 4acc 743d 23d0 fd3c 1f83 d4bd
00000160: 6f9f 633e 2fc4 79be 76a3 9c3e 7118 54bd
00000170: 8107 0ebe 2edc 04bd ac3e 9fbd 6c65 51be
00000180: 9704 1b3e 881b 90bd 90c5 243d 6872 55be
00000190: e87e 123e d07a 133e e977 fc3d 9fe8 8c3e
000001a0: e106 10bd b853 f0bd 55d8 82be ad4f aabd
000001b0: 018e 983c 7fe4 91bd 59f0 aa3c 0aa9 9c3c
000001c0: ca90 2dbe 56db 3fbe a9a3 043d 6c48 193e
000001d0: e0c6 7abd ba69 0fbd ad35 013d 58c3 53be
000001e0: cccb c4be d0a4 263e 134f a53d e721 16be
000001f0: a479 503d 8432 b93d 3043 60bd 4bd6 8b3e
00000200: 253a 51bc 7275 ebbc 37be 1ebe afcd 833c
00000210: 03ec 323e 3e79 9f3d 89f6 c93d 8703 a0bd
00000220: b84c cdbd 83cf 943c f5ef b23d c4ed 0b3e
00000230: 0298 82bd cc17 463e cbb6 473e 8016 123e
00000240: 23e4 7f3d 2729 a43d a5d3 09be 840c 3fbe
00000250: 74cb 9b3b dc8d 87bd abe1 cfbd 5772 b23d
00000260: 492e e23c ff27 df3d bf54 a0bd abe1 8c3d
00000270: b2f1 ad3d c1c9 21be e20f 0cbd dfdc 3a3e
00000280: 779c ed3d 2ee2 d53c 9c86 1fbe 3d50 f03d
00000290: 895a cfbc f5a7 353e 1e19 ccbc d4b9 80be
000002a0: 8eb8 97bd 6108 5f3d 964d ac3d b4e0 a53d
000002b0: e033 40be 9447 cbbd 660c 693d 4d13 e0bd
000002c0: e86c 23bd e26d e03c cf39 49be f60d 66bd
000002d0: 22e1 70bd 3772 95bd 8b82 0e3e d1ae adbd
000002e0: 1382 c73d 389f d6bd 266e 1f3d 8718 50bd
000002f0: 288b 64bd dbe1 d6bc 802a 14be 9705 9abd
00000300: 448a fd3d e45f d5bd be4b 3e3d fa24 e9bc
00000310: 8497 f6bd ca08 373d 377d e0bd 881a b3be
00000320: c7f2 5cbe 68ac 95be 06d6 3dbe 7402 9a3d
00000330: 6a22 523d 97c0 f5bc 450c 983e 1be0 89bd
00000340: c282 513e f5d0 903d bf10 e53d 8590 b03e
00000350: 1092 fc3c 726a 993d 31f1 8dbe f73d e23d
00000360: 90bf ecbd 153b 813d f3eb fdba e968 943d
00000370: e344 303e 9d53 523e 2efc ef3d 9841 2f3c
00000380: 7a11 b33d f428 c2bd 6d5e 22be 3214 97be
00000390: 8e8b 35be 606f bb3c 62dd 853d f775 b73c
000003a0: 3cb1 b6bd 9a5d 07bd c069 edba ba23 a13d
000003b0: 1d61 a23d 96bb 7c3e b1c4 a03d c3c2 153d
000003c0: f31e 303d aa41 573e c639 913e 1189 3cbe
000003d0: 2097 4abe 9dfa 82bd b9a0 9f3e 60ba a93d
000003e0: c1ed 04be 9777 693e c438 853c a942 d33d
000003f0: df96 a5bd 6761 0f3e 0e46 873e fd52 c1bd
0.0554259 0.13529909 0.019559428 0.11632307 0.024175549 0.015705489 0.08134719 -0.10679307
-0.11669866 -0.27794358 -0.024408797 -0.12307747 -0.30089232 0.23201892 -0.18743569 -0.026460556
-0.3214938 -0.09335878 -0.03397578 -0.038561173 0.036909822 -0.17781748 0.020636773 -0.069037855
0.01810718 -0.09014557 -0.15581012 -0.039405253 0.06282789 0.054042846 -0.05817731 -0.28394178
0.16397987 -0.28837126 -0.017417854 -0.1814412 -0.1267447 -0.09764941 0.25454333 0.28361228
0.011761382 0.1930377 -0.07664864 0.01733982 -0.035303395 -0.12618847 0.042670853 -0.02733192
-0.037031405 -0.2036211 0.30529603 0.22475654 -0.058514852 -0.039619334 -0.036160223 -0.099842
-0.27755597 0.14499319 0.2697839 -0.20248859 -0.023330977 -0.3750573 -0.26000142 0.12680547
-0.33882636 0.13830821 -0.06473654 -0.052302916 0.23772296 -0.104836054 -0.053506546 0.10929687
0.07471018 0.03790674 0.08826119 0.31398875 -0.24670096 0.23487747 -0.20814607 -0.042687856
-0.24878012 -0.18391718 -0.042783856 0.12656388 -0.25732714 0.059765138 0.030983036 -0.10376572
0.22228788 -0.24391244 0.3059346 -0.05178112 -0.1387005 -0.032436542 -0.077756256 -0.20448846
0.1513847 -0.07036501 0.040227473 -0.20844424 0.14306223 0.14402318 0.123275585 0.27521226
-0.03516281 -0.11734718 -0.25555673 -0.08315978 0.0186224 -0.0712366 0.02086656 0.019123573
-0.16949764 -0.18736014 0.03238264 0.14969033 -0.06122482 -0.035012938 0.03154533 -0.20679986
-0.38436735 0.16273808 0.08071723 -0.1466137 0.050897256 0.09042838 -0.054751575 0.2731193
-0.01277021 -0.028742526 -0.15502249 0.016089289 0.17472844 0.07786797 0.09861476 -0.07813173
-0.100243986 0.018165356 0.087371744 0.13664919 -0.063766494 0.19345015 0.19503324 0.14266396
0.062473428 0.08015662 -0.13459642 -0.18657118 0.004754478 -0.066188544 -0.101504646 0.08713215
0.027609961 0.108963005 -0.07828664 0.0687898 0.08493365 -0.1579962 -0.034194835 0.18248318
0.11602109 0.026108827 -0.15578693 0.11734054 -0.025311725 0.17739852 -0.02491432 -0.25141776
-0.07408248 0.05445135 0.08413236 0.08099499 -0.18769789 -0.09925762 0.05689659 -0.10941181
-0.039898783 0.027396146 -0.19650958 -0.056165658 -0.058808453 -0.072971754 0.13916986 -0.08480609
0.097416066 -0.10479587 0.038923405 -0.05080464 -0.055796772 -0.026230743 -0.14469337 -0.075205974
0.12379888 -0.1041868 0.046458952 -0.028460015 -0.12040618 0.044686116 -0.10961383 -0.3498118
-0.21576987 -0.29233098 -0.18538675 0.07519999 0.05130235 -0.02999906 0.2969686 -0.06732198
0.20460036 0.070711054 0.11184835 0.3448526 0.030831367 0.07491006 -0.27723077 0.11046975
-0.11559975 0.06310097 -0.0019372687 0.072465725 0.17213778 0.20539708 0.11718021 0.010696791
0.08743568 -0.094804674 -0.15856333 -0.29507595 -0.17729017 0.022880256 0.06536366 0.022395117
-0.089205235 -0.03304825 -0.0018113181 0.078681424 0.07928679 0.24680933 0.07850016 0.036562692
0.042998265 0.21021143 0.2836439 -0.18411662 -0.19784212 -0.06395457 0.3117731 0.08287501
-0.12981321 0.22799526 0.01626242 0.10315449 -0.08085417 0.14002 0.26420635 -0.09439657

hidden.1.bias f4 [64]
00000000: 2daf 84be 72c1 83be 0de1 c3bc 6246 18be
00000010: 6a5a 46be 94dc 15be d9b1 893d 8a17 563d
00000020: 4a42 9a3d fd7c dc3c 691c 8a3e a17e 9b3e
00000030: af49 f63d fc42 e3be b1f7 ccbb b148 f0bd
00000040: c3cb a8be db93 d4bd a412 8b3e 42c7 a4bd
00000050: 4657 873e 15f3 773e 24fe db3d 0aab 203e
00000060: 8dfd 01be e5ae b83e 2e94 0cbe e84d a2bd
00000070: 4233 8d3e de0a 21be f836 113e 0fa8 353d
00000080: cb73 81be f995 cc3e 54a8 a53e 4914 fdbb
00000090: 4604 b3bc 0e27 143d ed29 9d3d 709c 53be
000000a0: 9f39 a4bd 68af 3f3d 5983 8e3d 96a4 0bbe
000000b0: e0b2 d7be 57c7 a23d 955e ce3d bb68 263d
000000c0: 196a 483c 9a2b 3f3e 7fe9 cbbc 36cc a13e
000000d0: 6b79 55be d978 19be 9ca2 c63d b65e aabc
000000e0: 925a 853d 8e9f b43d 9d43 fd3c b635 843d
000000f0: 9017 f13d 1224 433e d7d0 38be 4b3a 85be
-0.259149 -0.25733525 -0.023911024 -0.14870599 -0.19370428 -0.14634925 0.06723375 0.052268542
0.07532175 0.026915068 0.269748 0.30370048 0.12025773 -0.44387043 -0.006255113 -0.11732615
-0.32967958 -0.10379764 0.2716266 -0.08045818 0.26433772 0.24213822 0.10741833 0.15690246
-0.12694378 0.36070934 -0.13728401 -0.07925016 0.2757817 -0.15726802 0.14181125 0.044349726
-0.25283656 0.3995817 0.32354987 -0.0077233654 -0.021852624 0.036170058 0.07674012 -0.20665145
-0.08018803 0.04679814 0.06958646 -0.13637003 -0.42128658 0.07948177 0.10076634 0.040627223
0.012232327 0.18668976 -0.024891613 0.31601113 -0.20847099 -0.14987506 0.09698984 -0.020797115
0.065114155 0.08819495 0.03091603 0.06455557 0.11772072 0.19056728 -0.18048416 -0.26021037

hidden.2.weight f4 [64, 64]
00000000: c669 d03c 255b 93be 17b5 1fbe 658b 20bb
00000010: 1317 8dbd 6269 37be c762 d8bd 02b5 233e
00000020: 8d8f 8cbb fb47 a1bd 9700 0b3e 406b 693d
00000030: d9c3 933d c613 7e3d da30 6ebe eb3d 863c
00000040: c7b7 a3be 80ce 9fbe 0aec b63b 0614 efbd
00000050: fd5c 163d 6c7b 053e f27b 3f3e 9901 063e
00000060: 106b e7bd 9ebc a63e 82fd 6dbd ccf6 813d
00000070: 4873 e9bd 06b7 05be 159a b03d f0c7 5abd
00000080: 4836 f9bd 484d 0a3e 6e1f ae3e c08b abbd
00000090: 4425 c93d c462 5c3e a14d 293d 728b 53bd
000000a0: c3d1 003e f38a dbbb 1752 06be e4f8 1cbe
000000b0: 2846 8ebe ae28 b93b c30e 76bd 866b f3bc
000000c0: 6b83 ccbd a6fc 473b 5e5f 4abe 10da a53e
000000d0: 34b5 e1bc 7936 673d c2f0 07be bd46 763d
000000e0: b542 d4bd ab6c 803d c388 cc3d 1e9d fb3c
000000f0: 3801 3f3e d0f9 6abd 17bb 82be d7fd 32bd
00000100: e1f3 c7be 6ce2 3cbe ae7b c0bd 4e20 1e3e
00000110: 4214 0ebd 4754 81be d7b5 333e 1ca1 f33c
00000120: 1ac3 ef3d caf9 f03d f0c6 43be ee43 953d
00000130: a45a 86be 1ff2 70bc b310 503e def9 a83d
00000140: 850f 84be 3678 be3d f58d 87bd 1f39 043e
00000150: e974 363e 28fa a13d d508 173e 0449 c73d
00000160: 24d3 e6bc 7b15 7e3d bcd1 2f3e 3cdc e23d
00000170: 8d9a 2b3d b4c2 e7be 6a05 003e 94fa ad3c
00000180: cc61 1a3e 9f97 09bd 3e13 01bd 165f 60be
00000190: 9e98 dfbc c746 70bd 8fbf 173d 484f 36be
000001a0: b948 713e ad3a 6bbc 8283 023e 5bd9 e8bd
000001b0: f0a0 9ebd 5538 c8bd bd1f 533d 9c31 783d
000001c0: b42e 803e 7a68 563e b464 32be edf6 223d
000001d0: ac7b 1abe f52a be3d 45d7 adbc 4e47 2dbe
000001e0: 8c8a 05be 14da b63d 4b9b 42be 0888 4e3d
000001f0: 6cb0 7a3e c34b 85bd b18b 2abe 4c42 a3bd
00000200: 71b0 07be 39d7 b7bd 3e0d ee3d 4886 b1bd
00000210: ed54 983d 5d3f 143d f949 2cbe cb5b 6fbd
00000220: 8672 833d 7fd6 04bd c6a7 373e 7f4a 73bd
00000230: 4d2e 2c3e e598 ea3d cd20 383e b4e2 683e
00000240: 6b22 d63d 9dc2 a93d a93d c2bd b6a7 b63d
00000250: 7fe8 d8bd ab93 1f3c 12da 0a3d 1925 063e
00000260: 688f ce3c 2755 353d d10d 413d ae43 0a3e
00000270: b106 edbd fe30 0b3e f67a 6fbd 8713 85be
00000280: 5cd4 103e 637d 4cbe 9867 aebc 352d 353e
00000290: 8e1c 1a3e 70f0 1d3d 30d0 eebd d5a6 6ebd
000002a0: f0cd 263d 588e 723d a37b 84be 6ce6 933d
000002b0: 12ff 80bd 68aa 5dbd 7419 9ebd c60c 36bd
000002c0: 5f94 b13d c19a 323e 7dbd 283c b270 5bbc
000002d0: 6965 52be a8ab 07be b60a 393d e702 543e
000002e0: ed18 6f3d 6acd f83d 2c94 183e b3b4 5c3e
000002f0: 0a66 dd3d 5baa 91bb b531 80bc 57dc b0be
00000300: 4e9b 323c 87b9 8bbe 4474 61bc ab48 e2bd
00000310: 2ab9 2abe b00c 7bbd 3e21 b73d a085 d33d
00000320: 56bf 61be 2337 933e 67f5 a5b9 a1e7 8abd
00000330: 9e6a 5fbe 56c8 0ebe c3c7 fcbc 9c44 b23c
00000340: 4b2f 913a 29bd 493d 389c 163e dc8c 2cbe
00000350: 5e2f 88bc 771b bc3d 9ec4 bb3d 2632 ee3d
00000360: d911 333e d0b3 243e e762 e3be 56eb 0cbe
00000370: c5a6 d03c f860 bdbc c104 a13e 7b78 c03c
00000380: ca80 06be 656b 9c3c e375 183e 67de 123d
00000390: baa4 853e 12bb 5d3e 92eb a83e b390 ca3d
000003a0: 1e58 a3bb d0e7 6dbd fb88 983e a2ab 71bd
000003b0: 0e85 183e 7a3b 203d 66d9 8b3d 925b b9bc
000003c0: ddde 7f3e 9c6b 333d c7bf 4d3e 4b9c 563e
000003d0: 232a 62bd bdf8 12bd d3a9 72be 3981 83be
000003e0: 11c9 eebd 5d18 cebe 9344 af3d 07dc fbbb
000003f0: b5b4 8bbc 4012 52be 84bc 993d 5345 28bd
0.025441062 -0.28780475 -0.15596424 -0.0024497148 -0.06889167 -0.17911294 -0.10565715 0.15987018
-0.0042895735 -0.07875057 0.13574444 0.056987047 0.07215089 0.062030576 -0.23260823 0.016386947
-0.31976148 -0.31212234 0.0055823373 -0.11673741 0.036709774 0.13035363 0.18699625 0.13086547
-0.112997174 0.32565778 -0.058103092 0.06345901 -0.11398941 -0.13058099 0.08623139 -0.05341333
-0.121685565 0.13506043 0.34008354 -0.083762646 0.09821561 0.21522051 0.0413338 -0.051646657
0.12580018 -0.0066999136 -0.13117252 -0.15329319 -0.277879 0.0056506013 -0.06007267 -0.029714357
-0.099860035 0.003051558 -0.19762942 0.3239293 -0.027552225 0.056448434 -0.13275436 0.060126055
-0.10364286 0.06270727 0.09987023 0.030714568 0.18652809 -0.057367146 -0.25533363 -0.04369911
-0.39053252 -0.18445748 -0.0939859 0.15442011 -0.034687288 -0.2525961 0.17549835 0.029739909
0.117071345 0.117663935 -0.19118857 0.07288347 -0.26241028 -0.014706164 0.2031887 0.082507834
-0.2579309 0.09300272 -0.06618873 0.12912415 0.17818035 0.07909042 0.14749463 0.097307235
-0.028176852 0.062032204 0.17169851 0.110771626 0.041895438 -0.45265734 0.12502065 0.021237649
0.15076369 -0.033591863 -0.03151249 -0.21911272 -0.027294453 -0.05866125 0.03704792 -0.17803681
0.23562898 -0.014357251 0.12745479 -0.11369582 -0.0774554 -0.097763695 0.05154394 0.060594186
0.25035632 0.20938292 -0.17421228 0.039786268 -0.1508624 0.09285537 -0.021220813 -0.16921732
-0.13041133 0.08928314 -0.19004552 0.0504227 0.24481362 -0.06508591 -0.1665485 -0.079716295
-0.13250901 -0.08976597 0.116236195 -0.0866819 0.07438073 0.03619324 -0.16825093 -0.05843715
0.06418328 -0.032431122 0.17935094 -0.059397217 0.16814537 0.114549436 0.17981263 0.2274273
0.104557835 0.08289073 -0.09484417 0.08918707 -0.1059122 0.009739797 0.033899374 0.13100089
0.025214866 0.04427066 0.047132317 0.1350238 -0.11573542 0.13592908 -0.058466874 -0.2599146
0.14143509 -0.19969706 -0.021289632 0.17693026 0.15049955 0.038559377 -0.11660802 -0.058264572
0.04072374 0.05921778 -0.25875577 0.07221684 -0.06298651 -0.05411759 -0.077196985 -0.044445775
0.08670878 0.17441846 0.010299084 -0.013393568 -0.20546497 -0.13249075 0.04517623 0.20704232
0.05837338 0.121485546 0.14900273 0.21553306 0.10810478 -0.004445357 -0.015648702 -0.34543106
0.010901285 -0.27289984 -0.01376063 -0.110490166 -0.16672197 -0.061291397 0.08941887 0.10328221
-0.22045645 0.28753003 -0.0003165409 -0.06782461 -0.21818015 -0.1394361 -0.030856973 0.021761231
0.0011076716 0.049252663 0.1470803 -0.16850609 -0.016624149 0.09184926 0.09168361 0.11630659
0.17487277 0.16084218 -0.44411394 -0.13761649 0.025470147 -0.023117527 0.3144894 0.02349495
-0.13135067 0.019094178 0.1488872 0.03585663 0.2610224 0.21653393 0.32992226 0.098908804
-0.0049848696 -0.0580824 0.29792008 -0.059001572 0.14894506 0.03911922 0.06828575 -0.022626672
0.2498736 0.043803796 0.20092689 0.20958059 -0.055215966 -0.035881747 -0.23697595 -0.25684527
-0.11659444 -0.40252963 0.08558001 -0.0076861414 -0.017053941 -0.20514774 0.075066596 -0.041081738

hidden.2.bias f4 [64]
00000000: 18fc 703e 8a6a 513e 62ac 2f3e 0fc9 f93c
00000010: 4cd4 76bc 0a16 3f3e 1d6f 973d 37f6 913d
00000020: cad0 2abd c879 e63d ef5f a33e f966 113d
00000030: 2c73 673e f2ea ca3d d04a 56be cb04 723d
00000040: c064 4d3c dc61 11be 6dd1 8a3c b0be 63be
00000050: 5426 62be f7a0 163d 6fac 573e 1339 27be
00000060: 6aa9 ddbd a6ee b73d 9607 aa3e c563 aa3e
00000070: 3d31 09bd effa 963c 411b 2bbd f1ca 6c3e
00000080: 2733 8e3e 3e30 4abe 3d08 133c 631a ffbd
00000090: d3d7 5ebc 2606 8dbd 87d7 0fbb 7e16 0ebe
000000a0: 4a0c 69bd 6131 3a3d e459 fa3d 40ef 093e
000000b0: 213d af3c 781f b23d abc0 293c ca48 d93d
000000c0: f895 9ebd 13d6 7e3e 9ed6 d03b 35fc af3e
000000d0: 29f6 82be ad11 853b f71b 443e fe06 95bd
000000e0: f6bc e93d 765b 3a3d 5fa1 aebe 9e8c 83be
000000f0: 0098 4dbe ad8f d23d 829d 2b3e 298e c7bd
0.23533666 0.20450798 0.17155603 0.03049138 -0.015065264 0.18660751 0.0739424 0.0712704
-0.041703023 0.11253697 0.3190913 0.035498593 0.22602528 0.099080935 -0.20926976 0.059086602
0.012536228 -0.14197487 0.016945565 -0.2224071 -0.22084934 0.0367746 0.21061872 -0.16330366
-0.10823329 0.089810655 0.33208913 0.33279243 -0.033494223 0.018430201 -0.04177404 0.23124291
0.277734 -0.19744965 0.008974132 -0.12456205 -0.013601261 -0.06885938 -0.0021948533 -0.13875768
-0.056896485 0.045457248 0.122241765 0.13470173 0.021391453 0.086974084 0.010360877 0.106095865
-0.07743448 0.2488635 0.0063732406 0.34372106 -0.2557843 0.004060945 0.19151293 -0.07276724
0.114129946 0.04549738 -0.3410749 -0.2569322 -0.20077515 0.1028131 0.16759303 -0.09743912

hidden.3.weight f4 [64, 64]
00000000: a338 98bd 2f09 be3c 702b 88bd 50a3 3abd
00000010: 111b 143d dbd3 a6be 635c c0bd e71f 4e3d
00000020: 095f 9d3c 8f6d 033f 3c62 76be b0fc 04be
00000030: 2edc 30bd 7cf2 d23d 7188 a6bd 173e 913d
00000040: 8fb9 fbbe 8767 67be c25f ae3e 243d c7bd
00000050: 6e3d fa3b 52d5 8abd 2773 f53c b2d4 b7bc
00000060: c64a 7f3e 72ac 0b3c eb06 b33d 49e8 d33d
00000070: 2247 03bd edb7 a13b 685f a53e a895 84be
00000080: af94 0cbe a202 a2bd 974a 093c 0248 973d
00000090: d83f 28be 6ea0 1b3d 740e f03d 32d3 2f3d
000000a0: 4e37 bbbd 3f6a f63d ca95 863e 24aa 16bd
000000b0: f3dd 1a3e a818 93be 128e 25be 1a51 953c
000000c0: 75da cf3c 525c b3bd 16ac 25be a243 7ebd
000000d0: 6543 75be aeab 913c 6f53 c23d cfbf 05bc
000000e0: 3198 cc3e 266b 633d b9de 2bbe e4b4 053e
000000f0: 438b b23e c27f ecbd 1b08 c9bc 8f34 94bc
00000100: 1014 4e3d 2a4b 193e 9957 a33d 96f9 1fbe
00000110: ff37 433c 9ca6 ec3d 13a7 8a3d 631e b93e
00000120: ab61 253e 326a bc3d 19eb aa3d ff48 7a3d
00000130: 5eb0 14bd 91b4 b1bd 786e d6bd 6787 fc3d
00000140: b8d2 e3bc 9ab6 b6bd ba43 ee3d d972 a23c
00000150: 3059 2e3d 298c 053f f08d f53d 0603 8ebc
00000160: 3c0b 123d 3543 b7bd 2d5b 55bc fa40 b53c
00000170: 7d3e aabd 2ccb 0abe a2c2 973d 961f a0be
00000180: 801b 8fbd fa3c 113e ee54 89bd 9fcf 4d3c
00000190: 4fa0 183e f0ba 5fbd 9351 083e 20d0 383e
000001a0: b01b 87be 70d3 873d 3dcb 4b3e d702 463d
000001b0: 1346 303d 53df 35bd eaf1 03bd 9e52 813e
000001c0: 6171 6dbe 3b9e 393e 0de6 1ebe 2c50 c93d
000001d0: 5854 2fbe 2070 2ebd 8403 8a3e cba0 993d
000001e0: b956 a7bc 8c58 813c f34c 0a3c 8d7e ad3b
000001f0: 9678 023e bb82 07bc 7f4b 233e 14fb 3a3d
00000200: 26b1 e03d 251b d8bd 12ba 163e f22e bdbd
00000210: 124a 843c c27b b6be a173 9c3e dda9 9f3e
00000220: 4059 1d3e 82da 27be ec02 123d 4bab 1fbe
00000230: 7d38 8abe 0e33 a33e b31d 15be 9986 00be
00000240: efa7 28bf e994 bdbc 04b8 53be 8682 37be
00000250: d0fc bdbe 21a2 22be e7c9 233d b603 143e
00000260: 8b69 52be a119 693d 960b ee3d 492a 5e3e
00000270: 7a31 6ebe 662d 7f3c a597 68bd e4d5 593e
00000280: 13d6 ac3e 4fd0 c3be f806 26be 4357 283d
00000290: 92bd c43c 8877 d73d 2c42 6bbe 34ab 83be
000002a0: d634 64bd 5dc0 5b3d ee55 f3bc 10ef 12be
000002b0: abf1 2f3d f74f abbd ff06 07bf e723 7cbe
000002c0: a8b3 79be 032b b23e e1f5 673e 3e3c 4c3e
000002d0: 1f51 a9be 3df4 50be 517f 8b3d f334 823d
000002e0: 7949 6c3e 78b4 173f af1a 81be da08 28be
000002f0: 8017 08bd b66e 283e 1693 1c3e 72d4 cdbd
00000300: e9ed 97bd 0b7f 21be b800 b6bd 0f9a 49bd
00000310: 5434 9a3e f79b 29be 8287 14bc 3f3e 233e
00000320: 6e75 dbbd 7eac 9c3e 5e13 55be e306 bebd
00000330: 4cf7 7cbe 126c e8bd 2658 383e f79f ac3e
00000340: 227f 75be 11cc 80be 6719 623c 7c96 a73e
00000350: 0c19 77bd a544 9bbe 9df3 6cbe e1ec 37be
00000360: 7132 703e c5b4 e4be 65e0 d13d f97e 28bd
00000370: 80da efbd 6c8f b53d 9107 c73e 7dbe 33be
00000380: 916d 4abe c870 6cbd 05c7 e0be 1dda 233e
00000390: 8ab9 18bd 0268 8bbb e132 30be 4db6 ae3c
000003a0: 79b5 3ebe f229 88bc 70d4 72bd b0ed b7be
000003b0: f068 ce3e 6eae 3ebe ad6f 00be 8324 e1bc
000003c0: aacc 93be b6e1 203e e74d 3bbe 633a 143e
000003d0: 4b45 ff3d 1be7 80be 9d53 13be 68cf d13c
000003e0: 595f 6e3e 0da3 3dbe 2abe 5a38 4635 e33d
000003f0: 7e12 613e edb1 9e3d ac65 60bd 6425 0d3e
-0.074326776 0.023197738 -0.0664891 -0.045565903 0.036158625 -0.32583508 -0.09392621 0.050323393
0.019210355 0.5133905 -0.24060911 -0.12987018 -0.04317873 0.103001565 -0.08131493 0.07091921
-0.49165007 -0.22598086 0.34057432 -0.097284585 0.0076367175 -0.06778969 0.029962135 -0.022440288
0.24930868 0.008525001 0.08741554 0.10347039 -0.03205026 0.0049352557 0.32299352 -0.2589543
-0.13728593 -0.079106584 0.0083796 0.07386781 -0.16430604 0.037994795 0.11721507 0.04292602
-0.09141408 0.120319836 0.26286155 -0.036783352 0.1512373 -0.2872975 -0.16167477 0.018227149
0.025372723 -0.08757843 -0.16178927 -0.06207622 -0.2395149 0.017782059 0.0948857 -0.0081634065
0.39959863 0.055522107 -0.1678418 0.13057286 0.34871873 -0.11547805 -0.024539998 -0.018091468
0.0503121 0.14970079 0.07975692 -0.15622553 0.011915206 0.11555216 0.06770148 0.36155996
0.16150539 0.09199943 0.083456226 0.06110477 -0.03630101 -0.086770184 -0.10470289 0.123305134
-0.02781044 -0.08921547 0.116340116 0.019830154 0.042565525 0.5216699 0.11989963 -0.017335426
0.035655245 -0.089483656 -0.013022226 0.02212571 -0.083127 -0.13554066 0.0741017 -0.31274098
-0.06987667 0.14183417 -0.06705652 0.012561708 0.14904903 -0.054621637 0.13312368 0.18048143
-0.2638831 0.066321254 0.19901748 0.048342552 0.043035578 -0.04440243 -0.03221313 0.25258344
-0.23187782 0.18126766 -0.15517445 0.09829745 -0.17122018 -0.0425874 0.26955807 0.07501372
-0.020427095 0.015789293 0.008441198 0.005294627 0.12741312 -0.008270915 0.15946768 0.045649603
0.109712884 -0.105520524 0.14719418 -0.0923747 0.0161486 -0.35641295 0.30556968 0.31184283
0.15366077 -0.16391948 0.035647318 -0.15592687 -0.26996222 0.3187489 -0.1456211 -0.12551345
-0.65881246 -0.023142295 -0.20675665 -0.17920884 -0.37106943 -0.1588216 0.03998747 0.1445454
-0.20548074 0.056909207 0.116233036 0.21695818 -0.23261061 0.015574789 -0.056785244 0.21272999
0.33757076 -0.38244864 -0.16213596 0.041098844 0.024016175 0.10520846 -0.22974461 -0.25716555
-0.05571445 0.05365025 -0.02970406 -0.14349008 0.042955082 -0.083648615 -0.5274505 -0.2462307
-0.2438494 0.3479844 0.22652389 0.19944856 -0.33069703 -0.2040567 0.06811393 0.063577555
0.23074903 0.5925975 -0.2521567 -0.16409627 -0.033225536 0.16448483 0.15290484 -0.10050286
-0.07418425 -0.1577112 -0.08886856 -0.049219187 0.30118048 -0.16563402 -0.009065511 0.15941714
-0.10715757 0.3060035 -0.20808169 -0.09278657 -0.24703711 -0.11348738 0.18002376 0.33715793
-0.23974279 -0.2515569 0.013800002 0.32731998 -0.06032662 -0.3032581 -0.23139806 -0.17961456
0.23456742 -0.44669166 0.10247878 -0.041136716 -0.117115974 0.08865246 0.3887296 -0.17553134
-0.19768359 -0.057724744 -0.4390184 0.16001172 -0.03728632 -0.004254342 -0.17206909 0.021327162
-0.18623914 -0.016621564 -0.059284627 -0.3592353 0.40314436 -0.18621227 -0.12542601 -0.02748323
-0.28867084 0.15711102 -0.18291436 0.14475398 0.124643885 -0.2517632 -0.14387365 0.025611594
0.2327856 -0.1851923 5.2152354e-05 0.110941455 0.2197971 0.077487804 -0.05478446 0.13783795

hidden.3.bias f4 [64]
00000000: 8ad5 283d 3551 8bbd fd91 b53e 876b f23d
00000010: 0e22 863e 21e0 8ebd e1cc 02be 6368 e9bd
00000020: 2327 2a3e fa13 c3be a9f2 0abe ee8a 0ebe
00000030: b4d6 61be 7bfe 56be b5ca fc3d 1c47 013e
00000040: c7d1 4ebe 3337 5f3e 2820 a33d 5768 ea3d
00000050: 903a 29bd fd48 a5bc 8663 07be cdac 0abe
00000060: d0c5 e0bd 702f 8e3e 8d84 5c3d 4658 283e
00000070: 8a17 ca3d f0a3 f2bd 5c02 15be 8345 a33e
00000080: 1787 4c3d 7bc3 9a3d 23a5 67bd 55a9 d2bd
00000090: 17b0 d53d 05bf d6bd 6934 0c3d b71f 8abd
000000a0: a3ba cbbc 74ad 2d3d 67c7 303d 93aa 853d
000000b0: 643c b6bc b9d8 843e 1761 183e e093 0cbe
000000c0: 12e2 84be 3b67 253e a8f1 0abd 2fd2 a6bd
000000d0: 3141 6abd 6550 5abb 010c 25be 8eb3 e13c
000000e0: c67a a83e 4223 18be 2c8c 0cbe 8dfa dc3d
000000f0: 45b1 333e f0ac b5bd f0ad 513e 0a78 1e3e
0.04121927 -0.068025984 0.35462943 0.118369155 0.26197857 -0.06976343 -0.12773468 -0.11396863
0.16616492 -0.38101178 -0.1356913 -0.13920185 -0.22054559 -0.20995514 0.12343351 0.12624782
-0.20197211 0.217984 0.07965118 0.114456825 -0.041315615 -0.020176405 -0.13221559 -0.13542481
-0.1097523 0.27770567 0.053837348 0.16439924 0.09867771 -0.11847675 -0.14551681 0.3188897
0.04993352 0.07556816 -0.05655397 -0.10286204 0.10433977 -0.10485653 0.03422967 -0.067443304
-0.024869269 0.042401746 0.043158915 0.06526675 -0.022245593 0.25946596 0.14880787 -0.13728285
-0.25953728 0.1615266 -0.033921868 -0.08145558 -0.057191078 -0.003331208 -0.1611786 0.027551439
0.3290617 -0.148572 -0.13725346 0.10789976 0.17548092 -0.08870876 0.20476508 0.15475479

hidden.4.weight f4 [64, 64]
00000000: ba8d 8cbc 1fa6 4fbd 1996 e93c 29da 57bd
00000010: a357 833d dfe0 883d aff5 063e b4ae ea3c
00000020: 6910 d53c 264c 9d3d 47a8 21be 6bda f33c
00000030: df46 833d 8528 933c 231b ee3d d80f b2bd
00000040: c987 9b3d 7f4d 0bbe 0731 443e dfe3 13be
00000050: 70e8 fc3c b5e8 5ebd b48e 6b3e 6286 043e
00000060: 79a7 5c3e 43dd 0f3e 7c53 ed3c 0312 0b3e
00000070: a35d 203e 0640 f53d 79ad 813d 0c96 00be
00000080: 2173 12be 05f8 0ebe 537b c43d 8174 14be
00000090: 0946 6b3e 6275 5c3d 25df 423d 0878 6dbd
000000a0: c335 ebbd b1ec 803d 7c2e 92bd e76b 29bd
000000b0: 7e0c 0a3e 1856 d53d b0da 6b3e 0429 b1bd
000000c0: d361 53be 2df4 3bbd bf89 b63d 1079 48bd
000000d0: 1daf 673e 0325 22be 969e 163e 978a 92bd
000000e0: f1cf e0bd 9060 243d c350 bfbb 2127 96be
000000f0: 8efb d8bd 3a00 de3d 0e03 903d 2eff 0d3e
00000100: bf16 24be 8571 1b3d 59e3 6cbe cfec f03b
00000110: ab9f 1c3e 72fa 733a 79a3 8a3d eab0 0a3d
00000120: 3fad 763e cd84 863d e1c3 843d 7965 01be
00000130: 4d57 0dbd 4448 bf3d 2f1c 103e 7f4c ef3d
00000140: 850e a8bc c3b8 dabd f745 a83d cafd 893e
00000150: 549c ad3d 7aa4 e1bd 5a76 123e 8e45 453d
00000160: 2eaa 123e d9aa d6bd 1159 51be 8754 32bd
00000170: 5b87 313e 1a3c 4b3d 5839 0b3e 0b04 153d
00000180: 1b42 a1bd e356 403e 1e70 83be 7436 20be
00000190: 2c16 4fbd c0b0 62be 47a1 2d3e b5db 33be
000001a0: e49d 95bd f918 a13d eb61 1dbd 2cac 013e
000001b0: e19c f6bd 5c89 2f3d c765 a73c a066 23be
000001c0: 655a 223e 4df8 243e eb17 be3d a5ab 5d3e
000001d0: 8c1c 63bd 68c2 a8bd e7c5 b53d bf97 80be
000001e0: 93bb bebd 9154 04be a7c5 b03d ad2b 10bd
000001f0: 8281 283e 21a9 683e 3713 b1ba 585b e33d
00000200: a143 db3d c5f6 923d ac3b ea3d f7f1 f63d
00000210: b160 f23d cd58 bf3c 6249 ac3d 7de4 14bd
00000220: 63e6 463e 6378 84bd 92f2 b8bd 5809 6cbe
00000230: 5631 9fbd d3ae 6bbd 73c7 413d 141e a5bd
00000240: 0351 8b3e 0a12 adbc d610 553e ab38 be3d
00000250: beb4 d4bd 4552 14be e8a2 e9bc 1bf9 8dbd
00000260: 51a1 f53c 5280 20bd 1a75 c2bd 3f79 e13d
00000270: b5fc 323e 8f99 a93d 85ef 3fbd 56fa c0bd
00000280: 12b3 80bd 9426 943d d82c 053e 8f88 883e
00000290: e2ce 83bd 075e c73d b1db 4fbe 4eb8 853d
000002a0: 0b26 4c3e 0bdf 27bc 351e 97bd dc6d 55be
000002b0: 5d92 0fbe e3c5 a9bd bc09 5a3e 1651 a8be
000002c0: 9550 733e f28d 5bbe 0c1b 51bd f8a4 04be
000002d0: 7318 6ebe 0bf7 f7bd e912 9abd 1395 973d
000002e0: 92a6 f3bc 5a7d 523c d174 1ebe a87d 7d3d
000002f0: 366c 773e 321c c43d 8893 263e 4774 e7bd
00000300: ceb7 e83b b38b 583d 9944 43be 9ade 0a3d
00000310: 3c0e d13d 1644 903e db51 a5bd 31e2 743e
00000320: 8c59 903c 7f58 a2bc a087 1f3e 527c 073e
00000330: 8931 16be ff52 31bd fd7c b63e 3404 2f3d
00000340: 722c acbd 89d3 153d b70c c8bc 88ee 07bd
00000350: 0e51 2d3d 73ad b23d 65a7 ba3d f5a7 d1bc
00000360: 8c5d 5fbd 7291 25bd 5d5b 9c3d 2448 4e3e
00000370: 75ca 8dbc 804b 97ba 49d1 2b3e a999 e03d
00000380: dc63 52be 390d 843e 2093 74bd 9fb3 89bd
00000390: 83a8 d93d 0382 ab3c e1f9 883d b11a 9dbd
000003a0: 3923 afbd 721a e1bc 6b68 d43c 57c4 0abd
000003b0: ff84 5a3d 7fa2 0ebe 2a68 22bd 03eb 18be
000003c0: 2c3e 373d a987 093e cd76 43be e372 e0bc
000003d0: bd97 81bc a8ca 20bb 8bf4 3c3e 0a91 a53d
000003e0: 8fb9 7e3d 27eb 483c ea79 023d da95 003e
000003f0: c0a0 f73d 117c 893d 26e7 403c f978 2ebd
-0.017157424 -0.050695535 0.028513955 -0.052698288 0.064132 0.06683516 0.13179658 0.028647758
0.026008802 0.0768054 -0.15786849 0.029767236 0.06410002 0.017963657 0.1162627 -0.08694428
0.07594258 -0.13603781 0.19159327 -0.14442395 0.030872554 -0.054421145 0.23003656 0.12941888
0.21548261 0.14049248 0.028970473 0.1358109 0.1566072 0.11975102 0.063319154 -0.12557238
-0.1430173 -0.139618 0.09593835 -0.14497568 0.22975935 0.053822882 0.04757609 -0.0579758
-0.114848636 0.06295145 -0.071377724 -0.04136267 0.13481328 0.10416812 0.23032641 -0.08650401
-0.20642786 -0.04588716 0.08912992 -0.04894358 0.22625394 -0.15834431 0.14708933 -0.0715534
-0.10977162 0.04013115 -0.005838485 -0.29326728 -0.10594855 0.10839887 0.07031833 0.13866875
-0.16024302 0.037950058 -0.23133601 0.0073524485 0.15295283 0.00093070336 0.06769461 0.033860125
0.24089526 0.065682985 0.064826734 -0.12636365 -0.034507085 0.093399554 0.14073251 0.11684512
-0.020514736 -0.10679772 0.0821647 0.26951438 0.08477083 -0.110176995 0.1430296 0.048162036
0.14322731 -0.10481805 -0.20444132 -0.043537643 0.1733679 0.049617864 0.13596094 0.03638081
-0.07873937 0.18783145 -0.25671476 -0.15645772 -0.050558254 -0.22137737 0.16956054 -0.1756428
-0.07305506 0.07866091 -0.03842346 0.12663335 -0.12041641 0.042855605 0.020434273 -0.15957117
0.15854795 0.16110344 0.09281906 0.21647508 -0.055447146 -0.08240205 0.088756375 -0.25115773
-0.09313121 -0.12922885 0.08631449 -0.035197902 0.16455653 0.22720768 -0.0013509755 0.11101407
0.107062586 0.07175974 0.11437163 0.1205787 0.11834849 0.023357773 0.08412434 -0.036350716
0.19423823 -0.064682744 -0.090306416 -0.2305044 -0.07773082 -0.057539772 0.04730935 -0.080623776
0.27210245 -0.021126766 0.20807204 0.09288152 -0.10386036 -0.14484508 -0.028520063 -0.06932279
0.029984148 -0.039184876 -0.094949916 0.11009454 0.17479213 0.08281242 -0.046859283 -0.09422748
-0.06284155 0.07233921 0.13005388 0.26666686 -0.06435944 0.09734731 -0.2029865 0.06529294
0.19936387 -0.010246049 -0.073788084 -0.2084269 -0.14020677 -0.08289697 0.21292776 -0.32874364
0.23761208 -0.21440867 -0.051051185 -0.12953556 -0.23251514 -0.121076666 -0.07523138 0.074014805
-0.029742513 0.012847269 -0.1547425 0.061887413 0.24162373 0.0957569 0.16267216 -0.11301475
0.0071019894 0.052867603 -0.19069137 0.033903696 0.10207793 0.28176945 -0.08072253 0.2391441
0.017620824 -0.019817589 0.1557908 0.13231018 -0.14667334 -0.043292042 0.35642233 0.042728618
-0.08406915 0.03657869 -0.024420125 -0.033186466 0.042313628 0.08724489 0.09113959 -0.025592783
-0.054532573 -0.04042191 0.07634614 0.20144707 -0.017308453 -0.0011542886 0.16779055 0.10966808
-0.20545906 0.25791338 -0.05971062 -0.06723713 0.10627844 0.020936018 0.066882856 -0.076711066
-0.0855164 -0.02747843 0.025928697 -0.03387865 0.05334949 -0.13929175 -0.03965012 -0.149334
0.044737026 0.13430656 -0.19088288 -0.027398532 -0.015819425 -0.0024534855 0.1845266 0.08084305
0.06218868 0.012263096 0.031854548 0.12557164 0.120912075 0.06713117 0.01177386 -0.042595837

hidden.4.bias f4 [64]
00000000: d004 623c 22b4 97bd 0889 2bbd 00d2 6cba
00000010: c059 b63d 8030 b23d 10fd 133d 5a12 833d
00000020: 2a5a ed3d 401f 1ebb a07b c43b 80f2 b4bc
00000030: d0b0 bfbc a8d2 fabd 70ae 7ebd 307d 703c
00000040: 60b4 1d3d dc40 febd 3ca7 9e3d ee0e e6bd
00000050: 903d a1bc 3ed1 d1bd 6c2b 2dbd 9cfb 90bd
00000060: b843 a7bd 681a 8cbd f4d3 be3d 5086 e43c
00000070: 2265 dd3d 50c4 67bd 4eed a7bd faf6 a13d
00000080: ba9d f83d ba4b dcbd 0428 9dbd 6ca9 fc3d
00000090: 8cc1 283d 70c3 d4bc 8a3a b03d 629b b6bd
000000a0: 88b3 ebbd 42ea 903d e083 093c d48c 733d
000000b0: f4af a33d 3875 9c3c 500b ffbd c8b8 ad3d
000000c0: 38dc 26bd c02a c2bb 30aa 693d 28fa abbc
000000d0: 807c 22bc c013 febd f8d4 363d 42f5 e9bd
000000e0: fc60 fe3d 98d3 bb3d caec f33d 4675 803d
000000f0: 9024 593d 406c 3dbc c05f 543c 789b 07bd
0.013795093 -0.074074045 -0.04187873 -0.0009033978 0.08903837 0.08700657 0.03613001 0.06399985
0.11589463 -0.0024127513 0.0059961826 -0.02208829 -0.02339974 -0.12247211 -0.062178075 0.0146782845
0.038502097 -0.12414715 0.07746741 -0.11233316 -0.019682676 -0.10244988 -0.04227774 -0.07079241
-0.08167213 -0.06840974 0.093177706 0.027896076 0.10810305 -0.056583703 -0.08199559 0.07908435
0.12139459 -0.10756631 -0.07673648 0.12337002 0.041200206 -0.025972098 0.086049154 -0.08916356
-0.11508852 0.07075931 0.008393258 0.059460476 0.07992545 0.019098863 -0.124533296 0.0848251
-0.04073736 -0.0059255064 0.05704707 -0.020993307 -0.009917378 -0.12406111 0.044636697 -0.11423732
0.12420842 0.09171218 0.11910398 0.06272368 0.053013384 -0.011561453 0.012962282 -0.03310725

output.weight f4 [9, 64]
00000000: cbe6 5ebd 45a7 d03e 2ae6 703d 9e7d 0e3e
00000010: d4e9 fdbd 90ac 86be 6a00 ba3d 2ff5 61be
00000020: f300 49be c133 873f 31cc aabe 9466 053e
00000030: ffd7 5ebd 962a 403f 4be0 f23d 6dd9 34bd
00000040: 66e9 2b3e 5c47 ecbe 5c8b 503e 1084 0d3d
00000050: 5439 bbbd 464b ef3e f3d4 13be 63f3 07bf
00000060: 4f69 10be 1020 503e eb14 413f 4d28 cd3d
00000070: a46e f7be c366 f1be 1655 1bbe 0ffe f23d
00000080: 5459 5f3e 7a53 c2be 3b3f 4bbe f92e 01bf
00000090: cf74 143e cf19 db3e a427 bb3d a3c7 d5be
000000a0: fad1 2e3e 9959 823e 26d4 253e d581 b8be
000000b0: 028b bf3d 2d90 8ebd cc22 4b3e f27a 203e
000000c0: 7a68 f63d aca3 90be beb0 d6bd 2269 dfbe
000000d0: b442 313f e5b5 153e f162 92be b279 203d
000000e0: 7d1b 193e c154 e93b fe3e 753e 03d5 32be
000000f0: 0670 973e cb44 bcbd 4ef6 57be 47ff 0d3f
00000100: 3cd8 15bf 255f 993e d851 b0be 50ac 4fbe
00000110: d3a5 963e 8390 47bf 63da f7bd f946 853e
00000120: b654 22bf 43bf 83bf 8365 a43c bbc6 20c0
00000130: 3448 cf3d e6b1 d0be 2dc6 38bd fedc 903e
00000140: b7c4 7dbe a725 f0bd e76f b4bf 3440 debe
00000150: f6d1 35bf 203e f73e b023 e23e c04d b33e
00000160: 4cf0 0f3e f0f5 813d 4170 76be 66f0 d3bf
00000170: 2a3b a73e 9de0 b63c 0082 0fbd fcbe a43d
00000180: 5d15 fa3e c41d 2fbf 4870 193f 28e3 46bf
00000190: 39f3 51bf cc68 cb3f 23ee 8a3e b795 abbe
000001a0: eef3 cf3c e960 ef3e 2fb5 77bd 89db d93e
000001b0: e2ea bdbd c887 203e 5be4 8ebe a4aa 93be
000001c0: 88fe 543d 5bc8 6cbe f13f 9f3e 9ae1 433f
000001d0: c678 b6bf 7e69 a23e 2186 b83e 62ac 1140
000001e0: ead5 c3be 3227 263d b219 8c3e 15d0 96bd
000001f0: c233 74be b99c a53e 3c31 683e 25ca 26bf
00000200: 7ed6 afbe 84ad 02be 2dc9 3ebe 3a77 16bd
00000210: 8d9d 10bd dd30 523e fac1 8bbd 8c1c e63d
00000220: 8823 213d 1024 fabe d1cf 74be 061a bf3c
00000230: 3228 a9be 87f1 a2bd fa78 96bd dfa9 b33d
00000240: e740 813d a595 27be b1f6 fabc 877a 1f3e
00000250: 5880 1f3d c77d 77bd 62be 29bd 98db 4c3d
00000260: e1a7 2a3d 26f9 59bd c7eb 85bd 7fa9 0fbd
00000270: 53d4 85be 352a 983d 40d3 c83c 149c 5dbe
00000280: 8c8d c03d dde8 1abc 7710 e63c bfab 98bd
00000290: 3b29 02be 0e10 a93c cd45 063d c6d7 ee3d
000002a0: a373 07bd 0d77 c33b 2561 093e c19d 0ebd
000002b0: f75d a1bd e384 03be a8bb 80bd 2286 30be
000002c0: 0faa 6bbe ac4a 1fbd 8fef 44be 5d7d 053e
000002d0: 3d24 1a3e a6d1 65bd d7a4 3dbd d1f2 31bd
000002e0: b749 e6bd f705 63bd 5a27 613d ef31 e03d
000002f0: ea3a 923d d160 a33e ab7d f03d 958b 8abe
00000300: 918e 3c3e d111 373d 94c4 9cbd 815b 353e
00000310: 5324 343e 9c54 8b3e 3158 ba3e 124c c2be
00000320: 4ce0 c53c ad05 1dbd 824c 19be 1daf bcbd
00000330: 775c a23c 7ccf 5fbd 1704 42be 7bcf 41be
00000340: 74c8 3ebe 8ebd 633e 1802 fd3d dfb7 e9be
00000350: 1400 883d 18d4 92bd 262a 05be f873 fabb
00000360: 1c15 dabd 7409 93bd 2aab 323e 74e9 0fbe
00000370: 6c5a 9c3e 95c6 3ebd a27b bcbd 4e3d cdbd
00000380: 5510 71bd 7a7a c43e 3976 a2bd fd42 ef3d
00000390: fb0d 3cbe 3503 13be 265e fc3d a9ec e73d
000003a0: 6039 ad3d 8566 0bbd 6f3e 073d 2dd9 f0be
000003b0: 0c42 4a3e 235b 543e df11 0b3e 3865 423e
000003c0: 55fa a93d c7d5 463e 4752 6b3e fc91 e73e
000003d0: 5426 8bbe d09f f8be 0f37 ae3d 4bdf dfbc
000003e0: 6e2a e83a d9c4 85bd 7588 833e ed2f 11bd
000003f0: bad2 d3bc 1743 ff3c 9e1d 58bd e52b 313e
-0.05441932 0.40752617 0.05881325 0.13915107 -0.12398115 -0.2630353 0.0908211 -0.22066186
-0.19629268 1.0562669 -0.3335891 0.13027412 -0.05440521 0.7506498 0.11859187 -0.044152666
0.16788253 -0.46148193 0.20365661 0.034549773 -0.09141794 0.46737117 -0.14436702 -0.53105754
-0.14102672 0.20324731 0.75422543 0.100174524 -0.483266 -0.47148713 -0.15169176 0.11864864
0.2181142 -0.37954313 -0.1984834 -0.504623 0.14497684 0.42793128 0.0913842 -0.41753873
0.17072287 0.25458983 0.1619421 -0.36036554 0.093526855 -0.06961093 0.19837493 0.156719
0.12031646 -0.28249872 -0.1048293 -0.43634897 0.69242406 0.14620169 -0.2859111 0.039178558
0.14951892 0.007120699 0.23949811 -0.1746407 0.29577655 -0.09192809 -0.21090052 0.5546765
-0.5853307 0.29955402 -0.34437442 -0.20280576 0.2942339 -0.7795488 -0.12102201 0.2603071
-0.6341051 -1.0292743 0.020067936 -2.5121295 0.101211935 -0.40760726 -0.04511087 0.28293604
-0.24782072 -0.117259316 -1.409665 -0.43408358 -0.710235 0.48289585 0.44167852 0.35020256
0.1405651 0.06345737 -0.24066259 -1.6557739 0.32662326 0.0223239 -0.035036087 0.0804424
0.48844424 -0.68404794 0.5993695 -0.7769036 -0.82011753 1.5891356 0.2713481 -0.3351266
0.02538487 0.46753624 -0.060475525 0.42550305 -0.09273316 0.15676796 -0.27908596 -0.28841126
0.052000552 -0.23123305 0.3110347 0.76516116 -1.4255607 0.3172111 0.36039832 2.2761464
-0.3824914 0.040564723 0.27363354 -0.07363907 -0.23847869 0.32346132 0.22675031 -0.651522
-0.34343332 -0.12761503 -0.1863143 -0.036734797 -0.035306502 0.20526452 -0.068241075 0.11235914
0.039340526 -0.48855639 -0.239074 0.023327839 -0.3303848 -0.07956224 -0.07347293 0.08772635
0.06311207 -0.16365679 -0.03063521 0.15574084 0.038940758 -0.060422685 -0.04144133 0.05001411
0.041664008 -0.053216122 -0.065391116 -0.035073753 -0.26138553 0.07429925 0.024514794 -0.2164157
0.09401998 -0.009454933 0.028084023 -0.07454633 -0.1271104 0.020637538 0.03278141 0.11662249
-0.033069264 0.0059651197 0.13415964 -0.034818415 -0.078792505 -0.12843661 -0.062857926 -0.17238668
-0.23014091 -0.038889572 -0.1923201 0.13036104 0.15052886 -0.05610814 -0.04629978 -0.04344446
-0.11244529 -0.05542561 0.05496917 0.10947024 0.07140143 0.31909803 0.11742719 -0.27059618
0.1841376 0.044694725 -0.07654682 0.17710687 0.17591982 0.2721299 0.3639541 -0.37948662
0.024154805 -0.03833549 -0.14970592 -0.09213088 0.019819481 -0.054641232 -0.18946873 -0.18926804
-0.18631154 0.22240278 0.12353915 -0.45648095 0.0664064 -0.0716936 -0.1300436 -0.007643219
-0.106485575 -0.071795374 0.17448106 -0.14053899 0.30537736 -0.0465761 -0.092032686 -0.100214586
-0.058853466 0.38374692 -0.079327054 0.11682699 -0.18364708 -0.14356692 0.12322645 0.11324436
0.08458209 -0.034033317 0.033018526 -0.47040692 0.19751757 0.20737891 0.13581036 0.18983924
0.082997 0.19417487 0.22980605 0.45228565 -0.2717768 -0.48559427 0.08506595 -0.027328154
0.001771284 -0.06531686 0.25690046 -0.035446096 -0.025857318 0.03115992 -0.05276262 0.173019

output.bias f4 [9]
00000000: 7083 4abd 1338 21bd e4be 6e3d b5d8 993b
00000010: fd40 a13c ca3a db3e 5822 3ebe 1b33 193e
00000020: 44b4 8c3e
-0.049441755 -0.039360117 0.058287516 0.004695023 0.01968431 0.4281829 -0.18567789 0.14960901
0.27481282
