results/2_weighting/SM_AVR_GOVDynamicNN_1_500_80000_100000_10000_None_None_1_0.001_0.0001_0.001_MA.pth (torch, 77603 bytes, 12 tensors)

hidden.0.weight f4 [64, 10]
00000000: 9beb 22bf 4439 6d3d ab14 f93d aff5 13bd
00000010: 9084 89be e390 92be c483 6fbe 8203 4e3e
00000020: 870e e6be b05b b3bc 4aed 843f 6c5d a0bc
00000030: 10f5 fdbd 62a5 903b 0c63 1b3f 0560 af3e
00000040: 0d43 123f ed9d b13e 6bb3 9c3e 402f 933e
00000050: 1fc1 80bd aa18 94bb 3724 103c 8112 983c
00000060: d4d8 a5bd a840 9cbd 5da8 5dbd a7a9 133e
00000070: b105 dbbd cc31 49be 2062 20be bbcf d73e
00000080: 5d21 95bd 3b59 583c 73d0 a8be e332 9dbe
00000090: b1cd bcbe af6f 7bbe 9176 d6bd 0caf 11be
000000a0: 071a e8be 3cc7 07be 7009 4d3d 6c5a 40bd
000000b0: b540 d93e 99c8 1c3d fceb d43c c1c6 bcbd
000000c0: c4b7 62be ff86 b4be fa5b 15bd d65b 3a3e
000000d0: 0a14 6ebd a991 85be 0be5 9bbe 11b8 79be
000000e0: 0924 91be 5465 23be a3b7 a6bc 7edc 263e
000000f0: 42ca 093f ae44 a7be 79ba 293e 2b84 46be
00000100: dd5c 173d 7f68 19be e8c8 cbbe d857 54be
00000110: 35b6 923e fe35 daba 2a93 543f aaf3 133e
00000120: 9998 dbbd 220c 473e 6c0f d1be 7af0 34be
00000130: e961 533d b3a7 9bbc a7f5 ebbd a99c 80be
00000140: 351f 8f3f 90ea d9bd 61a6 ddbd f697 c3be
00000150: d811 993d b0e9 85bc ed8c 6f3d 79d7 efbd
00000160: dabd 9cbd 2c94 063e 16c8 c33e e154 92be
00000170: 0c81 54ba 0943 3dbe 1938 b23d 47dc 4c3e
00000180: c669 973d cc6c 88bd 8cc4 3f3e 624e 1e3d
00000190: 38a7 b13f 2902 0d3c ab53 55be 91df 8c3d
000001a0: bc96 d7bd 87e7 be3b d615 0abe 24a9 c43d
000001b0: 0baf 813e 7677 993e 1aca 4bbf 6dbb 233f
000001c0: 1437 78bc 77eb 083e 57ca 02be a4b4 213e
000001d0: a608 1d3e 7222 95bd a168 e5bd 93fd d83c
000001e0: 059e db3d 27d4 b73d cc73 0fbe db12 813d
000001f0: 9d45 063e 2769 813e 3730 d43e 1d62 c63e
00000200: 9ffa b63e 247a 453d 345d bc3d a343 013e
00000210: c74d a1bd 1d86 4bbe 6f06 a4bd 5122 7abe
00000220: 3576 5b3b 590d 46be 9d92 9bbd 784d b03d
00000230: f51c 69c0 e43a 693d f2b7 133d 9613 2abe
00000240: 75fd 223e c54d 44be 3acb c7be 92fd bebd
00000250: a1b1 06be e60a cf3d 7840 ef3e 9e66 83be
00000260: 2aa1 603d 8baf 0fbe 4f5a b73d 39a5 8e3d
00000270: cbfc bd3e 0daf 9a3e a979 063e 8713 243e
00000280: a811 acbc a8d5 0abe c5cc 34be ac07 0a3c
00000290: 5fd1 3fbd cb0e 4b3e c57d cf3d 95ca b03e
000002a0: fc0c 86be 8122 5b3e ea2b 8bbf 4718 963e
000002b0: 6ce4 083e 57d1 ae3e 2a91 b3be 22cd f23e
000002c0: 88df 233e c394 463e c8dd 763e 97b8 573d
000002d0: d260 98bf da21 0bbf b2db db3c 1cf1 343d
000002e0: a25f 11be ff24 163d f95f bcbe adae 643e
000002f0: f8f1 f9bd 933e 9fbd 28c3 3d3e b945 a6be
00000300: d363 01be dfd7 4f3e 3dbd 87be 9576 c8be
00000310: cd2a f2be dc6a 47be d7c9 e6bd 2f37 97be
00000320: 1e4a 23bf a3f9 483e b7e8 553d f116 633e
00000330: 3eba fcbd 3feb a23d 34d9 22be 4f77 443e
00000340: 344c af3c c61e cdbb 03f4 9bbf e8ee 5e3d
00000350: 32ba 02be 1fea 483d 10f2 8b3e 74f5 4d3d
00000360: a2ed e73d 9e49 ba3c 73dc 15be 3d13 4ebe
00000370: 475a 1d3e cd5a 4cbe 4d74 7ebd cfb7 a23c
00000380: d845 f7bd b16c 943e cb79 5dbe 6bac 303d
00000390: 6ef7 493d 40b6 be3d b219 95be 397e 683d
000003a0: 952b 083e 83fb bf3d 00d2 4bbe 8c10 a73d
000003b0: 69a0 953e d293 923c d4cb 6f3e fa45 903e
000003c0: 7347 143f 3a31 933e be63 973e ea68 0ebe
000003d0: d8ee b0bc 17a1 8bbe e235 0bbe c9da 53be
000003e0: 65af d9bd 8119 91be 756e f8bf f275 1e3e
000003f0: a2d8 19be 280b 83be 5775 b5be 781d efbd
-0.63640755 0.05791594 0.12162145 -0.036122974 -0.2685895 -0.28626165 -0.23390108 0.20118526
-0.44932958 -0.021894306 1.0384915 -0.019575797 -0.124002576 0.0044142464 0.6069801 0.34252945
0.5713356 0.346908 0.30605635 0.28746986 -0.06286835 -0.0045195417 0.008797697 0.01856351
-0.08097997 -0.0762952 -0.05411564 0.14420186 -0.10694445 -0.19647902 -0.15662432 0.42150673
-0.07281754 0.013204868 -0.32971534 -0.30702886 -0.3687568 -0.24554323 -0.104718335 -0.14226931
-0.45332357 -0.13259596 0.05005783 -0.046961233 0.4243218 0.038277242 0.025991432 -0.09217597
-0.22140414 -0.35259244 -0.03646467 0.18199095 -0.05812458 -0.26087692 -0.30448183 -0.24386622
-0.28347805 -0.15956622 -0.020351237 0.16295049 0.53824246 -0.32669586 0.1657504 -0.19386356
0.036953796 -0.14981268 -0.39801717 -0.20736635 0.28654638 -0.0016648171 0.83037055 0.14448419
-0.10722465 0.19438222 -0.40832078 -0.1766986 0.051607046 -0.019000864 -0.11521464 -0.25119522
1.1181399 -0.10640442 -0.1082275 -0.38201874 0.074741066 -0.016346782 0.058484007 -0.1171102
-0.07653399 0.1314246 0.3823859 -0.28580382 -0.00081063877 -0.18482603 0.08702106 0.20005904
0.073932216 -0.06661376 0.1872732 0.03864897 1.3879156 0.008606472 -0.20832698 0.068785794
-0.10526797 0.00582594 -0.13484892 0.096025735 0.2532886 0.29973954 -0.7960526 0.63957864
-0.01514985 0.13371073 -0.12772499 0.15791565 0.1533533 -0.072819605 -0.11201597 0.026488101
0.10723499 0.08976012 -0.14009017 0.063024245 0.13112493 0.25275537 0.41443035 0.3874673
0.35738084 0.048212186 0.091974646 0.12623458 -0.07876163 -0.19875379 -0.080090396 -0.24427153
0.0033487205 -0.19341029 -0.07596324 0.08608526 -3.6423924 0.056940928 0.036064096 -0.16609034
0.15916999 -0.19170292 -0.39022237 -0.093257084 -0.13153698 0.101095006 0.46728873 -0.25664228
0.054841198 -0.14031808 0.08952772 0.069651075 0.37106928 0.30211678 0.13132347 0.16023074
-0.021004513 -0.13558066 -0.17656238 0.008424681 -0.04683053 0.19829862 0.101314105 0.34529558
-0.2618178 0.21399881 -1.0872777 0.29315397 0.13368386 0.3414409 -0.3507169 0.4742213
0.16003239 0.19392686 0.2410804 0.052666273 -1.1904547 -0.5434853 0.026838157 0.044175252
-0.14196637 0.036656376 -0.3679197 0.22332259 -0.12204355 -0.07775607 0.18531477 -0.3247507
-0.12635736 0.20297192 -0.26511565 -0.3915297 -0.4729828 -0.19474357 -0.11268967 -0.2953429
-0.6378497 0.19626479 0.052223887 0.2217672 -0.123402104 0.07955026 -0.15903169 0.19186138
0.021398641 -0.006259772 -1.2183841 0.054427058 -0.1276634 0.0490514 0.27333117 0.05028291
0.11324622 0.022740182 -0.14634876 -0.20124526 0.1536647 -0.19956513 -0.06212263 0.019863037
-0.120738685 0.28989175 -0.21628492 0.04313318 0.049308233 0.09312105 -0.29121166 0.056761
0.13297875 0.09374144 -0.19904327 0.08157453 0.29223946 0.017892752 0.23417598 0.28178388
0.5792152 0.28748494 0.29568285 -0.13907209 -0.021598265 -0.2727134 -0.13594773 -0.20688929
-0.10629157 -0.2833977 -1.9408709 0.1547468 -0.15024045 -0.2559445 -0.35441086 -0.116755426

hidden.0.bias f4 [64]
00000000: 6c5b 253e b856 853e 5f39 02be 4967 a13d
00000010: 2853 82be 7de7 143e 1df8 50be 5c62 893e
00000020: 03aa bebc 6836 be3e 8fcc 19be 540f 14bd
00000030: 3b7f f73e 0478 d6be fd1b 1abe 0f61 013e
00000040: 19ab a43e 590a 103e f13c b9be 440e 26be
00000050: 6f37 d63d 3403 3abe 1748 6e3e 2bcf 883e
00000060: 903f 26bd 455c 843d b57b 073e 20d0 d13e
00000070: 7f40 123c 151d a03e 8337 4c3e b472 ba3e
00000080: b16e 96be 5b31 8c3c f869 12be e9ab 473e
00000090: 8ed9 86bd 0d83 b8bd b176 ecbd 5d54 71bd
000000a0: 7ac6 a4bd dad7 02be 4bd2 09bc 7a5b ea3e
000000b0: b3d3 bd3e 55b8 ae3e c75e 57bd fbc4 683d
000000c0: 9a6d 853e 4670 d83d 3ecf 34be 69c8 3cbe
000000d0: b760 b93e 46a6 973e 3419 f4bd a294 8e3e
000000e0: e7bd 753e 851d 51be d7cc 1abe c96c 06be
000000f0: e934 ff3d 6580 993d 6720 913d 88de 9ebe
0.16148156 0.26042724 -0.12717198 0.07881028 -0.25454068 0.14541431 -0.20407148 0.26832855
-0.023274427 0.37150884 -0.15019439 -0.03614743 0.48339257 -0.4188844 -0.15049739 0.12634681
0.32161787 0.14066447 -0.36179307 -0.1621638 0.10459792 -0.18165284 0.23269688 0.26720557
-0.04058796 0.064629115 0.13230784 0.409791 0.00892651 0.31272188 0.19943051 0.36415637
-0.29381326 0.017113378 -0.14298236 0.19499172 -0.06584464 -0.09009371 -0.11546076 -0.058918346
-0.08045669 -0.12777653 -0.008411954 0.45772916 0.37075576 0.3412501 -0.05258062 0.05682848
0.26060182 0.105682895 -0.17657182 -0.18435825 0.362066 0.29619044 -0.119188696 0.27847773
0.23998223 -0.20421417 -0.15117203 -0.13127436 0.12461264 0.074951924 0.070862584 -0.31029153

hidden.1.weight f4 [64, 64]
00000000: 610e 603d 48d5 0a3e ea16 9d3c 50ad ec3d
00000010: fb0e bf3c 49a4 7e3c a717 a53d 023d d9bd
00000020: 279e eebd 6657 8ebe 3a48 c7bc 9dc7 fbbd
00000030: 5319 99be acf3 6c3e 76b0 3fbe c8d1 cfbc
00000040: ef06 a4be edfc bdbd c7c1 0cbd 02ae 25bd
00000050: 9925 183d db86 36be 7f88 a83c 0edc 8bbd
00000060: fd95 943c 47df b8bd 4da5 1fbe f15f 21bd
00000070: 4aff 803d 98b6 613d a05f 6bbd 9fa2 90be
00000080: de19 273e 53e9 92be cdaf 8fbc f0b2 38be
00000090: 6907 01be 88cc c8bd bf38 813e a495 903e
000000a0: 039e 443c b99e 443e 93e3 9dbd dcfd 973c
000000b0: 3137 10bd 6527 01be bd05 2b3d a097 ddbc
000000c0: 2c6f 13bd 9668 4fbe a09c 9c3e d1f3 663e
000000d0: 3272 72bd 6cc3 1fbd 4119 18bd 9dfd c9bd
000000e0: 1b5c 8dbe f7c8 133e c9de 893e 1fb2 4ebe
000000f0: db0f bbbc ab1b bfbe 2329 85be 3e27 003e
00000100: fa13 afbe cc54 113e a19e 87bd 9743 66bd
00000110: 05e7 703e 1b60 dcbd 3fe4 60bd f94a e13d
00000120: 1e21 9e3d b214 283d 093e ba3d 5f85 a03e
00000130: 7372 77be 188d 6d3e 07a2 57be 2523 1cbd
00000140: 05cb 7abe e995 3bbe b320 3bbd 5d7b fa3d
00000150: 8425 84be 79bb 663d 55dd 053d 62d4 cebd
00000160: 6bb0 613e cbb0 7dbe 8827 9c3e ad99 44bd
00000170: e59f 0fbe f1a6 eebc 8883 9cbd 0686 4cbe
00000180: d134 183e 3796 86bd c98a 2d3d 2509 53be
00000190: 6827 143e 1c22 123e b4af f13d 6a8b 8a3e
000001a0: 5e1c 10bd ccd4 f4bd 2747 82be b7ab 9fbd
000001b0: 0289 aa3c 6641 90bd 4bf9 913c f3fc 943c
000001c0: 036c 29be 73ad 3ebe 689d 123d 676d 1c3e
000001d0: c908 7fbd 3afd 03bd bfd4 f53c f59c 51be
000001e0: 3138 c3be a5bf 233e be18 a33d 0623 13be
000001f0: 6f83 533d 7ef5 c33d 55d2 5fbd 118d 893e
00000200: 3a51 dabb b45e 02bd 2c6b 1dbe 3661 a43c
00000210: 59e1 2e3e 631d ac3d 7c5c ba3d 918d 9fbd
00000220: 3983 e9bd 610e 523c dd3a 943d df91 373e
00000230: 72c4 89bd c53e 4b3e 7606 483e f0c2 0c3e
00000240: 1bb8 583d 5de4 b83d 9132 0abe 76f2 38be
00000250: 1390 743c cd7b 86bd 5465 e8bd 031b b03d
00000260: b282 363d 79b0 ec3d f6dc a9bd 8ceb 803d
00000270: 40c9 c43d 2569 23be dcd1 3bbd 9669 363e
00000280: eb69 e93d c775 b63c 0b79 2bbe f4bf e33d
00000290: 985e a1bc 9673 3f3e 63fb aebc f32a 7dbe
000002a0: 9528 92bd 4d0d 5a3d 4f0a 8a3d b85a 9e3d
000002b0: ecd1 42be f121 dfbd 5ab9 7e3d ebca d7bd
000002c0: c089 35bd 4c35 0e3d 8f75 58be b7b3 7dbd
000002d0: d797 83bd c368 9abd 6fe6 0e3e 53e2 a2bd
000002e0: 0bed c53d c9ab cfbd a19a 223d 40e3 72bd
000002f0: e41d 80bd 58c7 f9bc c25b 1cbe ce79 93bd
00000300: ec5b f93d bff9 d7bd 6061 373d e944 bfbc
00000310: 4766 e3bd 9be9 373d 876c d0bd accc b2be
00000320: 3c9b 5abe 6657 96be ad85 3cbe e7f2 ae3d
00000330: 36b9 503d df32 e7bc 1062 953e 4a10 8cbd
00000340: 5f96 523e b6d0 763d 7e6a f03d 7bae af3e
00000350: 4fc5 ea3c 3d1c a33d 1d19 8dbe 58a6 db3d
00000360: d132 f0bd 872c 813d 90cd 07bb 2514 8c3d
00000370: 0c81 333e 6663 4f3e 9c99 eb3d 4560 193c
00000380: 6be3 b63d e216 c1bd fc7d 25be c68e 97be
00000390: d435 37be 2eaf 8d3c b935 863d fa9d ba3c
000003a0: b3af aebd 0d20 b1bc 982f e1bb e77d 9e3d
000003b0: e342 8f3d cc59 753e 3543 a43d 037f 093d
000003c0: 2adb 293d 0b68 5a3e 0312 8e3e c319 33be
000003d0: 4965 48be da57 7fbd 331b a03e 9da1 973d
000003e0: e8ab 03be 3de2 693e 38e0 9a3c 7539 d13d
000003f0: 67b6 9fbd e116 0f3e 0971 853e f156 c3bd
0.054701213 0.13557923 0.019175965 0.11556494 0.023322573 0.015542098 0.08061152 -0.106073394
-0.11651259 -0.27801055 -0.024326432 -0.122939326 -0.29902133 0.23139828 -0.18719658 -0.025368586
-0.3203654 -0.092767574 -0.034364488 -0.04044915 0.03714523 -0.17824881 0.020572899 -0.068290815
0.018137926 -0.09026962 -0.15590401 -0.039398137 0.062986925 0.055105776 -0.057464242 -0.2824907
0.16318461 -0.28693637 -0.017539883 -0.18037009 -0.12600483 -0.09804636 0.25238606 0.28239167
0.012000564 0.19201173 -0.07709422 0.018553667 -0.035208885 -0.12612684 0.04175352 -0.02704984
-0.035994694 -0.2025474 0.30588245 0.22553946 -0.059190936 -0.03900473 -0.03713346 -0.09862826
-0.27609333 0.14432131 0.26927784 -0.20185135 -0.022834709 -0.37325796 -0.26007947 0.1251497
-0.34194928 0.14192504 -0.06622053 -0.056216802 0.23525627 -0.10760518 -0.054905172 0.11000628
0.0772116 0.04103536 0.090938635 0.31351754 -0.24164753 0.23198354 -0.21057902 -0.038119454
-0.24491508 -0.18318905 -0.04568548 0.12230561 -0.25809872 0.05633113 0.03268178 -0.100991026
0.22039954 -0.24774472 0.3049891 -0.04799812 -0.14025839 -0.029132338 -0.07642275 -0.19973001
0.14863898 -0.0657162 0.042368684 -0.20608957 0.14468157 0.14270824 0.11801091 0.2705949
-0.035183303 -0.1195465 -0.2544491 -0.07796424 0.020817284 -0.07043724 0.017819067 0.018187022
-0.1654511 -0.18620853 0.035794646 0.15276109 -0.062264238 -0.032223918 0.030008672 -0.2047003
-0.38128808 0.15991075 0.079637036 -0.14368829 0.051639017 0.09568308 -0.054643948 0.26865438
-0.006662515 -0.031828597 -0.15372914 0.020065885 0.17078151 0.084040426 0.09099671 -0.077906735
-0.11401982 0.012820811 0.0723779 0.17926739 -0.06726922 0.19848163 0.19533715 0.13746238
0.05290995 0.09027932 -0.13495852 -0.18061242 0.014926928 -0.06566582 -0.11347452 0.08598902
0.044558235 0.11557097 -0.08294098 0.06294927 0.09608698 -0.15958078 -0.045854434 0.17813715
0.113971554 0.022272957 -0.16745393 0.111205965 -0.019698426 0.18696436 -0.021360105 -0.24723415
-0.07136647 0.05323534 0.067402475 0.07732147 -0.19025391 -0.10895146 0.062188484 -0.105367504
-0.04432082 0.034718797 -0.21138595 -0.061938968 -0.064254455 -0.07539513 0.13955091 -0.07953324
0.09664353 -0.10140187 0.039698247 -0.059298754 -0.06255701 -0.030490562 -0.15269378 -0.07200967
0.12175736 -0.10545682 0.0447706 -0.023348289 -0.11103492 0.044900518 -0.1017695 -0.34921777
-0.2134828 -0.29363555 -0.18410368 0.08542424 0.05095788 -0.0282225 0.29176378 -0.068390444
0.20565175 0.060257636 0.11739062 0.34312806 0.028658537 0.079643704 -0.27558222 0.10725087
-0.117284425 0.06307321 -0.002072189 0.0683978 0.17529696 0.20252761 0.11503908 0.009361331
0.08930095 -0.09428193 -0.1616134 -0.29601115 -0.17891628 0.017295446 0.065532155 0.022780407
-0.08529606 -0.021621728 -0.0068721287 0.07738858 0.069951795 0.23960036 0.08020631 0.033568393
0.041468777 0.21328752 0.27748117 -0.17490296 -0.19569887 -0.06233964 0.3127075 0.07403872
-0.12858546 0.2284021 0.018905744 0.10216037 -0.07798462 0.13973571 0.260628 -0.09538067

hidden.1.bias f4 [64]
00000000: 2d79 83be 60d8 80be 322b e2bc 1353 19be
00000010: c145 48be 8d20 19be a302 993d bedd 5e3d
00000020: 11ae a03d b046 e33c c058 893e ef16 9a3e
00000030: a083 f73d 788e e1be b2c8 36bc 1d1b e7bd
00000040: 6538 a8be 83b2 ddbd 9dcd 883e 5c3e a7bd
00000050: d7e1 853e 0d07 753e 5e5f d83d d0fe 223e
00000060: d103 00be 4830 b73e 917c 10be da78 a6bd
00000070: ca71 8d3e e309 30be 2bb2 0d3e 2140 4d3d
00000080: 66fb 7fbe edff ca3e 917b a43e 2e3f 15bc
00000090: 42e9 29bc 797d 003d 699e a23d 15c4 4dbe
000000a0: 5758 adbd 64b5 343d 5117 943d 3451 05be
000000b0: bee3 d4be 7e2f 8e3d 8313 cb3d 30d4 0f3d
000000c0: 1817 e83b 9742 3b3e 3487 c9bc ac50 a03e
000000d0: 9538 54be 0e13 19be 8b7c c43d 0970 99bc
000000e0: 1a9c 7e3d ce31 b43d 7906 143d 3d1e 7c3d
000000f0: b185 e73d 978d 403e 6e06 35be fb6f 84be
-0.25678387 -0.2516508 -0.027608488 -0.14973097 -0.19557859 -0.14953823 0.07471206 0.05441069
0.078457005 0.027743667 0.26825523 0.30095622 0.12085652 -0.44054008 -0.011156248 -0.11284468
-0.32855526 -0.10825064 0.2671937 -0.08166191 0.26148865 0.23928471 0.10565065 0.15917516
-0.12501456 0.35779023 -0.14110018 -0.08128519 0.27625877 -0.17191271 0.13837497 0.050109986
-0.24998245 0.3964838 0.32125524 -0.0091093015 -0.010370554 0.03136966 0.079403706 -0.2009433
-0.08464115 0.0441183 0.0723101 -0.13019258 -0.41580003 0.06942652 0.09915831 0.035114467
0.007082831 0.18287121 -0.024600603 0.31311548 -0.2072471 -0.14948675 0.09594067 -0.01873018
0.06216059 0.08798562 0.036138985 0.061552275 0.113047965 0.18804012 -0.17678234 -0.25866684

hidden.2.weight f4 [64, 64]
00000000: d06a dc3c 4ca5 92be 48d8 1fbe 5d2c d9ba
00000010: 1be8 8cbd cb79 37be 78ef d7bd 6d3d 233e
00000020: 125c 6cbb c093 a1bd abf7 093e 03c1 663d
00000030: ad07 913d cc04 803d 1145 6ebe 6dfe 813c
00000040: e4e6 a2be 3762 9fbe 7db9 ac3b d4c9 eebd
00000050: a2c0 133d 8843 043e 2831 3e3e feeb 043e
00000060: 2a61 e6bd cf58 a63e 9ab2 6abd fdc7 813d
00000070: 413f ebbd 407a 05be e24a b23d 648c 59bd
00000080: abcb f8bd d305 093e 60a4 ad3e f885 adbd
00000090: 9981 c83d e387 5b3e 7634 293d 09a3 52bd
000000a0: d14a 013e 8733 d8bb 1dc0 06be 2d46 1dbe
000000b0: e9a5 8dbe 5a00 b83b 5ad4 76bd 8776 f2bc
000000c0: 97fe ccbd 59e0 073b b29b 4abe 5192 a53e
000000d0: 1bfd d9bc ee36 6d3d 95fe 06be 236d 763d
000000e0: aeae d3bd 35bd 803d b238 cd3d f270 fa3c
000000f0: d5ec 3d3e 12a7 6abd bd18 82be ad5e 2dbd
00000100: b086 c8be 92d2 3ebe c3bd bebd 324d 1c3e
00000110: ab7a 09bd 111e 80be fb37 323e eb00 fe3c
00000120: e9c2 eb3d 282f f53d 3469 42be 42d1 9b3d
00000130: 48c9 85be d8ae 8cbc ad2a 513e ddd4 ab3d
00000140: 8bbd 84be 43b2 b73d dd26 81bd fb0c 033e
00000150: 4f5e 383e 2eaa a53d 75c2 183e 7d87 c83d
00000160: 53f2 f6bc 01f0 813d d3c4 2d3e 91f6 e33d
00000170: 4826 4f3d 27eb e7be 6f69 fd3d ed8a 953c
00000180: ba97 193e 2d28 04bd 7a38 f8bc 28f8 5ebe
00000190: 05a8 dcbc e45e 6bbd 627d 2c3d fec6 3ebe
000001a0: f004 713e 04b7 8bbc a16f 043e d404 efbd
000001b0: 5ef4 a2bd 5c25 c3bd 7ade 603d 0c3a 803d
000001c0: 448d 763e 683e 583e 4c36 2fbe aeda 2d3d
000001d0: 383d 1cbe d5a9 ba3d 2311 cbbc 1d79 2ebe
000001e0: 6f04 07be 246a b33d ac3d 45be e5c3 533d
000001f0: 668f 7c3e bb7a 89bd 6c0b 2cbe 4e60 a5bd
00000200: 894d 04be e6ca b3bd d9a7 ed3d d330 c5bd
00000210: bdce b23d 713b 2b3d 5f9c 2bbe c0f0 6bbd
00000220: 1d60 943d 33b2 a8bc 6c96 343e 9ecc 7fbd
00000230: 2c35 273e aa7c ee3d 3ad1 1f3e 8fba 5f3e
00000240: e6c3 db3d ff15 b33d a1c9 c7bd c3af ad3d
00000250: 38ce dfbd 5769 c43b cfa9 ff3c 8c69 dc3d
00000260: 739e fc3c 51fa 273d f24b 4e3d 3e5c 103e
00000270: 5328 0abe 2f13 e93d 79d1 93bd bc24 80be
00000280: c8e4 133e c6ce 4fbe 98cd cebc 97ac 353e
00000290: f7cb 0a3e a14b 493c f0f6 05be 9238 64bd
000002a0: 0391 e73c bb3f 643d a0cb 7fbe 34bf 683d
000002b0: 404d 72bd cde0 8ebd 53a7 a4bd 7fab dfbc
000002c0: 1eb6 a93d 452e 303e 0693 b5bb da30 80bc
000002d0: fc7c 4fbe a4f3 04be ca0d 123d 42fd 523e
000002e0: 9a9a 7a3d d4d6 023e 2550 193e 3a53 4d3e
000002f0: 948e df3d 6a86 c43a 0e62 1fbc 0a92 afbe
00000300: 5c76 6a3c 42fc 89be a769 7bbc 1cad d7bd
00000310: 8dfd 29be 396d 6fbd 35e6 b93d 348b c93d
00000320: d0e4 58be cf5b 903e ffe1 57bb e083 8cbd
00000330: 877d 62be 4274 0bbe 7461 e7bc fc40 b03c
00000340: 3d17 903b 6314 563d 6efd 133e 3b83 29be
00000350: b70b a5bc 718d b63d d9be b43d d8e1 e73d
00000360: cf08 363e d9a9 213e 65ab e1be 523e 0dbe
00000370: 0b95 cd3c a8e7 b7bc c99b 9f3e c559 b33c
00000380: 9c79 05be 5877 813c 289d 153e 7feb 0d3d
00000390: 3228 863e 6d24 593e d753 a73e 3c63 d03d
000003a0: aa9c 9abb fbd9 5ebd 189a 963e 52cc 80bd
000003b0: 2fc8 173e bea5 253d 6505 7d3d 8b9e d0bc
000003c0: b650 7d3e 36c2 263d a78e 4b3e 67a7 553e
000003d0: 3328 56bd a452 05bd a4eb 73be 1cd4 82be
000003e0: 12b3 eabd 479a ccbe a718 b13d 48e0 f8bb
000003f0: 9911 a5bc efec 51be 551c 9f3d e9a6 1bbd
0.0269064 -0.28641737 -0.15609848 -0.0016569007 -0.06880208 -0.17917554 -0.10543722 0.15941401
-0.003606562 -0.07889509 0.13473384 0.056336414 0.07081542 0.06250915 -0.23268534 0.01586839
-0.3181678 -0.3112962 0.0052711354 -0.116595894 0.03607238 0.12916386 0.18573439 0.12980649
-0.11249001 0.3248963 -0.057299234 0.06336973 -0.11486674 -0.13034916 0.08705689 -0.053112403
-0.121482216 0.13381128 0.3391447 -0.08472818 0.09790344 0.21438555 0.041309796 -0.051425014
0.12626196 -0.0065979394 -0.13159223 -0.15358801 -0.27665642 0.0056152763 -0.060261108 -0.029597534
-0.10009497 0.0020733087 -0.19785956 0.32338193 -0.026609948 0.057913713 -0.13183053 0.060162675
-0.10336052 0.062860884 0.100205794 0.030571435 0.18547376 -0.057288237 -0.254095 -0.042326618
-0.39165258 -0.18635014 -0.09313538 0.15263823 -0.03356425 -0.2502294 0.17404167 0.031006297
0.115117855 0.11971885 -0.18985444 0.07608272 -0.26130128 -0.017173216 0.20426436 0.0839021
-0.2592586 0.089695476 -0.06306241 0.1279792 0.18004726 0.080891 0.1491793 0.09791467
-0.030144846 0.06344605 0.16969614 0.11131013 0.050573617 -0.45296595 0.123736255 0.018254722
0.14999285 -0.032264877 -0.030300368 -0.21774352 -0.026935587 -0.05746354 0.042111762 -0.18630597
0.2353704 -0.017055042 0.12933208 -0.11670843 -0.079567656 -0.0952861 0.05489967 0.062610716
0.24077326 0.21117556 -0.17110556 0.042444877 -0.15257728 0.09114424 -0.024788445 -0.17038389
-0.13185285 0.08760479 -0.19261807 0.05170049 0.24664077 -0.06712862 -0.16801232 -0.08075009
-0.12920202 -0.08778934 0.1160428 -0.09628453 0.087308384 0.041804735 -0.1675887 -0.057602644
0.07244895 -0.020592785 0.17635506 -0.062450998 0.16328877 0.116448715 0.15607157 0.2184851
0.10730724 0.0874443 -0.097552545 0.084807895 -0.10928005 0.005994003 0.0312089 0.10762319
0.030837273 0.041010205 0.050365396 0.14097688 -0.13491945 0.11380612 -0.07217688 -0.25028026
0.14442742 -0.20293722 -0.02524452 0.17741619 0.13554369 0.012286098 -0.1308248 -0.055718012
0.02826739 0.05572484 -0.2498002 0.05682297 -0.059155703 -0.06976471 -0.08039727 -0.027303455
0.08286689 0.1720515 -0.005541208 -0.015648294 -0.20262522 -0.12983567 0.03565768 0.20604423
0.061182596 0.12777263 0.14971979 0.2005128 0.109158665 0.0014993672 -0.009727968 -0.34291106
0.014310446 -0.2695027 -0.015345014 -0.10531065 -0.16600628 -0.058453772 0.09077112 0.09841004
-0.21181035 0.28195044 -0.00329411 -0.06861091 -0.22118197 -0.13618568 -0.028244711 0.021515362
0.0043973015 0.052265536 0.14452145 -0.16553967 -0.020147188 0.089136966 0.08825464 0.11322373
0.17776798 0.15787448 -0.44076076 -0.13793305 0.025095483 -0.02244933 0.31173542 0.021893391
-0.13034672 0.015803978 0.14610732 0.034648415 0.26202542 0.21205302 0.32681152 0.101751775
-0.004718383 -0.0544071 0.2941444 -0.06288971 0.14822458 0.040441267 0.061772723 -0.025466224
0.2473782 0.040712558 0.19878636 0.2086464 -0.05228443 -0.032549515 -0.23820359 -0.25552452
-0.11459936 -0.39961454 0.0864728 -0.007595096 -0.020149993 -0.20500539 0.07769076 -0.038000975

hidden.2.bias f4 [64]
00000000: 2413 6f3e 566f 523e 5c33 2c3e edbd df3c
00000010: 18df 97bc 21ee 3d3e 1ff8 983d 290f 903d
00000020: 9e9b 34bd b11d f13d 00ec a13e 129e 093d
00000030: 2802 663e f853 d03d 803d 53be 6d1e 613d
00000040: de4e 6b3c ab5a 12be 4e2d 6e3c b1d4 60be
00000050: 24ef 5fbe 1f34 173d ab6b 523e 4569 25be
00000060: cf0f d6bd af41 a93d b620 a73e bdd6 a83e
00000070: 868e 25bd e502 a63c 0d4a 13bd 2270 6a3e
00000080: 9d5c 8d3e 660a 49be 34ca ad3a dce8 ffbd
00000090: 158b 3bbc 3453 85bd ec86 f5ba 2d82 12be
000000a0: 4b8c 6cbd f80b 353d 755f e93d 8a17 093e
000000b0: 2643 923c af59 b83d 0abd 363c 8bf9 d73d
000000c0: 9a57 a6bd 08e2 7c3e 89f9 233c 15fa ae3e
000000d0: 8721 80be cc32 5d3b 620a 443e af9b 97bd
000000e0: 2273 e63d b271 2e3d 84da acbe 2dc6 81be
000000f0: 4697 47be 9a12 d03d 522f 2a3e 9500 ccbd
0.23347145 0.20550284 0.16816467 0.027312243 -0.018538997 0.1854787 0.074692 0.070341416
-0.04409372 0.11773241 0.31625366 0.033598013 0.2246176 0.10172266 -0.20628929 0.054960657
0.014362065 -0.142924 0.014537169 -0.21956135 -0.21868569 0.03691494 0.20548885 -0.16153438
-0.10452234 0.08264481 0.32642144 0.32976332 -0.040419124 0.020265052 -0.035959292 0.22894338
0.2760972 -0.19632873 0.0013259114 -0.12495586 -0.011446734 -0.0651001 -0.0018732226 -0.1430747
-0.05775098 0.044200867 0.1139516 0.13387886 0.017854284 0.09001481 0.011153469 0.105456434
-0.081221774 0.24695599 0.010008224 0.34175172 -0.2502558 0.00337522 0.19144586 -0.07402741
0.112524286 0.042588897 -0.33760464 -0.2534651 -0.194913 0.10159798 0.16619614 -0.099610485

hidden.3.weight f4 [64, 64]
00000000: 7f9b 91bd 7aec 983c bb6a 9abd 123d 3fbd
00000010: cb37 133d 4dd5 a4be 4ede c4bd 9c60 833d
00000020: 4cef c13c be63 fa3e 6771 72be e6b8 02be
00000030: 8673 1fbd 266e bc3d 8494 acbd 5d6b 6e3d
00000040: bb0b f6be 507a 57be e4d2 ad3e 72c2 cbbd
00000050: b59c ddbb 20a8 bcbd 9b30 d63c 97db 2fbd
00000060: 54bd 593e 39d1 6b3c c812 cb3d 5635 da3d
00000070: 0ac8 eabc 54af 6d3b 63af a13e ef29 80be
00000080: d66a 09be 97fe a5bd 1ed9 673c 10eb 923d
00000090: ff56 26be 9aa5 153d 34a6 e73d f673 3c3d
000000a0: e4b0 a9bd 8e71 f03d f59e 843e 5e64 0abd
000000b0: 704c 153e 39d0 87be 6679 21be 2917 d93c
000000c0: 8e4f d33c d42d b0bd 61ce 14be 6dbf 78bd
000000d0: c5c1 6fbe 5fec ae3c a65d c73d 785d 113c
000000e0: 6c9b c83e cf11 ab3d 4096 2fbe 5dee 023e
000000f0: 8a14 b13e 5c78 e6bd f6e4 b4bc d739 8bbc
00000100: 39a6 5d3d a4b2 1d3e f0e5 b43d b758 1dbe
00000110: 851b 203c c9b6 ea3d 71d5 863d 8e44 ac3e
00000120: 031e 213e 71ab a53d 9f8d b03d c80d 833d
00000130: 521d 04bd efc5 7dbd 006a debd f288 f63d
00000140: 13b2 4cbd 1895 bbbd b434 f43d 7a7f 1f3c
00000150: 5f75 063d 00ff ef3e c6f8 ea3d 523e 073b
00000160: 4b8b 8d3c 5540 a0bd ed4a 2bbd b969 d73c
00000170: 0bc9 abbd f2d9 07be a4af 8f3d 2d92 9fbe
00000180: cd2c 87bd 1f22 0d3e d512 40bd b835 493c
00000190: 22bb 1a3e f0ff 2ebd 23f8 e13d 3e89 2c3e
000001a0: abfd 77be bc9e 893d 661f 393e 7537 533d
000001b0: bcc2 373d a5d4 78bd d6c7 09bd a113 743e
000001c0: 1c0a 6fbe fdc6 3d3e b2a9 1dbe 8dae d33d
000001d0: d922 28be e2cc 1cbd e84c 8a3e 98ff 923d
000001e0: babe f4bc b240 533c 8e0a 8e3b 7c17 86ba
000001f0: 9e26 023e 36f2 82bb eb9d 273e a170 1b3d
00000200: aca9 e43d e8a7 d4bd 4a7f 123e 87a4 b1bd
00000210: 1c48 903c 2f9d b3be 4b93 9a3e a74b a03e
00000220: d0a5 173e 8e36 31be f5e6 1b3d 789a 1cbe
00000230: b98c 88be fa55 a33e 6560 16be 2c15 07be
00000240: 5d24 26bf 251e b1bc 7a22 4ebe ae11 34be
00000250: 9dc0 bbbe 2f42 36be e693 233d 1c02 223e
00000260: aa93 4cbe bfaf 5e3d 9546 003e 4a59 5f3e
00000270: d827 6fbe 23f9 503c 5608 61bd 157b 563e
00000280: e935 ad3e df1c c4be 7097 28be c03d 363d
00000290: d52f df3c b30a d03d d15d 71be 38e9 82be
000002a0: c0fb 67bd a768 5d3d b0f7 0cbd e478 0fbe
000002b0: 0f4e 393d 2ee3 a4bd e35f 08bf d624 79be
000002c0: 2ea2 77be b95d b23e 01f1 6d3e 81ca 4b3e
000002d0: 57a7 a9be 9720 4ebe 8747 8f3d ffc9 6e3d
000002e0: e8ee 693e 70a6 183f d20f 82be a0c4 27be
000002f0: dd83 0cbd d6ff 283e 23b3 1e3e 12dc ccbd
00000300: 35dc 99bd 7139 22be 6b8f d1bd 6285 5ebd
00000310: 398a 983e a3d8 28be 1ea8 c8bb ad61 1b3e
00000320: a32f cdbd c4a3 983e 64e7 55be 2675 bdbd
00000330: d690 7cbe 05ab febd 51a4 393e 5ae9 a43e
00000340: d2bd 63be 4ed9 79be e3f6 fe3b ad19 a73e
00000350: eefb 79bd 2115 9abe bcd5 61be bd2d 31be
00000360: da63 6c3e 3c3a e1be 3c10 da3d 480d 2dbd
00000370: 31cd e7bd a543 b03d bb02 c43e 3b79 1fbe
00000380: 0653 4abe 30ab 65bd f478 e1be b433 223e
00000390: a317 30bd d973 26bc de24 13be eac5 273d
000003a0: df5d 41be f451 81bc e2d9 8dbd 4591 b8be
000003b0: 6d7c cb3e 5204 30be ab4b b4bd a68c 0abd
000003c0: 0e61 8cbe 543f 1f3e 4140 38be 5c44 123e
000003d0: 1f4d dc3d d330 81be 4487 10be e3c7 de3c
000003e0: c144 6b3e b4aa 38be f04e b03a 566d e73d
000003f0: f59f 5b3e 4894 9a3d 15ba 63bd 1aa6 103e
-0.07109737 0.018667448 -0.075398885 -0.0466891 0.03594188 -0.32193986 -0.09612714 0.06414911
0.023673676 0.48904222 -0.23676072 -0.12765846 -0.03892853 0.09200697 -0.084267646 0.05820786
-0.48055825 -0.21042752 0.3394996 -0.09949197 -0.0067630657 -0.09211755 0.026146224 -0.042934027
0.21263629 0.014393144 0.099156916 0.10654704 -0.02865984 0.0036267834 0.31579122 -0.25031993
-0.13419661 -0.081052 0.014150886 0.07173741 -0.16244124 0.036534883 0.113109976 0.046009026
-0.08285692 0.11740409 0.25902525 -0.033787124 0.1457994 -0.2652605 -0.15768966 0.026500301
0.02579477 -0.08602491 -0.14531852 -0.060729433 -0.23413761 0.021352945 0.09734659 0.008872382
0.39181077 0.08353006 -0.1714716 0.12786241 0.34585983 -0.112534255 -0.022081833 -0.016995354
0.0541136 0.15400177 0.088329196 -0.15365873 0.009772186 0.11460645 0.065836795 0.33646053
0.15734105 0.080893405 0.08620762 0.06399113 -0.032254525 -0.061956342 -0.10860062 0.12037839
-0.049974512 -0.09159297 0.11924115 0.009734983 0.032826778 0.46874237 0.11473231 0.002063651
0.017278334 -0.0782477 -0.0418195 0.02629553 -0.08387955 -0.13266733 0.07015923 -0.3116621
-0.06600342 0.13782547 -0.04689296 0.012280874 0.15110448 -0.04272455 0.110336564 0.16849229
-0.2421786 0.06719729 0.18078384 0.05156656 0.044863448 -0.06074967 -0.033637844 0.23835613
-0.233437 0.1853294 -0.15396765 0.10336027 -0.16419543 -0.03828133 0.270118 0.07177657
-0.029876102 0.0128938425 0.0043347543 -0.0010230388 0.12710044 -0.003996159 0.16368835 0.03794921
0.11165175 -0.10383588 0.1430637 -0.08673959 0.01761251 -0.3508086 0.301905 0.31307718
0.14809346 -0.17305967 0.038062055 -0.152933 -0.26669863 0.31901532 -0.14685209 -0.1319167
-0.64899236 -0.02162082 -0.2013034 -0.1758487 -0.3667039 -0.17798685 0.03993597 0.15821117
-0.19978204 0.054366823 0.12526925 0.21811405 -0.23355043 0.012754711 -0.05493959 0.2094539
0.33830193 -0.38303277 -0.16464019 0.044492483 0.027244488 0.10158291 -0.23570944 -0.25568557
-0.056636572 0.054054882 -0.0344159 -0.1401096 0.045240458 -0.080511436 -0.5327131 -0.24330458
-0.2418296 0.3483713 0.23236467 0.19901468 -0.33135483 -0.2012962 0.06996065 0.058298107
0.22845042 0.59628963 -0.25402695 -0.163836 -0.034305442 0.16503844 0.15498023 -0.100029126
-0.07512704 -0.15842225 -0.10232433 -0.054326423 0.29792956 -0.1648889 -0.0061235568 0.15173979
-0.100188516 0.29812443 -0.2088905 -0.0925086 -0.24664626 -0.12434963 0.18129088 0.32209283
-0.2224038 -0.24399301 0.007780896 0.32636777 -0.061031274 -0.30094245 -0.2205419 -0.17302604
0.23084965 -0.43989742 0.10647628 -0.042248994 -0.11318434 0.08606652 0.38283333 -0.1557359
-0.19758233 -0.05607146 -0.44037592 0.15840036 -0.04299129 -0.010159456 -0.14369532 0.04096023
-0.18883465 -0.015786149 -0.069263235 -0.36048332 0.39743367 -0.17189148 -0.08803495 -0.03382554
-0.27417797 0.15551502 -0.17993261 0.1428389 0.10756897 -0.25232562 -0.141141 0.027194923
0.22975446 -0.18033868 0.001345126 0.11300151 0.21447738 0.07547814 -0.055597384 0.14125863

hidden.3.bias f4 [64]
00000000: 4dcf 303d b004 83bd 94ac b53e e02b ee3d
00000010: caaa 853e 8e7e 94bd 36ae 00be 3f79 e7bd
00000020: 271a 2d3e c513 c2be b215 0bbe 1123 14be
00000030: 2fb5 5fbe f580 54be 8062 003e 9ec8 003e
00000040: 00df 4cbe 740d 603e b270 a03d c325 e33d
00000050: 1138 21bd 9152 a5bc 9b0a 07be f145 08be
00000060: e21c dcbd b169 8d3e 977b 643d d333 2a3e
00000070: 8053 c63d d552 edbd 779b 10be 3079 a23e
00000080: f528 453d 3bee 9d3d 6c86 5cbd 2559 cdbd
00000090: 0937 ce3d b210 cfbd 1aaa 1b3d 94ad 8dbd
000000a0: f45f e9bc 3ab5 283d a970 413d 772b 6c3d
000000b0: 38bb bfbc 6ca3 833e ee79 163e 2fdf 09be
000000c0: 1f4c 83be 0745 273e bed8 27bd 19a9 a2bd
000000d0: e6c5 5dbd 728a 5c39 8234 24be af35 d83c
000000e0: 9ba4 a63e db5d 13be 8928 09be 628d d73d
000000f0: d738 313e 3be1 b3bd a75a 473e b614 1c3e
0.043166447 -0.063973784 0.3548323 0.11629462 0.26106864 -0.07250701 -0.12566456 -0.11302423
0.16904508 -0.37905708 -0.13582495 -0.14466502 -0.2184646 -0.20752318 0.12537575 0.1257653
-0.20006943 0.21880132 0.07833995 0.11091187 -0.03936011 -0.020180972 -0.1318764 -0.1330793
-0.107476965 0.276197 0.055781927 0.16621332 0.09683895 -0.115880646 -0.14121805 0.31733084
0.048134763 0.077114545 -0.053839132 -0.100267686 0.10069091 -0.10110606 0.03800402 -0.06917873
-0.028488137 0.041188456 0.04722658 0.05765864 -0.023404703 0.25710618 0.1469495 -0.13464044
-0.25644013 0.16334926 -0.040978186 -0.07942409 -0.05414381 0.0002103241 -0.16035655 0.026392786
0.3254746 -0.14391272 -0.13394369 0.105250135 0.17306839 -0.08783194 0.19468175 0.15242276

hidden.4.weight f4 [64, 64]
00000000: ba8d 8cbc 1fa6 4fbd 1996 e93c 29da 57bd
00000010: a357 833d dfe0 883d aff5 063e b4ae ea3c
00000020: 6910 d53c 264c 9d3d 47a8 21be 6bda f33c
00000030: df46 833d 8528 933c 231b ee3d d80f b2bd
00000040: c987 9b3d 7f4d 0bbe 0731 443e dfe3 13be
00000050: 70e8 fc3c b5e8 5ebd b48e 6b3e 6286 043e
00000060: 79a7 5c3e 43dd 0f3e 7c53 ed3c 0312 0b3e
00000070: a35d 203e 0640 f53d 79ad 813d 0c96 00be
00000080: 2173 12be 05f8 0ebe 537b c43d 8174 14be
00000090: 0946 6b3e 6275 5c3d 25df 423d 0878 6dbd
000000a0: c335 ebbd b1ec 803d 7c2e 92bd e76b 29bd
000000b0: 7e0c 0a3e 1856 d53d b0da 6b3e 0429 b1bd
000000c0: d361 53be 2df4 3bbd bf89 b63d 1079 48bd
000000d0: 1daf 673e 0325 22be 969e 163e 978a 92bd
000000e0: f1cf e0bd 9060 243d c350 bfbb 2127 96be
000000f0: 8efb d8bd 3a00 de3d 0e03 903d 2eff 0d3e
00000100: bf16 24be 8571 1b3d 59e3 6cbe cfec f03b
00000110: ab9f 1c3e 72fa 733a 79a3 8a3d eab0 0a3d
00000120: 3fad 763e cd84 863d e1c3 843d 7965 01be
00000130: 4d57 0dbd 4448 bf3d 2f1c 103e 7f4c ef3d
00000140: 850e a8bc c3b8 dabd f745 a83d cafd 893e
00000150: 549c ad3d 7aa4 e1bd 5a76 123e 8e45 453d
00000160: 2eaa 123e d9aa d6bd 1159 51be 8754 32bd
00000170: 5b87 313e 1a3c 4b3d 5839 0b3e 0b04 153d
00000180: 1b42 a1bd e356 403e 1e70 83be 7436 20be
00000190: 2c16 4fbd c0b0 62be 47a1 2d3e b5db 33be
000001a0: e49d 95bd f918 a13d eb61 1dbd 2cac 013e
000001b0: e19c f6bd 5c89 2f3d c765 a73c a066 23be
000001c0: 655a 223e 4df8 243e eb17 be3d a5ab 5d3e
000001d0: 8c1c 63bd 68c2 a8bd e7c5 b53d bf97 80be
000001e0: 93bb bebd 9154 04be a7c5 b03d ad2b 10bd
000001f0: 8281 283e 21a9 683e 3713 b1ba 585b e33d
00000200: a143 db3d c5f6 923d ac3b ea3d f7f1 f63d
00000210: b160 f23d cd58 bf3c 6249 ac3d 7de4 14bd
00000220: 63e6 463e 6378 84bd 92f2 b8bd 5809 6cbe
00000230: 5631 9fbd d3ae 6bbd 73c7 413d 141e a5bd
00000240: 0351 8b3e 0a12 adbc d610 553e ab38 be3d
00000250: beb4 d4bd 4552 14be e8a2 e9bc 1bf9 8dbd
00000260: 51a1 f53c 5280 20bd 1a75 c2bd 3f79 e13d
00000270: b5fc 323e 8f99 a93d 85ef 3fbd 56fa c0bd
00000280: 12b3 80bd 9426 943d d82c 053e 8f88 883e
00000290: e2ce 83bd 075e c73d b1db 4fbe 4eb8 853d
000002a0: 0b26 4c3e 0bdf 27bc 351e 97bd dc6d 55be
000002b0: 5d92 0fbe e3c5 a9bd bc09 5a3e 1651 a8be
000002c0: 9550 733e f28d 5bbe 0c1b 51bd f8a4 04be
000002d0: 7318 6ebe 0bf7 f7bd e912 9abd 1395 973d
000002e0: 92a6 f3bc 5a7d 523c d174 1ebe a87d 7d3d
000002f0: 366c 773e 321c c43d 8893 263e 4774 e7bd
00000300: ceb7 e83b b38b 583d 9944 43be 9ade 0a3d
00000310: 3c0e d13d 1644 903e db51 a5bd 31e2 743e
00000320: 8c59 903c 7f58 a2bc a087 1f3e 527c 073e
00000330: 8931 16be ff52 31bd fd7c b63e 3404 2f3d
00000340: 722c acbd 89d3 153d b70c c8bc 88ee 07bd
00000350: 0e51 2d3d 73ad b23d 65a7 ba3d f5a7 d1bc
00000360: 8c5d 5fbd 7291 25bd 5d5b 9c3d 2448 4e3e
00000370: 75ca 8dbc 804b 97ba 49d1 2b3e a999 e03d
00000380: dc63 52be 390d 843e 2093 74bd 9fb3 89bd
00000390: 83a8 d93d 0382 ab3c e1f9 883d b11a 9dbd
000003a0: 3923 afbd 721a e1bc 6b68 d43c 57c4 0abd
000003b0: ff84 5a3d 7fa2 0ebe 2a68 22bd 03eb 18be
000003c0: 2c3e 373d a987 093e cd76 43be e372 e0bc
000003d0: bd97 81bc a8ca 20bb 8bf4 3c3e 0a91 a53d
000003e0: 8fb9 7e3d 27eb 483c ea79 023d da95 003e
000003f0: c0a0 f73d 117c 893d 26e7 403c f978 2ebd
-0.017157424 -0.050695535 0.028513955 -0.052698288 0.064132 0.06683516 0.13179658 0.028647758
0.026008802 0.0768054 -0.15786849 0.029767236 0.06410002 0.017963657 0.1162627 -0.08694428
0.07594258 -0.13603781 0.19159327 -0.14442395 0.030872554 -0.054421145 0.23003656 0.12941888
0.21548261 0.14049248 0.028970473 0.1358109 0.1566072 0.11975102 0.063319154 -0.12557238
-0.1430173 -0.139618 0.09593835 -0.14497568 0.22975935 0.053822882 0.04757609 -0.0579758
-0.114848636 0.06295145 -0.071377724 -0.04136267 0.13481328 0.10416812 0.23032641 -0.08650401
-0.20642786 -0.04588716 0.08912992 -0.04894358 0.22625394 -0.15834431 0.14708933 -0.0715534
-0.10977162 0.04013115 -0.005838485 -0.29326728 -0.10594855 0.10839887 0.07031833 0.13866875
-0.16024302 0.037950058 -0.23133601 0.0073524485 0.15295283 0.00093070336 0.06769461 0.033860125
0.24089526 0.065682985 0.064826734 -0.12636365 -0.034507085 0.093399554 0.14073251 0.11684512
-0.020514736 -0.10679772 0.0821647 0.26951438 0.08477083 -0.110176995 0.1430296 0.048162036
0.14322731 -0.10481805 -0.20444132 -0.043537643 0.1733679 0.049617864 0.13596094 0.03638081
-0.07873937 0.18783145 -0.25671476 -0.15645772 -0.050558254 -0.22137737 0.16956054 -0.1756428
-0.07305506 0.07866091 -0.03842346 0.12663335 -0.12041641 0.042855605 0.020434273 -0.15957117
0.15854795 0.16110344 0.09281906 0.21647508 -0.055447146 -0.08240205 0.088756375 -0.25115773
-0.09313121 -0.12922885 0.08631449 -0.035197902 0.16455653 0.22720768 -0.0013509755 0.11101407
0.107062586 0.07175974 0.11437163 0.1205787 0.11834849 0.023357773 0.08412434 -0.036350716
0.19423823 -0.064682744 -0.090306416 -0.2305044 -0.07773082 -0.057539772 0.04730935 -0.080623776
0.27210245 -0.021126766 0.20807204 0.09288152 -0.10386036 -0.14484508 -0.028520063 -0.06932279
0.029984148 -0.039184876 -0.094949916 0.11009454 0.17479213 0.08281242 -0.046859283 -0.09422748
-0.06284155 0.07233921 0.13005388 0.26666686 -0.06435944 0.09734731 -0.2029865 0.06529294
0.19936387 -0.010246049 -0.073788084 -0.2084269 -0.14020677 -0.08289697 0.21292776 -0.32874364
0.23761208 -0.21440867 -0.051051185 -0.12953556 -0.23251514 -0.121076666 -0.07523138 0.074014805
-0.029742513 0.012847269 -0.1547425 0.061887413 0.24162373 0.0957569 0.16267216 -0.11301475
0.0071019894 0.052867603 -0.19069137 0.033903696 0.10207793 0.28176945 -0.08072253 0.2391441
0.017620824 -0.019817589 0.1557908 0.13231018 -0.14667334 -0.043292042 0.35642233 0.042728618
-0.08406915 0.03657869 -0.024420125 -0.033186466 0.042313628 0.08724489 0.09113959 -0.025592783
-0.054532573 -0.04042191 0.07634614 0.20144707 -0.017308453 -0.0011542886 0.16779055 0.10966808
-0.20545906 0.25791338 -0.05971062 -0.06723713 0.10627844 0.020936018 0.066882856 -0.076711066
-0.0855164 -0.02747843 0.025928697 -0.03387865 0.05334949 -0.13929175 -0.03965012 -0.149334
0.044737026 0.13430656 -0.19088288 -0.027398532 -0.015819425 -0.0024534855 0.1845266 0.08084305
0.06218868 0.012263096 0.031854548 0.12557164 0.120912075 0.06713117 0.01177386 -0.042595837

hidden.4.bias f4 [64]
00000000: d004 623c 22b4 97bd 0889 2bbd 00d2 6cba
00000010: c059 b63d 8030 b23d 10fd 133d 5a12 833d
00000020: 2a5a ed3d 401f 1ebb a07b c43b 80f2 b4bc
00000030: d0b0 bfbc a8d2 fabd 70ae 7ebd 307d 703c
00000040: 60b4 1d3d dc40 febd 3ca7 9e3d ee0e e6bd
00000050: 903d a1bc 3ed1 d1bd 6c2b 2dbd 9cfb 90bd
00000060: b843 a7bd 681a 8cbd f4d3 be3d 5086 e43c
00000070: 2265 dd3d 50c4 67bd 4eed a7bd faf6 a13d
00000080: ba9d f83d ba4b dcbd 0428 9dbd 6ca9 fc3d
00000090: 8cc1 283d 70c3 d4bc 8a3a b03d 629b b6bd
000000a0: 88b3 ebbd 42ea 903d e083 093c d48c 733d
000000b0: f4af a33d 3875 9c3c 500b ffbd c8b8 ad3d
000000c0: 38dc 26bd c02a c2bb 30aa 693d 28fa abbc
000000d0: 807c 22bc c013 febd f8d4 363d 42f5 e9bd
000000e0: fc60 fe3d 98d3 bb3d caec f33d 4675 803d
000000f0: 9024 593d 406c 3dbc c05f 543c 789b 07bd
0.013795093 -0.074074045 -0.04187873 -0.0009033978 0.08903837 0.08700657 0.03613001 0.06399985
0.11589463 -0.0024127513 0.0059961826 -0.02208829 -0.02339974 -0.12247211 -0.062178075 0.0146782845
0.038502097 -0.12414715 0.07746741 -0.11233316 -0.019682676 -0.10244988 -0.04227774 -0.07079241
-0.08167213 -0.06840974 0.093177706 0.027896076 0.10810305 -0.056583703 -0.08199559 0.07908435
0.12139459 -0.10756631 -0.07673648 0.12337002 0.041200206 -0.025972098 0.086049154 -0.08916356
-0.11508852 0.07075931 0.008393258 0.059460476 0.07992545 0.019098863 -0.124533296 0.0848251
-0.04073736 -0.0059255064 0.05704707 -0.020993307 -0.009917378 -0.12406111 0.044636697 -0.11423732
0.12420842 0.09171218 0.11910398 0.06272368 0.053013384 -0.011561453 0.012962282 -0.03310725

output.weight f4 [9, 64]
00000000: aa09 7239 4d24 b63e e19f 353d 5b2a 243e
00000010: e136 0dbe 5b27 8fbe 9903 cb3d 1006 6abe
00000020: d4fd 45be 8370 863f 7ccd b5be ffb6 cd3d
00000030: c3e7 62bd cc21 3f3f da94 003e 65a7 8ebd
00000040: 1bd0 033e 6139 eabe ea85 8c3e ffa2 5c3d
00000050: 8a99 1bbd 7fc8 e83e 29fb 09be 881f 07bf
00000060: ba39 13be 62f5 503e 091c 363f f787 d73d
00000070: 8e3f f9be cb63 efbe 81df 02be 75e6 123e
00000080: fa6a 653e 9795 bdbe e128 82be 50f3 ffbe
00000090: de3d 143e b686 d73e 5248 7f3d be5c d1be
000000a0: cb72 303e 6b24 783e d1af 2b3e 627f cbbe
000000b0: 991f ba3d 508f 8cbd ee39 4a3e 189c 5d3e
000000c0: 81d0 f83d 3824 8dbe 478b e7bd 841a d2be
000000d0: c7a4 353f 275d b83d e9d7 9bbe f5b5 533d
000000e0: 815d 203e 6792 6cbb 04cf 703e 931c 31be
000000f0: a14b 963e 9c0b bcbd 8a20 52be b605 0d3f
00000100: ac3c febe 175b 833e c320 afbe 7f8f 40be
00000110: 24c2 9c3e 81ef 42bf 845e dbbd 51f6 7b3e
00000120: 47eb 1cbf cf74 82bf 9b6b bc3c 5faa 1bc0
00000130: 0b4f ce3d 8958 d0be 5be6 aabc 5844 8b3e
00000140: b1b5 87be adc6 cdbd 63e3 a7bf 028d cbbe
00000150: 7498 26bf b965 da3e 4bb7 d63e b5d3 b33e
00000160: c6d6 023e 8bd7 853d 7b75 7cbe cffd c8bf
00000170: ea94 a33e 8d60 a93c ef07 38bd 7844 a83d
00000180: d296 ea3e 8576 25bf 65d3 0c3f c7a5 41bf
00000190: be79 48bf b046 c53f ac5f 793e 5856 a1be
000001a0: 9fb1 ef3c 5d2d e63e b386 75bd 17e5 c83e
000001b0: 7a3e bdbd d0f3 223e 45ed 8ebe 4de0 8bbe
000001c0: 6f3f 523d be30 5abe 3df6 8d3e 1ccd 3b3f
000001d0: 14c6 adbf a61a 8c3e 22f8 b13e 8d7e 0a40
000001e0: cadd c0be c65c 1a3d 2793 873e 3258 98bd
000001f0: 7ffa 74be a697 a43e 9a94 663e e814 26bf
00000200: 67e2 babe 1eca 20be 721a 1ebe eedc 1fbd
00000210: 9a27 b7bc e2e0 613e 2a79 9ebd 6d77 0c3e
00000220: 5999 093d 9836 f5be c9e5 59be a192 0d3b
00000230: 748b a7be c2c7 96bd 326d 9fbd 027b b13d
00000240: fb51 8a3d 85eb 2ebe 3cfb bdbc 8a21 103e
00000250: aa15 d03c 860d 70bd 2fa3 4dbd 21d3 4d3d
00000260: b1f8 4c3d 46b9 68bd 1810 a9bd 8422 5fbd
00000270: 5e12 5bbe c5e7 973d 8d16 553d f90c 51be
00000280: 6483 c23d 6de7 f4bb 0d36 ec3b e33b 93bd
00000290: 1981 0cbe 30bd 0bba b25e 183d 1a9b ae3d
000002a0: f2d5 20bd 8a81 493a ef11 033e 23d4 c1bc
000002b0: bbba a7bd c868 06be 0bc3 84bd 18d7 3cbe
000002c0: 1b76 67be bb71 2dbd cfd8 4bbe 1ca8 fe3d
000002d0: db45 1a3e 9898 08bd df85 1cbd f860 b7bd
000002e0: c140 d5bd 31c9 4dbd 9ea5 6e3d 243e d73d
000002f0: 6178 8d3d 679b a33e a532 fc3d d0c8 8abe
00000300: 89fb 223e 09f4 d73c bb3c 00be 5ba8 2d3e
00000310: 01ae 1c3e 7692 8a3e 242e b83e e806 bbbe
00000320: 7b9c d23c 788d 1abd fc20 00be 67f7 98bd
00000330: e589 b43c d399 67bd 3d89 40be ba2d 47be
00000340: e96d 52be 5fc7 613e cd8c d13d 7d00 e1be
00000350: 3cb7 1b3d 620b a0bc 7382 0fbe e74f 6abb
00000360: 1686 dbbd 82b0 96bd 1bca 343e fdc8 22be
00000370: c69a 993e 5621 39bd 1b41 a4bd 72fd c3bd
00000380: 7c1a 67bd ab6c c43e 8fae 0abd e428 ec3d
00000390: 100a 33be f504 19be 63a1 f23d f667 bc3d
000003a0: 7f9b b63d 3e7a 2dbc 80c5 0e3d 9c23 dfbe
000003b0: aa31 453e ebda 543e 3798 083e d94e 3e3e
000003c0: 13cf a93d 1b46 483e 2987 5a3e e36f d03e
000003d0: e34f a1be 7a4a ecbe cb53 ae3d 2833 48bd
000003e0: ea26 563b 9d9b 4abd 39f1 8a3e c7a8 1cbd
000003f0: c89f dcbc d225 113d e644 2dbd 1e35 2f3e
0.00023082519 0.3557457 0.044341926 0.16031782 -0.13790466 -0.27959713 0.099127956 -0.22853875
-0.19335109 1.0503086 -0.35508335 0.10044669 -0.055396806 0.74660945 0.12556782 -0.06965522
0.12872355 -0.45746902 0.27445918 0.053866383 -0.037988223 0.45465466 -0.13474716 -0.5278249
-0.1437749 0.20406106 0.7113653 0.1052398 -0.486813 -0.46755823 -0.12780572 0.14345725
0.2240409 -0.3702819 -0.25421813 -0.4999032 0.14476725 0.42094964 0.06232483 -0.4089107
0.1723129 0.24232642 0.16766287 -0.39745623 0.09088058 -0.06863272 0.19748661 0.21641576
0.12149144 -0.27566695 -0.11305862 -0.41035855 0.70954555 0.090021424 -0.30438164 0.0516872
0.15660669 -0.0036098005 0.2351647 -0.17296056 0.29354575 -0.09181902 -0.20520225 0.5508684
-0.49655664 0.25655434 -0.34204683 -0.1880474 0.30616868 -0.76146704 -0.10711387 0.24605681
-0.61296505 -1.0191897 0.023000529 -2.4322736 0.1007367 -0.40692547 -0.020861795 0.2720058
-0.26505807 -0.1004766 -1.3116268 -0.39756018 -0.65076375 0.42655733 0.41936716 0.35122457
0.12777242 0.06535252 -0.2465419 -1.5702456 0.3194955 0.020675922 -0.04492944 0.082161844
0.45818192 -0.6463397 0.5501006 -0.7564358 -0.78310764 1.5412197 0.24352902 -0.31511188
0.029259501 0.44956484 -0.059942912 0.39237282 -0.09240432 0.1591332 -0.27915397 -0.27319565
0.051330026 -0.21307656 0.27726927 0.7335985 -1.3576074 0.2736408 0.34759623 2.163974
-0.37669212 0.037686132 0.26479456 -0.07438697 -0.23923682 0.3214695 0.22517624 -0.6487565
-0.36500856 -0.15702102 -0.15439776 -0.039029054 -0.02235775 0.22058442 -0.07737954 0.13717432
0.03359351 -0.47893214 -0.21279062 0.002160229 -0.32723582 -0.073623195 -0.07784499 0.0866604
0.06753918 -0.17082031 -0.023191087 0.14075294 0.025400955 -0.058606647 -0.050204452 0.050250176
0.050041858 -0.056817316 -0.08255023 -0.054476276 -0.21393725 0.074172534 0.05202346 -0.20415105
0.09497717 -0.007473877 0.007208592 -0.07189157 -0.13721122 -0.00053306203 0.037199683 0.08525677
-0.039266534 0.00076868443 0.1279981 -0.023660725 -0.08189913 -0.13125908 -0.06482514 -0.18441427
-0.22603647 -0.04234479 -0.19906925 0.12434408 0.1506571 -0.03334865 -0.038213607 -0.08954042
-0.104127415 -0.0502407 0.058263414 0.10509899 0.06907726 0.319545 0.12314347 -0.27106333
0.15916266 0.026361482 -0.12523167 0.16958754 0.15300752 0.27064866 0.35972703 -0.36528707
0.025709381 -0.03773257 -0.12512583 -0.07469063 0.02203841 -0.056543183 -0.18802352 -0.19451037
-0.2054974 0.2204871 0.10231934 -0.43945685 0.038016543 -0.019536678 -0.14014606 -0.0035753192
-0.10718934 -0.07357885 0.17655222 -0.15896983 0.30000895 -0.045197807 -0.080202304 -0.09569825
-0.05642174 0.38364157 -0.03385788 0.11531237 -0.17484307 -0.14943297 0.11847188 0.091995165
0.08916377 -0.010588227 0.03485632 -0.43581855 0.19257227 0.20786636 0.13339315 0.18584765
0.082914494 0.19557993 0.21340622 0.40710363 -0.3150626 -0.4615057 0.08512076 -0.04887691
0.0032677003 -0.04946481 0.27137163 -0.038246896 -0.026931658 0.03543646 -0.042302035 0.17110106

output.bias f4 [9]
00000000: 962b 46bd f5fa 19bd 7991 613d 7489 4d3b
00000010: 6f17 a83c fe0c da3e fd24 41be 16d0 153e
00000020: 6119 8a3e
-0.04838141 -0.037592847 0.055070374 0.0031362446 0.020518987 0.42588037 -0.18861766 0.1463016
0.26972488
