results/2_weighting/SM_AVR_GOVDynamicNN_1_500_80000_100000_10000_None_None_1_0.001_0.0001_0.001_Static.pth (torch, 77659 bytes, 12 tensors)

hidden.0.weight f4 [64, 10]
-0.70154 -0.21751676 0.053899534 -0.036122974 -0.022363324 -0.21982092 -0.16048491 0.2729404
-0.4025031 0.024932435 1.0821439 0.06195039 -0.14110316 0.0044142464 0.68674564 0.39604646
0.6304713 0.40470618 0.34377342 0.3251868 -0.110636376 0.058011383 0.029330144 0.01856351
-0.08416912 -0.10005249 -0.08036745 0.11854431 -0.12368862 -0.21322337 -0.1833317 0.6446789
-0.021026993 0.013204868 -0.46815726 -0.42211065 -0.4959232 -0.36983144 -0.18582839 -0.22337945
-0.4096716 -0.30313364 0.048735693 -0.046961233 0.26153663 0.058850437 0.048724957 -0.06995661
-0.20690383 -0.33809236 -0.058349766 0.042224426 -0.10369363 -0.26087692 -0.42469296 -0.3748736
-0.4282421 -0.30105507 -0.11268595 0.07061608 0.5160546 -0.54016197 -0.03131204 -0.19386356
0.08186197 -0.18522958 -0.43715253 -0.2456154 0.2615855 -0.026626445 0.7992703 0.25033635
-0.017767861 0.19438222 -0.2863769 -0.13055311 0.10259848 0.030836774 -0.08269118 -0.21867226
0.9619232 -0.13720894 0.052543093 -0.38201874 0.071184196 -0.089015424 -0.021815406 -0.19559236
-0.1277511 0.08020767 0.49778098 -0.4021921 0.06666111 -0.18482603 -0.19400801 0.17497262
0.04621155 -0.09370788 0.16959202 0.020967934 1.219319 -0.11761467 -0.059398066 0.068785794
-0.17383315 -0.072448164 -0.22134201 0.011490535 0.19811976 0.24457107 -0.81815785 0.5946711
0.0071781077 0.13371073 -0.22320041 0.1142891 0.10514559 -0.1199361 -0.14276432 -0.004260188
0.13308255 0.028831229 -0.12473518 0.063024245 0.13215597 0.27409503 0.4380112 0.41051447
0.37242028 0.06325239 -0.050266612 0.11132739 -0.12831232 -0.19875379 -0.0047226185 -0.22011271
0.030043814 -0.1673192 -0.058936484 0.10311182 -3.8179173 -0.03057624 0.014958908 -0.16609034
0.25503612 -0.14262712 -0.33599362 -0.040258147 -0.09695021 0.13568199 0.5372928 -0.18642883
0.056490023 -0.14031808 0.011024686 0.023514984 0.32008854 0.2522892 0.098806754 0.12771407
0.05354971 -0.11906212 -0.14554119 0.008424681 -0.1288504 0.17505893 0.07563402 0.32019728
-0.27819762 0.19761993 -1.0434984 0.33675456 0.031022385 0.3414409 -0.13727742 0.46797442
0.15313166 0.18718041 0.23667867 0.0482645 -1.1766036 -0.29243898 -0.09409747 0.044175252
-0.37370715 -0.020208217 -0.4307558 0.16190913 -0.1621218 -0.11783448 0.22243471 -0.3631074
-0.034212314 0.20297192 -0.29135337 -0.43303123 -0.51884365 -0.23956588 -0.14194098 -0.32459518
-0.65823525 0.14937054 0.075372934 0.2217672 -0.23398449 0.07462495 -0.16447389 0.18654267
0.017927594 -0.0097307535 -1.1430833 -0.06943533 0.019469416 0.0490514 0.1840361 -0.01085472
0.045688476 -0.04328973 -0.1894385 -0.24433477 0.084316775 -0.27163476 -0.08952479 0.019863037
-0.19206755 0.18863109 -0.32817787 -0.066227704 -0.022059893 0.02175286 -0.29388806 0.10640314
0.077728294 0.09374144 -0.32323077 0.07176181 0.28139648 0.0072950153 0.22726013 0.2748676
0.5869377 0.18146455 0.18635833 -0.13907209 0.1475098 -0.28008804 -0.14409614 -0.21485354
-0.11148949 -0.28859502 -1.7404879 0.12740889 -0.039877653 -0.2559445 -0.30033344 -0.008136124
00000000: 2098 33bf b7bc 5ebe c2c5 5c3d aff5 13bd
00000010: 4a33 b7bc bc18 61be 2856 24be d8be 8b3e
00000020: e314 cebe 1b3f cc3c b183 8a3f b1bf 7d3d
00000030: 597d 10be 62a5 903b 90ce 2f3f 9ac6 ca3e
00000040: 9166 213f a635 cf3e 1203 b03e e27e a63e
00000050: 5395 e2bd 589d 6d3d c545 f03c 8112 983c
00000060: dc60 acbd 52e8 ccbd b197 a4bd 5cc7 f23d
00000070: 7650 fdbd 3a57 5abe 4ebb 3bbe ad09 253f
00000080: cd40 acbc 3b59 583c 4fb2 efbe e31e d8be
00000090: a5e9 fdbe 8c5a bdbe cc49 3ebe 95bd 64be
000000a0: 7ac0 d1be 5534 9bbe 149f 473d 6c5a 40bd
000000b0: 21e8 853e 280d 713d d293 473d 6945 8fbd
000000c0: 99de 53be 711a adbe 2a00 6fbd 85f3 2c3d
000000d0: 535d d4bd a991 85be 5b71 d9be 6fef bfbe
000000e0: 8c42 dbbe e423 9abe e4c7 e6bd 2a9f 903d
000000f0: 271c 043f 0e48 0abf 0e41 00bd 2b84 46be
00000100: 40a7 a73d d3ac 3dbe 75d2 dfbe 9a82 7bbe
00000110: 89ee 853e b41f dabc fa9c 4c3f 162c 803e
00000120: e88d 91bc 220c 473e fe9f 92be b7af 05be
00000130: 271f d23d 679d fc3c fe59 a9bd 9feb 5fbe
00000140: 9940 763f 8080 0cbe 6d37 573d f697 c3be
00000150: 05c9 913d b84d b6bd 39b6 b2bc 5d49 48be
00000160: 2fd1 02be eb43 a43d 26dd fe3e 1fec cdbe
00000170: 9f85 883d 0943 3dbe 09aa 46be 062c 333e
00000180: 5248 3d3d ebe9 bfbd 88a9 2d3e f2c4 ab3c
00000190: a512 9c3f f6df f0bd 634b 73bd 91df 8c3d
000001a0: 5101 32be b45f 94bd 7ba7 62be cc42 3c3c
000001b0: e8df 4a3e d770 7a3e cb72 51bf 5d3c 183f
000001c0: 5536 eb3b 77eb 083e a68e 64be 6710 ea3d
000001d0: 9256 d73d 0fa1 f5bd cf30 12be 0c99 8bbb
000001e0: cb46 083e 782f ec3c 2875 ffbd db12 813d
000001f0: e553 073e 2f56 8c3e 0143 e03e f42e d23e
00000200: dfad be3e 788a 813d 5de4 4dbd 9dff e33d
00000210: 4e64 03be 1d86 4bbe 32c0 9abb 3a65 61be
00000220: 721e f63c b955 2bbe 6267 71bd 4a2c d33d
00000230: c258 74c0 067b fabc 3516 753c 9613 2abe
00000240: 1894 823e d80c 12be 5b07 acbe bae5 24bd
00000250: d58d c6bd 38f0 0a3e 058c 093f 33e7 3ebe
00000260: 1562 673d 8baf 0fbe e2a0 343c 7fa2 c03c
00000270: a5e2 a33e 0d2c 813e 325b ca3d 7ac7 023e
00000280: f156 5b3d d7d6 f3bd c008 15be ac07 0a3c
00000290: 5cf1 03be a642 333e 02e6 9a3d e6f0 a33e
000002a0: eb6f 8ebe e15c 4a3e 5b91 85bf 186b ac3e
000002b0: a822 fe3c 57d1 ae3e 7492 0cbe 589a ef3e
000002c0: 8cce 1c3e 39ac 3f3e e55b 723e ffb0 453d
000002d0: f29a 96bf 90ba 95be 2db6 c0bd 1cf1 343d
000002e0: 8b56 bfbe b48b a5bc 068c dcbe 82cb 253e
000002f0: 4203 26be 3453 f1bd edc5 633e 37e9 b9be
00000300: 3622 0cbd dfd7 4f3e 452c 95be 45b6 ddbe
00000310: f0d2 04bf c250 75be fa58 11be 5731 a6be
00000320: 1b82 28bf 97f4 183e 205d 9a3d f116 633e
00000330: a199 6fbe f7d4 983d d86b 28be 0b05 3f3e
00000340: e4dc 923c bd6d 1fbc 8e50 92bf 1c34 8ebd
00000350: 537e 9f3c 1fea 483d f673 3c3e ffd7 31bc
00000360: d723 3b3d 9250 31bd 2bfc 41be e532 7abe
00000370: 46ae ac3d b613 8bbe c658 b7bd cfb7 a23c
00000380: 5bad 44be 8228 413e ee06 a8be 64a2 87bd
00000390: f3b6 b4bc 0e33 b23c 7f78 96be e4e9 d93d
000003a0: 0330 9f3d 83fb bf3d 817e a5be dbf7 923d
000003b0: 3313 903e 060b ef3b e1b6 683e 72bb 8c3e
000003c0: 8d41 163f d8d1 393e b8d4 3e3e ea68 0ebe
000003d0: cf0c 173e b367 8fbe f08d 13be 9102 5cbe
000003e0: 9a54 e4bd bac2 93be 4fc8 debf 7a77 023e
000003f0: c056 23bd 280b 83be 4ec5 99be 614d 05bc

hidden.0.bias f4 [64]
0.2279222 0.31394425 -0.1509292 -0.03627218 -0.23396803 0.0144057395 -0.23948807 0.31447554
-0.09594293 0.346422 -0.2284684 -0.079773955 0.5047324 -0.39472675 -0.10142286 0.08021103
0.29837766 0.13441895 -0.41865695 -0.20366642 0.099673115 -0.24279067 0.1314369 0.2573926
-0.047962688 0.17324841 0.25938118 0.45956543 0.01628887 0.3215404 0.1680942 0.41279465
-0.33955246 0.032492034 -0.07366094 0.28126043 -0.038191162 -0.16537233 -0.11160641 -0.10771528
0.027487088 -0.14386302 -0.072664864 0.5473161 0.1579668 0.34454328 -0.0758306 0.10408756
0.28267565 0.10594762 -0.09014835 -0.23097286 0.37548783 0.3269209 -0.15011255 0.27437115
0.28044385 -0.34376863 -0.13850273 -0.10223285 0.063471965 0.10134106 0.10040402 -0.28866288
00000000: 7064 693e 4dbd a03e 2f8d 1abe 2392 14bd
00000010: 5195 6fbe 0d06 6c3c 5c3c 75be f002 a13e
00000020: ba7d c4bd 395e b13e 9ff3 69be 8760 a3bd
00000030: 2436 013f a019 cabe cab6 cfbd ae45 a43d
00000040: f5c4 983e 1fa5 093e 345a d6be ee8d 50be
00000050: 6b21 cc3d 1e9e 78be 6597 063e f6c8 833e
00000060: 8674 44bd 0868 313e 9ccd 843e 294c eb3e
00000070: 3c70 853c f1a0 a43e e320 2c3e d259 d33e
00000080: d2d9 adbe 5e16 053d 8cdb 96bd 5e01 903e
00000090: 566e 1cbd 5d57 29be e791 e4bd d499 dcbd
000000a0: 9a2c e13c d450 13be 51d1 94bd e81c 0c3f
000000b0: 0cc2 213e fa67 b03e 134d 9bbd dc2b d53d
000000c0: ddba 903e 11fb d83d b39f b8bd 2684 6cbe
000000d0: f13f c03e 2d62 a73e 1bb7 19be 607a 8c3e
000000e0: 5696 8f3e 7102 b0be a9d3 0dbe 755f d1bd
000000f0: 97fd 813d e78b cf3d 9fa0 cd3d 9fcb 93be

hidden.1.weight f4 [64, 64]
0.047641132 0.1598861 0.034430563 0.11893538 0.027667496 0.048283827 0.0749296 -0.12230627
-0.11185067 -0.31541172 -0.051644616 -0.108552694 -0.3070387 0.21666382 -0.15514196 -0.028091747
-0.32909244 -0.0671699 -0.013748774 -0.031138947 0.0072667436 -0.14802258 -0.0012404865 -0.075766146
0.04397941 -0.07237688 -0.17369287 -0.01595078 0.06717444 0.051943276 -0.005716101 -0.29208052
0.16673693 -0.296272 -0.03975471 -0.1970794 -0.14978132 -0.08269078 0.2602525 0.30545497
-0.007072991 0.19462846 -0.081077576 -6.405503e-05 -0.030575959 -0.093804985 0.067672916 -0.029532706
-0.046258565 -0.1808188 0.2810702 0.19930923 -0.07342836 -0.043871254 -0.018762123 -0.12112301
-0.28433645 0.15740538 0.26010802 -0.22645564 -0.020346474 -0.3870448 -0.24474189 0.12680368
-0.33977482 0.11518112 -0.053310044 -0.09451065 0.25910896 -0.06232127 -0.098024935 0.10044156
0.05571593 0.05320894 0.052532375 0.28888085 -0.2522858 0.23822422 -0.17881449 -0.038375407
-0.21713217 -0.1736994 -0.023095962 0.11204162 -0.253138 0.10024964 0.03451121 -0.1398709
0.18769462 -0.2545424 0.2937164 -0.06318685 -0.16663621 -0.018773807 -0.043815877 -0.22619848
0.16297291 -0.07854675 0.016125536 -0.19926028 0.10833665 0.09985948 0.120200306 0.29379007
-0.05778969 -0.11038031 -0.25656393 -0.079455666 0.02617763 -0.071096905 0.004492307 0.022895403
-0.19417973 -0.1493628 0.041720156 0.15235466 -0.069573626 -0.018147945 0.019667484 -0.19284438
-0.3901718 0.18784155 0.066586256 -0.14437623 0.09062844 0.089819826 -0.04097117 0.26179954
0.030598931 -0.063601874 -0.123913534 0.08702483 0.0831275 0.17396861 0.09144156 -0.079402365
-0.09826805 0.04999561 0.19270727 0.1357041 -0.095489934 0.2187159 0.10888074 0.099245094
0.06110343 0.057780955 -0.10795415 -0.10015829 0.0685074 -0.10736646 0.010105528 0.11969002
0.026172893 0.17475666 -0.096292086 0.08801205 0.19786032 -0.09028012 -0.059138563 0.14082253
0.099925146 -0.037105672 -0.20464447 0.1374 0.05046713 0.24622501 0.025706075 -0.20872672
-0.107083045 -0.07720508 0.13942882 0.028617375 -0.036549285 -0.07896222 0.120203935 -0.08401659
-0.06662537 -0.0991683 -0.18045701 -0.1315085 0.047321193 -0.111673124 0.101839185 -0.052572157
0.06823458 -0.02693493 0.11972065 -0.08072906 -0.082691975 -0.09781004 -0.12680316 -0.009443911
0.093395025 -0.08382074 0.019361297 0.040399984 -0.09026832 0.06271098 -0.16829999 -0.3487
-0.23954636 -0.34748456 -0.18641481 0.22613665 0.035362758 -0.042002555 0.33020052 -0.08077465
0.18977274 0.08976497 0.11187958 0.33589286 0.038189285 0.12706661 -0.3437789 0.0956265
-0.12249089 0.14606874 -0.057036303 0.090742834 0.16741729 0.17969045 0.052222487 -0.011174186
0.09872125 -0.10504449 -0.18646093 -0.31639376 -0.19425215 0.093527205 0.08146838 0.044856723
-0.08981027 0.08297711 -0.06264962 0.036300745 -0.132784 0.25101134 0.14432223 0.055832054
0.03957745 0.25194472 0.2265011 -0.15962867 -0.17832762 -0.056329213 0.3100932 0.043229356
-0.11855389 0.24028559 0.023009319 0.072823174 -0.12448155 0.11369074 0.2524967 -0.09569672
00000000: 5923 433d 2fb9 233e 1007 0d3d 6494 f33d
00000010: f2a6 e23c 43c5 453d b174 993d b67b fabd
00000020: f711 e5bd a57d a1be 4e89 53bd e050 debd
00000030: 2d34 9dbe 1fdd 5d3e 89dd 1ebe aa20 e6bc
00000040: ce7e a8be 5f90 89bd 8a42 61bc 1b17 ffbc
00000050: dd1d ee3b 3b93 17be d297 a2ba 482b 9bbd
00000060: c123 343d 543a 94bd 8bdc 31be 36ab 82bc
00000070: c192 893d 79c2 543d 214e bbbb 948b 95be
00000080: 16bd 2a3e f7b0 97be d6d5 22bd 2fcf 49be
00000090: 4660 19be c959 a9bd d13f 853e 9864 9c3e
000000a0: 8dc4 e7bb af4c 473e 000c a6bd 4855 86b8
000000b0: 6f7a fabc d41c c0bd 1998 8a3d 93ee f1bc
000000c0: 9f79 3dbd 9028 39be 6fe8 8f3e b817 4c3e
000000d0: 9c61 96bd 58b2 33bd 06b3 99bc 570f f8bd
000000e0: 8c94 91be e02e 213e e12c 853e fde3 67be
000000f0: a6ad a6bc bc2a c6be 9e9d 7abe d3d8 013e
00000100: f7f6 adbe 14e4 eb3d a25b 5abd cd8e c1bd
00000110: eea9 843e 9744 7fbd 4cc1 c8bd 4eb4 cd3d
00000120: 6336 643d 9ef1 593d 302c 573d 31e8 933e
00000130: 9b2b 81be 0df1 733e 251b 37be 882f 1dbd
00000140: e557 5ebe 41de 31be be33 bdbc 1476 e53d
00000150: 4e9b 81be af4f cd3d a05b 0d3d 513a 0fbe
00000160: 0533 403e 6253 82be ff61 963e 1b68 81bd
00000170: afa2 2abe 87cb 99bc 4778 33bd 93a0 67be
00000180: 5fe2 263e 1edd a0bd b319 843c e30a 4cbe
00000190: 9bdf dd3d 2183 cc3d 942b f63d a76b 963e
000001a0: e2b4 6cbd 120f e2bd 595c 83be a7b9 a2bd
000001b0: 7872 d63c 419b 91bd 3434 933b 248f bb3c
000001c0: 0dd7 46be 90f2 18be c1e2 2a3d dc02 1c3e
000001d0: 9e7c 8ebd 00ab 94bc b41d a13c ff78 45be
000001e0: 99c4 c7be 8959 403e 605e 883d 5dd7 13be
000001f0: 679b b93d 75f3 b73d 63d1 27bd 970a 863e
00000200: 9caa fa3c b341 82bd 61c6 fdbd 133a b23d
00000210: c03e aa3d d424 323e b645 bb3d b59d a2bd
00000220: c240 c9bd 32c8 4c3d 0e55 453e 04f6 0a3e
00000230: 3a90 c3bd 10f7 5f3e defc de3d 0341 cb3d
00000240: 9747 7a3d b9ab 6c3d 1117 ddbd ca1f cdbd
00000250: 9c4d 8c3d f2e2 dbbd a891 253c 0b20 f53d
00000260: 8968 d63c 69f3 323e c934 c5bd a93f b43d
00000270: e59b 4a3e c9e4 b8bd 473b 72bd c833 103e
00000280: 8ea5 cc3d 1efc 17bd 528e 51be 96b2 0c3e
00000290: 9fb6 4e3d 6922 7c3e 8c95 d23c 75bc 55be
000002a0: 5b4e dbbd b21d 9ebd 6ec6 0e3e fc6e ea3c
000002b0: b4b4 15bd f2b6 a1bd 7b2d f63d e410 acbd
000002c0: e272 88bd c018 cbbd b9c9 38be 2aaa 06be
000002d0: ded3 413d e1b4 e4bd 1091 d03d e755 57bd
000002e0: 92be 8b3d a4a6 dcbc 1a30 f53d 4755 a5bd
000002f0: 695a a9bd a150 c8bd b0d8 01be a2ba 1abc
00000300: e445 bf3d 35aa abbd 959b 9e3c 747a 253d
00000310: 99de b8bd 9d6e 803d d556 2cbe ce88 b2be
00000320: a44b 75be 7fe9 b1be 86e3 3ebe 5e90 673e
00000330: 8ad8 103d df0a 2cbd 0b10 a93e 2e6d a5bd
00000340: c953 423e b2d6 b73d 1f21 e53d 26fa ab3e
00000350: 5e6c 1c3d c01d 023e ca03 b0be d4d7 c33d
00000360: 81dc fabd 0b93 153e e69e 69bd 61d7 b93d
00000370: 706f 2b3e c600 383e 3fe7 553d ef13 37bc
00000380: 5e2e ca3d 9121 d7bd 9def 3ebe 5dfe a1be
00000390: 09ea 46be 318b bf3d e5d8 a63d afbb 373d
000003a0: 72ee b7bd e7ef a93d 724e 80bd 17b0 143d
000003b0: 87f8 07be 8f84 803e 35c9 133e 27b0 643d
000003c0: f71b 223d e6fe 803e e8ef 673e b375 23be
000003d0: 849b 36be 76b9 66bd 89c4 9e3e 4411 313d
000003e0: 62cc f2bd 6d0d 763e 0a7e bc3c 5124 953d
000003f0: 2ff0 febd b1d6 e83d 3f47 813e a4fc c3bd

hidden.1.bias f4 [64]
-0.26435843 -0.26666927 -0.059260022 -0.17134602 -0.16657509 -0.11819828 0.091426246 0.07004911
0.10314998 -0.049121335 0.27542266 0.24057402 0.16187274 -0.5287827 -0.010370913 -0.23077615
-0.3454381 -0.09875769 0.3320111 -0.11095109 0.2987517 0.22340724 0.119857624 0.21544138
-0.1592435 0.35787565 -0.16144696 -0.0597723 0.2467139 -0.25258863 0.21033974 0.108648
-0.07264891 0.3648465 0.34050152 -0.008901941 -0.023170603 0.025734905 0.092372 -0.27284473
-0.11864723 0.053874034 0.07882269 -0.038843267 -0.30044293 0.123217136 -0.12035729 0.11232695
0.11231264 0.21699305 -0.07475994 0.28422105 -0.20666492 -0.15631902 -0.015142397 -0.0037798004
0.031277902 0.051918637 0.04823789 0.08567054 0.029775413 0.20025985 -0.20139572 -0.261473
00000000: fd59 87be e088 88be a3ba 72bd 5575 2fbe
00000010: a992 2abe f111 f2bd af3d bb3d e875 8f3d
00000020: 4c40 d33d 7433 49bd 3304 8d3e 0959 763e
00000030: f8c1 253e 4e5e 07bf c3ea 29bc 9550 6cbe
00000040: 43dd b0be 7941 cabd 5cfd a93e 533a e3bd
00000050: fcf5 983e dec4 643e ea77 f53d aa9c 5c3e
00000060: ba10 23be 7a3b b73e 5a52 25be cdd3 74bd
00000070: 92a2 7c3e 4c53 81be 4d63 573e d882 de3d
00000080: f4c8 94bd 29cd ba3e 3756 ae3e 72d9 11bc
00000090: 47d0 bdbc 02d2 d23c 882d bd3d 4eb2 8bbe
000000a0: 52fd f2bd 05ab 5c3d ca6d a13d 1e1a 1fbd
000000b0: a8d3 99be 4459 fc3d e27d f6bd ac0b e63d
000000c0: 2b04 e63d 6d33 5e3e bd1b 99bd 6c85 913e
000000d0: f89f 53be 1812 20be d117 78bc 87b6 77bb
000000e0: 421d 003d a3a8 543d 1895 453d 0974 af3d
000000f0: 91eb f33c eb10 4d3e ae3a 4ebe cadf 85be

hidden.2.weight f4 [64, 64]
-0.004974264 -0.31815097 -0.16331424 0.015685918 -0.086079106 -0.21359976 -0.086992025 0.16979694
-0.022316853 -0.08676918 0.12550887 0.064875774 0.10030134 0.056699052 -0.26477727 0.0022057998
-0.34832963 -0.3419315 0.013366534 -0.13762997 0.05322186 0.1498324 0.21797486 0.16500886
-0.113257505 0.32252187 -0.0723885 0.04137387 -0.095207185 -0.14934944 0.07411495 -0.044025015
-0.12887233 0.13925678 0.35969695 -0.06506135 0.0664275 0.23410639 0.063987665 -0.08861538
0.13573693 0.001205746 -0.1269595 -0.1454978 -0.29876235 -0.008748821 -0.08863005 -0.0356998
-0.061682172 0.009938281 -0.21413592 0.3171817 -0.039777976 0.025965327 -0.13290763 0.09167042
-0.07420637 0.088596806 0.07023618 0.03046387 0.18035124 -0.044024184 -0.28240225 -0.07485894
-0.38359556 -0.18031044 -0.041513022 0.15199575 -0.054954074 -0.09191287 0.14505534 0.055503704
0.08476218 0.13140067 -0.19030567 0.1648885 -0.2566975 -0.01596285 0.2673173 0.08731804
-0.2548173 0.10041574 -0.049277525 0.1475756 0.15982202 0.07915283 0.1487275 0.080226414
-0.06299204 0.069529116 0.14067486 0.07690958 -0.0033323397 -0.43953446 0.14819048 -0.06211144
0.24821554 -0.03171297 -0.010026691 -0.21073122 0.003199785 -0.0777463 -0.002995796 -0.17563857
0.24691428 -0.040926505 0.15717608 -0.13619371 -0.021486536 -0.026738422 0.174817 0.008829363
0.13071729 0.2169777 -0.20945501 0.005092339 -0.17071939 0.09347825 -0.072432674 -0.15099451
-0.14127502 0.034346916 -0.2124655 0.0849378 0.17309967 -0.12381658 -0.19956337 -0.07857145
-0.13494368 -0.098343566 0.085668586 -0.1576544 0.12029993 0.0050237863 -0.12757659 -0.094810545
0.020464314 0.0843459 0.17798632 -0.0060464363 0.15559493 0.16322438 0.15598553 0.10230061
0.11313567 0.11585418 -0.086937115 0.047717214 -0.13068813 0.030994324 0.0064808335 0.07267919
0.057576183 0.060055967 0.023397498 -0.0002080705 -0.085133635 0.034031536 -0.023714809 -0.18691663
0.011259998 -0.19269069 -0.004746445 0.24525826 0.08335551 -0.017609179 -0.14866896 -0.10616935
0.017784236 0.13027239 -0.22503603 -0.09162618 -0.095139846 -0.15135743 0.025940578 -0.032223824
0.051366888 0.17598715 0.022744704 0.015546938 -0.22529824 -0.11799192 0.114342116 0.20922454
0.03642123 0.07237435 0.16305074 0.16127618 0.020732403 0.005462301 -0.07086841 -0.34031397
0.1063245 -0.17424121 -0.02162972 -0.084497645 -0.09657883 -0.020060154 0.07822618 0.09475466
-0.12274319 0.16414429 -0.032401398 -0.07368471 -0.27820092 -0.11703458 0.012470492 0.06681255
0.06110239 0.102131404 0.08826958 -0.08703838 -0.08610963 0.06620088 0.03075056 0.064854905
0.23122261 0.12117818 -0.3887598 -0.12891869 0.0483268 0.012824356 0.28378174 -0.0077402024
-0.05689255 -0.04665896 0.063617684 0.020139938 0.27289635 0.014484059 0.23030216 0.2000422
0.029366372 -0.03987281 0.23742478 -0.13101096 0.116256386 0.10909393 -0.12124321 -0.05899245
0.119933695 -0.009620568 0.16465254 0.16654886 0.022453887 0.035090555 -0.23092225 -0.2655656
-0.07962179 -0.34754676 0.118626975 0.02666721 -0.08554133 -0.19058248 0.17870986 0.032300025
00000000: 27ff a2bb afe4 a2be d93b 27be c17f 803c
00000010: 3e4a b0bd e5b9 5abe e028 b2bd 40df 2d3e
00000020: d5d1 b6bc 0ab4 b1bd 6685 003e 97dd 843d
00000030: ca6a cd3d 443d 683d e390 87be 2e8f 103b
00000040: 4358 b2be a511 afbe 4fff 5a3c dfee 0cbe
00000050: 2aff 593d aa6d 193e cd34 5f3e 15f8 283e
00000060: 8df3 e7bd 9621 a53e 6c40 94bd a677 293d
00000070: fcfb c2bd 0fef 18be 94c9 973d 9353 34bd
00000080: 1cf7 03be 5499 0e3e 332a b83e e33e 85bd
00000090: 240b 883d 96b9 6f3e f70b 833d fb7b b5bd
000000a0: 9ffe 0a3e 1f0a 9e3a ac01 02be 60fd 14be
000000b0: 61f7 98be 3757 0fbc ac83 b5bd f439 12bd
000000c0: 72a6 7cbd 2cd4 223c 7246 5bbe a465 a23e
000000d0: 3bee 22bd 3db5 d43c f018 08be b3bd bb3d
000000e0: 82f9 97bd 3e72 b53d fdd7 8f3d 5e8f f93c
000000f0: ffad 383e b452 34bd 0797 90be a54f 99bd
00000100: a366 c4be 4da3 38be 8f09 2abd c6a4 1b3e
00000110: 8617 61bd d13c bcbd 6389 143e da57 633d
00000120: cb97 ad3d e68d 063e 7ddf 42be 88d8 283e
00000130: db6d 83be 86c4 82bc d0dd 883e cdd3 b23d
00000140: 6a77 82be c4a6 cd3d 3bd7 49bd 0f1e 173e
00000150: 62a8 233e e11a a23d 064c 183e bf4d a43d
00000160: f801 81bd 4865 8e3d 120d 103e c582 9d3d
00000170: 6263 5abb a90a e1be 3fbf 173e 9168 7ebd
00000180: 372c 7e3e 76e5 01bd fd46 24bc edc9 57be
00000190: 7cb3 513b 7439 9fbd 1e55 44bb 99da 33be
000001a0: 19d7 7c3e 8da2 27bd c4f2 203e 5d76 0bbe
000001b0: 8804 b0bc 890a dbbc 3a03 333e 08a9 103c
000001c0: c1da 053e 672f 5e3e 607b 56be a3dd a63b
000001d0: 10d1 2ebe 8671 bf3d 9557 94bd 4e9e 1abe
000001e0: 66aa 10be 5aaf 0c3d 8e90 59be dff3 ad3d
000001f0: 0a41 313e 8c93 fdbd 575a 4cbe 12ea a0bd
00000200: ad2e 0abe 5a68 c9bd 0373 af3d 2870 21be
00000210: cf5f f63d 939e a43b 70a3 02be 082c c2bd
00000220: c7a4 a73c 8bbd ac3d 0c42 363e 2f21 c6bb
00000230: 4754 1f3e 4b24 273e acba 1f3e fb82 d13d
00000240: adb3 e73d f544 ed3d 160c b2bd 2073 433d
00000250: 1cd3 05be cfe7 fd3c 2c5d d43b d4d8 943d
00000260: 01d5 6b3d 3ffd 753d 1cac bf3c 802d 5ab9
00000270: 8b5a aebd a764 0b3d 8f45 c2bc 1367 3fbe
00000280: db7b 383c b550 45be 1188 9bbb fb24 7b3e
00000290: 4bb6 aa3d 2041 90bc ad3c 18be 516f d9bd
000002a0: 3fb0 913c 2066 053e d86f 66be 82a6 bbbd
000002b0: aed8 c2bd 71fd 1abe 5681 d43c 21fd 03bd
000002c0: 1666 523d fa35 343e 1a53 ba3c 96b8 7e3c
000002d0: 95b4 66be bfa5 f1bd 332c ea3d f53e 563e
000002e0: 6d2e 153d 0139 943d c6f6 263e 9525 253e
000002f0: 00d7 a93c 1afd b23b 7523 91bd a23d aebe
00000300: a9c0 d93d 4a6c 32be d030 b1bc 1a0d adbd
00000310: 1fcb c5bd 3155 a4bc 0c35 a03d bb0e c23d
00000320: c860 fbbd 7115 283e 54b7 04bd 02e8 96bd
00000330: 5a70 8ebe d3af efbd 0951 4c3c 05d5 883d
00000340: 8046 7a3d 452a d13d aec6 b43d 2e41 b2bd
00000350: 3f5a b0bd 5494 873d 99e8 fb3c a6d2 843d
00000360: 9fc5 6c3e 442c f83d 860b c7be 4303 04be
00000370: 53f2 453d 3f1d 523c d74b 913e 86a1 fdbb
00000380: 2a08 69bd 771d 3fbd fd49 823d 83fc a43c
00000390: 12b9 8b3e 8c4e 6d3c 54d4 6b3e ddd7 4c3e
000003a0: bf91 f03c ac51 23bd 7b1f 733e bd27 06be
000003b0: d417 ee3d a36c df3d 5c4e f8bd 11a2 71bd
000003c0: cc9f f53d 969f 1dbc ad9a 283e c98b 2a3e
000003d0: 37f1 b73c 1dbb 0f3d e276 6cbe 37f8 87be
000003e0: c010 a3bd a6f1 b1be b3f2 f23d 3175 da3c
000003f0: 4b30 afbd 0e28 43be b8ff 363e 084d 043d

hidden.2.bias f4 [64]
0.27471787 0.20364733 0.15435693 -0.035983104 -0.058921162 0.20155008 0.06455855 0.058603574
0.014870052 0.13324402 0.2935129 0.030337699 0.2120552 0.12614205 -0.2016216 0.030619666
0.067445524 -0.14188983 -0.04788636 -0.2197966 -0.23860274 0.08062495 0.27270818 -0.21571118
-0.11552537 0.093525924 0.3948692 0.3560806 -0.09935534 0.08280529 0.028766686 0.27192008
0.24930091 -0.22364129 -0.03388539 -0.11997156 -0.043331813 -0.08882629 -0.02791847 -0.15863425
-0.121382706 -0.0065964838 0.11326252 0.118072495 0.013982525 0.13373338 0.011951772 0.16498841
-0.029049322 0.2659187 0.028276773 0.3071237 -0.3181148 -0.0139613375 0.1679399 -0.17058349
0.17657271 0.060297202 -0.37694588 -0.15605636 -0.20643823 0.092848025 0.18720289 -0.11491392
00000000: d2a7 8c3e ed88 503e be0f 1e3e 0563 13bd
00000010: 5157 71bd 2563 4e3e 4637 843d 4d0a 703d
00000020: 85a1 733c 1f71 083e 5347 963e c486 f83c
00000030: 0025 593e 622b 013e e575 4ebe 18d6 fa3c
00000040: e120 8a3d 914b 11be 7d24 44bd 5c12 61be
00000050: 4754 74be b21e a53d 68a0 8b3e 64e3 5cbe
00000060: 9198 ecbd 858a bf3d 4c2c ca3e 3250 b63e
00000070: d07a cbbd d295 a93d 1da8 eb3c 1c39 8b3e
00000080: bd48 7f3e 3902 65be 68cb 0abd a6b3 f5bd
00000090: b37c 31bd 8fea b5bd 46b5 e4bc 0471 22be
000000a0: 7f97 f8bd 5127 d8bb 2ef6 e73d fecf f13d
000000b0: f616 653c 67f1 083e 5dd1 433c b9f2 283e
000000c0: d8f8 edbc 7f26 883e b1a4 e73c 513f 9d3e
000000d0: f1df a2be 18be 64bc 70f8 2b3e 70ad 2ebe
000000e0: 7acf 343e 33fa 763d 0dff c0be 3dcd 1fbe
000000f0: 8b64 53be 1b27 be3d 1db2 3f3e fd57 ebbd

hidden.3.weight f4 [64, 64]
0.014492639 0.07403239 -0.10799842 -0.19957983 0.055174787 -0.22901304 -0.16685988 -0.1998492
0.10393576 0.26579598 -0.24057293 -0.016943645 0.040306933 0.14338164 -0.19719772 0.030671066
-0.365748 -0.11116932 0.37478304 -0.059147403 -0.13863897 -0.20055842 0.0065520396 -0.024884261
0.00071409857 0.23217285 0.20053557 0.21200907 0.037203334 -0.05762098 0.120065756 -0.42213097
-0.17484577 -0.18581966 0.03424345 0.08249953 -0.16530678 -0.06128853 0.0513222 0.1009439
0.05401699 -0.0069416906 0.16031586 0.027162991 0.05898369 -0.1853471 0.014521085 0.10200722
0.07289505 0.035457436 -0.11104686 0.083629675 -0.2393739 0.1804867 0.06300684 0.006800228
0.31680223 0.116451964 -0.25739715 0.15731214 0.23938948 -0.02220686 0.09575527 -0.032853395
0.050622433 0.10196278 0.08686702 -0.1446996 -0.025147911 0.067822635 0.10094298 0.31706643
0.1899787 0.15237564 0.08676668 0.050677303 -0.050102245 -0.03975289 -0.11320101 0.039069418
-0.17940815 -0.016179007 -0.020662036 -0.02841329 -0.0049549197 0.1278707 0.004509163 0.039444096
0.028929561 0.008847269 -0.03422614 0.021598134 -0.034595516 -0.1053388 0.08201108 -0.16312161
-0.0940778 0.15249832 -0.0066033555 -0.050602827 0.19023526 -0.02236645 0.057693917 0.30381718
-0.1837536 0.065525636 0.10135686 0.027856076 0.027392723 -0.08819187 -0.12403911 0.147938
-0.14615527 0.18316935 -0.103303775 0.14407717 -0.20408069 -0.0668531 0.25490734 0.0778321
-0.008324937 0.16307682 0.02004124 0.047761954 0.105075814 -0.02086495 0.15119345 0.16216247
0.14347203 -0.11648761 0.1643389 -0.062360242 0.12493604 -0.30097565 0.21563633 0.20885633
0.21404886 -0.28519446 0.0059799524 -0.05054074 -0.24978405 0.3446707 -0.2055878 -0.045500036
-0.5277533 -0.15378132 -0.07535882 -0.2128748 -0.32407865 -0.2785898 0.10555684 -0.007026908
-0.14837301 0.12932083 0.25817063 0.27523997 -0.24037339 0.05386291 -0.08770808 0.25605738
0.28642333 -0.47934395 -0.19019845 0.060283512 -0.068318896 0.057300974 -0.25804955 -0.3486793
-0.10501641 -0.07827592 -0.076835886 -0.10607266 -0.004428964 0.00066033704 -0.41421095 -0.14846286
-0.36753562 0.41148552 0.17319576 0.20813748 -0.45270455 -0.13702011 0.075886115 -0.062032387
0.25627032 0.42785364 -0.30289268 -0.03329707 -0.11295428 0.23206255 0.22382283 -0.15679173
-0.040481634 -0.07186591 -0.055106908 -0.100086965 0.3253902 -0.16063759 0.038055737 0.06451946
-0.17283274 0.2643131 -0.17721497 -0.029480278 -0.23817429 -0.09296206 0.14409919 0.25884613
-0.1819035 -0.1816306 0.06941424 0.19947542 -0.12479551 -0.4212243 -0.12461301 0.029348971
0.25607142 -0.33111414 0.1914972 0.0029097416 -0.024363674 0.0063261585 0.2505754 0.06462122
-0.13619371 -0.09390409 -0.40305358 0.23335738 -0.0490936 -0.0164346 -0.01280524 0.025812287
-0.31538257 -0.11397766 -0.055411495 -0.32475144 0.28700328 -0.09469363 -0.025964856 -0.022060731
-0.3040921 0.19938569 -0.16451152 0.19007285 0.05117264 -0.21883766 -0.15736827 0.036749322
0.33574355 -0.07096089 -0.046599545 0.05833676 0.14793825 0.1311862 -0.012914624 0.17630664
00000000: 8972 6d3c 4b9e 973d 472e ddbd a85e 4cbe
00000010: f5fe 613d 6582 6abe 51dd 2abe 45a5 4cbe
00000020: 46dc d43d 6916 883e c058 76be 66cd 8abc
00000030: e218 253d a3d2 123e 33ee 49be e341 fb3c
00000040: 5243 bbbe beac e3bd 90e3 bf3e 8c44 72bd
00000050: 60f7 0dbe 305f 4dbe 7eb2 d63b 14da cbbc
00000060: 5832 3b3a b8be 6d3e 3259 4d3e e818 593e
00000070: 8662 183d fa03 6cbd 09e5 f53d 8d21 d8be
00000080: c50a 33be 8247 3ebe dc42 0c3d 83f5 a83d
00000090: 2e46 29be ae09 7bbd 3a37 523d adbb ce3d
000000a0: eb40 5d3d 1f77 e3bb d729 243e ec84 de3c
000000b0: e298 713d a1cb 3dbe d8e9 6d3c 29e9 d03d
000000c0: 004a 953d d13b 113d 896c e3bd 0946 ab3d
000000d0: 6f1e 75be 81d1 383e bb09 813d 72d4 de3b
000000e0: e733 a23e 5e7e ee3d 8fc9 83be 6f16 213e
000000f0: 8422 753e 29eb b5bc 571b c43d 4891 06bd
00000100: 7859 4f3d ddd1 d03d 56e7 b13d 222c 14be
00000110: fe02 cebc 98e6 8a3d 31bb ce3d 8856 a23e
00000120: c789 423e 5c08 1c3e bbb2 b13d 0193 4f3d
00000130: 0338 4dbd edd3 22bd eed5 e7bd 4107 203d
00000140: c5b6 37be d689 84bc 6e43 a9bc fdc2 e8bc
00000150: e15c a2bb 89f0 023e 9ac1 933b 2290 213d
00000160: b0fd ec3c 23f4 103c b530 0cbd 92ee b03c
00000170: 07b4 0dbd debb d7bd 6df5 a73d 5a09 27be
00000180: ddab c0bd 8528 1c3e f660 d8bb e944 4fbd
00000190: 08cd 423e d839 b7bc 7550 6c3d ed8d 9b3e
000001a0: e729 3cbe 4e32 863d 2f94 cf3d 6d32 e43c
000001b0: b466 e03c f09d b4bd 3808 febd 0f7d 173e
000001c0: baa9 15be bf90 3b3e ee90 d3bd f788 133e
000001d0: 87fa 50be 47ea 88bd 3783 823e 7066 9f3d
000001e0: 5165 08bc 9cfd 263e 872d a43c 0aa2 433d
000001f0: fd31 d73d f9ec aabc 75d2 1a3e eb0d 263e
00000200: 55ea 123e 0e91 eebd 7548 283e 746d 7fbd
00000210: 77de ff3d 7b19 9abe c5cf 5c3e 6fde 553e
00000220: a02f 5b3e 0205 92be 7af3 c33b cf03 4fbd
00000230: 64c7 7fbe ae78 b03e 9c85 52be 3f5e 3abd
00000240: d71a 07bf da78 1dbe ba55 9abd dafb 59be
00000250: a3ed a5be 52a3 8ebe 2f2e d83d fa41 e6bb
00000260: 18ef 17be ae6c 043e f12e 843e 41ec 8c3e
00000270: 7124 76be 5b9f 5c3d 4ba0 b3bd f419 833e
00000280: 14a6 923e 926c f5be 62c3 42be d8eb 763d
00000290: c7ea 8bbd 6db4 6a3d 121f 84be 1886 b2be
000002a0: d812 d7bd 204f a0bd 225c 9dbd 9f3c d9bd
000002b0: d820 91bb 781a 2d3a 7513 d4be a606 18be
000002c0: a12d bcbe 3bae d23e 3b5a 313e fe21 553e
000002d0: e4c8 e7be 004f 0cbe 2e6a 9b3d ac15 7ebd
000002e0: dd35 833e a20f db3e c014 9bbe 8262 08bd
000002f0: 9354 e7bd cea1 6d3e d031 653e 038e 20be
00000300: 12d0 25bd 6f2e 93bd c8b7 61bd 65fa ccbd
00000310: 8b99 a63e 2e7e 24be 55e0 1b3d c722 843d
00000320: 11fb 30be 0c54 873e d777 35be a080 f1bc
00000330: f6e3 73be e462 bebd bd8e 133e 7b87 843e
00000340: e944 3abe 5ffd 39be 0e29 8e3d 4943 4c3e
00000350: ca94 ffbd b6aa d7be 1b35 ffbd 416d f03c
00000360: cb1b 833e cb87 a9be d817 443e 5db1 3e3b
00000370: 5496 c7bc aa4b cf3b 6b4b 803e 2158 843d
00000380: 5d76 0bbe ca50 c0bd 0a5d cebe 3df5 6e3e
00000390: 5f16 49bd dba1 86bc 12cd 51bc 4a74 d33c
000003a0: d379 a1be 1f6d e9bd 2af7 62bd d245 a6be
000003b0: 18f2 923e bcee c1bd 40b4 d4bc b5b8 b4bc
000003c0: f6b1 9bbe c32b 4c3e b575 28be 75a2 423e
000003d0: 679a 513d fb16 60be 2625 21be 7586 163d
000003e0: 94e6 ab3e f153 91bd 2adf 3ebd 87f2 6e3d
000003f0: 207d 173e ad55 063e dc97 53bc ba89 343e

hidden.3.bias f4 [64]
0.17570156 -0.08154318 0.46745956 0.18362962 0.2527593 -0.0842505 -0.10765269 -0.055656366
0.1405508 -0.4254139 -0.1332127 -0.12894964 -0.2138743 -0.23751849 0.145816 0.05963326
-0.21098338 0.19478583 0.030866304 0.11458822 0.012361782 0.015752211 -0.06986985 -0.056558177
-0.15144072 0.27532914 0.0477515 0.15580405 0.090935715 -0.11830875 -0.20332806 0.40112457
0.18710539 0.074499674 -0.109806105 -0.04565165 0.103097044 -0.19003919 -0.036237415 -0.030690916
-0.0067054597 0.043646388 0.00079969346 0.059405692 -0.06887816 0.26911667 0.17714305 -0.19623002
-0.23268051 0.15549292 -0.07234951 -0.16306433 -0.08673638 0.013504675 -0.1878378 -0.02111838
0.3832137 -0.17955777 -0.16131578 0.105493024 0.1372828 -0.090553 0.10914909 0.23471163
00000000: 1ceb 333e 1c00 a7bd dc56 ef3e 6709 3c3e
00000010: ab69 813e 878b acbd 0379 dcbd eef7 63bd
00000020: 8dec 0f3e dacf d9be e968 08be 600b 04be
00000030: dd01 5bbe 0c38 73be ca50 153e 0142 743d
00000040: 070c 58be f075 473e 55db fc3c 3bad ea3d
00000050: 1289 4a3c c80a 813c ed17 8fbd 8ca9 67bd
00000060: 4713 1bbe f1f7 8c3e 1497 433d 198b 1f3e
00000070: 813c ba3d dc4b f2bd 3b35 50be 3360 cd3e
00000080: 8e98 3f3e 4993 983d 06e2 e0bd 39fd 3abd
00000090: 8b24 d33d a299 42be af6d 14bd 846b fbbc
000000a0: 79b9 dbbb 8ec6 323d 85a2 513a 6253 733d
000000b0: fe0f 8dbd a9c9 893e fd64 353e 86f0 48be
000000c0: cd43 6ebe 8939 1f3e fb2b 94bd 56fa 26be
000000d0: d8a2 b1bd b642 5d3c 8d58 40be 7400 adbc
000000e0: 9634 c43e fedd 37be f72f 25be ba0c d83d
000000f0: dd93 0c3e da73 b9bd 8f89 df3d 3f58 703e

hidden.4.weight f4 [64, 64]
-0.017157424 -0.050695535 0.028513955 -0.052698288 0.064132 0.06683516 0.13179658 0.028647758
0.026008802 0.0768054 -0.15786849 0.029767236 0.06410002 0.017963657 0.1162627 -0.08694428
0.07594258 -0.13603781 0.19159327 -0.14442395 0.030872554 -0.054421145 0.23003656 0.12941888
0.21548261 0.14049248 0.028970473 0.1358109 0.1566072 0.11975102 0.063319154 -0.12557238
-0.1430173 -0.139618 0.09593835 -0.14497568 0.22975935 0.053822882 0.04757609 -0.0579758
-0.114848636 0.06295145 -0.071377724 -0.04136267 0.13481328 0.10416812 0.23032641 -0.08650401
-0.20642786 -0.04588716 0.08912992 -0.04894358 0.22625394 -0.15834431 0.14708933 -0.0715534
-0.10977162 0.04013115 -0.005838485 -0.29326728 -0.10594855 0.10839887 0.07031833 0.13866875
-0.16024302 0.037950058 -0.23133601 0.0073524485 0.15295283 0.00093070336 0.06769461 0.033860125
0.24089526 0.065682985 0.064826734 -0.12636365 -0.034507085 0.093399554 0.14073251 0.11684512
-0.020514736 -0.10679772 0.0821647 0.26951438 0.08477083 -0.110176995 0.1430296 0.048162036
0.14322731 -0.10481805 -0.20444132 -0.043537643 0.1733679 0.049617864 0.13596094 0.03638081
-0.07873937 0.18783145 -0.25671476 -0.15645772 -0.050558254 -0.22137737 0.16956054 -0.1756428
-0.07305506 0.07866091 -0.03842346 0.12663335 -0.12041641 0.042855605 0.020434273 -0.15957117
0.15854795 0.16110344 0.09281906 0.21647508 -0.055447146 -0.08240205 0.088756375 -0.25115773
-0.09313121 -0.12922885 0.08631449 -0.035197902 0.16455653 0.22720768 -0.0013509755 0.11101407
0.107062586 0.07175974 0.11437163 0.1205787 0.11834849 0.023357773 0.08412434 -0.036350716
0.19423823 -0.064682744 -0.090306416 -0.2305044 -0.07773082 -0.057539772 0.04730935 -0.080623776
0.27210245 -0.021126766 0.20807204 0.09288152 -0.10386036 -0.14484508 -0.028520063 -0.06932279
0.029984148 -0.039184876 -0.094949916 0.11009454 0.17479213 0.08281242 -0.046859283 -0.09422748
-0.06284155 0.07233921 0.13005388 0.26666686 -0.06435944 0.09734731 -0.2029865 0.06529294
0.19936387 -0.010246049 -0.073788084 -0.2084269 -0.14020677 -0.08289697 0.21292776 -0.32874364
0.23761208 -0.21440867 -0.051051185 -0.12953556 -0.23251514 -0.121076666 -0.07523138 0.074014805
-0.029742513 0.012847269 -0.1547425 0.061887413 0.24162373 0.0957569 0.16267216 -0.11301475
0.0071019894 0.052867603 -0.19069137 0.033903696 0.10207793 0.28176945 -0.08072253 0.2391441
0.017620824 -0.019817589 0.1557908 0.13231018 -0.14667334 -0.043292042 0.35642233 0.042728618
-0.08406915 0.03657869 -0.024420125 -0.033186466 0.042313628 0.08724489 0.09113959 -0.025592783
-0.054532573 -0.04042191 0.07634614 0.20144707 -0.017308453 -0.0011542886 0.16779055 0.10966808
-0.20545906 0.25791338 -0.05971062 -0.06723713 0.10627844 0.020936018 0.066882856 -0.076711066
-0.0855164 -0.02747843 0.025928697 -0.03387865 0.05334949 -0.13929175 -0.03965012 -0.149334
0.044737026 0.13430656 -0.19088288 -0.027398532 -0.015819425 -0.0024534855 0.1845266 0.08084305
0.06218868 0.012263096 0.031854548 0.12557164 0.120912075 0.06713117 0.01177386 -0.042595837
00000000: ba8d 8cbc 1fa6 4fbd 1996 e93c 29da 57bd
00000010: a357 833d dfe0 883d aff5 063e b4ae ea3c
00000020: 6910 d53c 264c 9d3d 47a8 21be 6bda f33c
00000030: df46 833d 8528 933c 231b ee3d d80f b2bd
00000040: c987 9b3d 7f4d 0bbe 0731 443e dfe3 13be
00000050: 70e8 fc3c b5e8 5ebd b48e 6b3e 6286 043e
00000060: 79a7 5c3e 43dd 0f3e 7c53 ed3c 0312 0b3e
00000070: a35d 203e 0640 f53d 79ad 813d 0c96 00be
00000080: 2173 12be 05f8 0ebe 537b c43d 8174 14be
00000090: 0946 6b3e 6275 5c3d 25df 423d 0878 6dbd
000000a0: c335 ebbd b1ec 803d 7c2e 92bd e76b 29bd
000000b0: 7e0c 0a3e 1856 d53d b0da 6b3e 0429 b1bd
000000c0: d361 53be 2df4 3bbd bf89 b63d 1079 48bd
000000d0: 1daf 673e 0325 22be 969e 163e 978a 92bd
000000e0: f1cf e0bd 9060 243d c350 bfbb 2127 96be
000000f0: 8efb d8bd 3a00 de3d 0e03 903d 2eff 0d3e
00000100: bf16 24be 8571 1b3d 59e3 6cbe cfec f03b
00000110: ab9f 1c3e 72fa 733a 79a3 8a3d eab0 0a3d
00000120: 3fad 763e cd84 863d e1c3 843d 7965 01be
00000130: 4d57 0dbd 4448 bf3d 2f1c 103e 7f4c ef3d
00000140: 850e a8bc c3b8 dabd f745 a83d cafd 893e
00000150: 549c ad3d 7aa4 e1bd 5a76 123e 8e45 453d
00000160: 2eaa 123e d9aa d6bd 1159 51be 8754 32bd
00000170: 5b87 313e 1a3c 4b3d 5839 0b3e 0b04 153d
00000180: 1b42 a1bd e356 403e 1e70 83be 7436 20be
00000190: 2c16 4fbd c0b0 62be 47a1 2d3e b5db 33be
000001a0: e49d 95bd f918 a13d eb61 1dbd 2cac 013e
000001b0: e19c f6bd 5c89 2f3d c765 a73c a066 23be
000001c0: 655a 223e 4df8 243e eb17 be3d a5ab 5d3e
000001d0: 8c1c 63bd 68c2 a8bd e7c5 b53d bf97 80be
000001e0: 93bb bebd 9154 04be a7c5 b03d ad2b 10bd
000001f0: 8281 283e 21a9 683e 3713 b1ba 585b e33d
00000200: a143 db3d c5f6 923d ac3b ea3d f7f1 f63d
00000210: b160 f23d cd58 bf3c 6249 ac3d 7de4 14bd
00000220: 63e6 463e 6378 84bd 92f2 b8bd 5809 6cbe
00000230: 5631 9fbd d3ae 6bbd 73c7 413d 141e a5bd
00000240: 0351 8b3e 0a12 adbc d610 553e ab38 be3d
00000250: beb4 d4bd 4552 14be e8a2 e9bc 1bf9 8dbd
00000260: 51a1 f53c 5280 20bd 1a75 c2bd 3f79 e13d
00000270: b5fc 323e 8f99 a93d 85ef 3fbd 56fa c0bd
00000280: 12b3 80bd 9426 943d d82c 053e 8f88 883e
00000290: e2ce 83bd 075e c73d b1db 4fbe 4eb8 853d
000002a0: 0b26 4c3e 0bdf 27bc 351e 97bd dc6d 55be
000002b0: 5d92 0fbe e3c5 a9bd bc09 5a3e 1651 a8be
000002c0: 9550 733e f28d 5bbe 0c1b 51bd f8a4 04be
000002d0: 7318 6ebe 0bf7 f7bd e912 9abd 1395 973d
000002e0: 92a6 f3bc 5a7d 523c d174 1ebe a87d 7d3d
000002f0: 366c 773e 321c c43d 8893 263e 4774 e7bd
00000300: ceb7 e83b b38b 583d 9944 43be 9ade 0a3d
00000310: 3c0e d13d 1644 903e db51 a5bd 31e2 743e
00000320: 8c59 903c 7f58 a2bc a087 1f3e 527c 073e
00000330: 8931 16be ff52 31bd fd7c b63e 3404 2f3d
00000340: 722c acbd 89d3 153d b70c c8bc 88ee 07bd
00000350: 0e51 2d3d 73ad b23d 65a7 ba3d f5a7 d1bc
00000360: 8c5d 5fbd 7291 25bd 5d5b 9c3d 2448 4e3e
00000370: 75ca 8dbc 804b 97ba 49d1 2b3e a999 e03d
00000380: dc63 52be 390d 843e 2093 74bd 9fb3 89bd
00000390: 83a8 d93d 0382 ab3c e1f9 883d b11a 9dbd
000003a0: 3923 afbd 721a e1bc 6b68 d43c 57c4 0abd
000003b0: ff84 5a3d 7fa2 0ebe 2a68 22bd 03eb 18be
000003c0: 2c3e 373d a987 093e cd76 43be e372 e0bc
000003d0: bd97 81bc a8ca 20bb 8bf4 3c3e 0a91 a53d
000003e0: 8fb9 7e3d 27eb 483c ea79 023d da95 003e
000003f0: c0a0 f73d 117c 893d 26e7 403c f978 2ebd

hidden.4.bias f4 [64]
0.013795093 -0.074074045 -0.04187873 -0.0009033978 0.08903837 0.08700657 0.03613001 0.06399985
0.11589463 -0.0024127513 0.0059961826 -0.02208829 -0.02339974 -0.12247211 -0.062178075 0.0146782845
0.038502097 -0.12414715 0.07746741 -0.11233316 -0.019682676 -0.10244988 -0.04227774 -0.07079241
-0.08167213 -0.06840974 0.093177706 0.027896076 0.10810305 -0.056583703 -0.08199559 0.07908435
0.12139459 -0.10756631 -0.07673648 0.12337002 0.041200206 -0.025972098 0.086049154 -0.08916356
-0.11508852 0.07075931 0.008393258 0.059460476 0.07992545 0.019098863 -0.124533296 0.0848251
-0.04073736 -0.0059255064 0.05704707 -0.020993307 -0.009917378 -0.12406111 0.044636697 -0.11423732
0.12420842 0.09171218 0.11910398 0.06272368 0.053013384 -0.011561453 0.012962282 -0.03310725
00000000: d004 623c 22b4 97bd 0889 2bbd 00d2 6cba
00000010: c059 b63d 8030 b23d 10fd 133d 5a12 833d
00000020: 2a5a ed3d 401f 1ebb a07b c43b 80f2 b4bc
00000030: d0b0 bfbc a8d2 fabd 70ae 7ebd 307d 703c
00000040: 60b4 1d3d dc40 febd 3ca7 9e3d ee0e e6bd
00000050: 903d a1bc 3ed1 d1bd 6c2b 2dbd 9cfb 90bd
00000060: b843 a7bd 681a 8cbd f4d3 be3d 5086 e43c
00000070: 2265 dd3d 50c4 67bd 4eed a7bd faf6 a13d
00000080: ba9d f83d ba4b dcbd 0428 9dbd 6ca9 fc3d
00000090: 8cc1 283d 70c3 d4bc 8a3a b03d 629b b6bd
000000a0: 88b3 ebbd 42ea 903d e083 093c d48c 733d
000000b0: f4af a33d 3875 9c3c 500b ffbd c8b8 ad3d
000000c0: 38dc 26bd c02a c2bb 30aa 693d 28fa abbc
000000d0: 807c 22bc c013 febd f8d4 363d 42f5 e9bd
000000e0: fc60 fe3d 98d3 bb3d caec f33d 4675 803d
000000f0: 9024 593d 406c 3dbc c05f 543c 789b 07bd

output.weight f4 [9, 64]
0.027025709 0.27695704 0.025761267 0.07961798 -0.12428382 -0.34462577 0.03938004 -0.30040455
-0.19351801 1.3034493 -0.21183924 0.13394159 -0.207126 0.7270482 0.055210106 -0.2597325
0.08440731 -0.8517271 0.13098043 0.13433973 -0.30980885 0.39901695 -0.20508547 -0.46865258
-0.126223 0.23282099 0.73002756 0.29221064 -0.6049247 -0.43407127 -0.039918248 0.19942145
0.17943084 -0.346247 -0.24985996 -0.48744124 0.16240114 -0.096453816 -0.050650846 -0.1296249
0.21977359 0.32115716 0.19891067 -0.55301666 0.17377734 -0.04951425 0.20351805 0.19186418
0.05754393 -0.39565226 -0.318086 -0.0806804 0.7822131 0.19266453 -0.21644364 -0.25603732
0.24458407 0.08887468 0.35474795 -0.15067342 0.24268265 -0.074886106 -0.2878198 0.5089084
-0.2550045 0.23975453 -0.33141246 0.2174012 0.109411895 -0.5363968 -0.4230899 0.1342276
-0.31303662 -1.0469427 0.03863778 -2.7354274 -0.19727704 -0.5721048 -0.1578951 1.2736932
-0.30879927 -0.3425187 -1.6195025 -0.39006644 -0.44098994 1.345022 -0.08561891 0.56168956
0.044565182 0.16602695 -0.37263906 -0.3525684 0.29951656 0.06988876 -0.14952101 0.008831619
-0.02003477 -0.18892497 0.20558515 -0.9255381 -0.5252518 -0.68467784 -0.010324394 -0.042166892
0.040726643 0.6023052 0.011107059 0.6422325 -0.0087234145 0.27337795 -0.24801467 0.015851352
-0.024834795 -0.98195136 -0.26723447 1.1579709 -1.1959406 0.20414817 0.4556194 1.2994738
-0.38851267 -0.11866418 0.31611708 0.0674913 -0.13790524 0.27777457 0.03326399 -0.4943878
-0.22585142 -0.2218545 0.035847615 -0.14731647 -0.06056849 0.25044543 0.14028558 0.082372755
0.019220313 -0.44869795 -0.38101557 -0.0037388743 -0.29935443 -0.0049062953 -0.14704056 0.19116049
0.047718976 -0.08946644 -0.020097548 -0.0191627 0.10718545 -0.1504989 0.09131028 -0.07456424
0.03349113 -0.08372175 0.05945623 0.010957019 -0.06854065 -0.017542375 0.0115388315 -0.13409339
0.094462834 -0.0558102 -0.0034240307 -0.069522664 -0.04137103 0.19812647 0.08419889 -0.0051155873
0.025710134 0.03585123 0.014467383 -0.12059127 -0.1629244 -0.14415371 -0.0429593 0.02150336
-0.19274713 -0.010781368 -0.14368285 0.1910542 -0.089165255 -0.06483121 -0.10003724 0.08312977
-0.14963266 -0.28298232 0.05711849 0.04528823 0.035382118 0.30759063 0.1279064 -0.15598886
0.3392794 -0.057021514 0.051225897 0.15742742 0.081089035 0.11009375 0.089721374 -0.32011622
0.10653365 0.044436794 -0.17804311 -0.05980594 0.013340467 -0.16340315 -0.14440735 0.23059045
-0.019457558 -0.21163572 -0.027406309 -0.3137133 0.15813649 -0.15056619 0.0057062614 0.16691941
-0.020936938 -0.07622238 -0.11295218 -0.18483932 -0.22157407 -0.06731336 -0.12917025 0.03560382
-0.011263431 0.4179173 -0.2997311 0.030407107 -0.009062629 0.087399304 0.0070577883 0.04460444
0.034349807 -0.29080182 0.14845249 -0.4203559 0.18219483 0.2127291 0.19197074 0.013645288
0.07137987 0.16929702 0.49156144 0.40345073 -0.0073864236 -0.51173484 -0.12047151 0.041146416
-0.040376484 0.030932033 0.25879022 -0.13391927 -0.16527542 0.09093382 -0.08770328 0.27697095
00000000: 0565 dd3c 50cd 8d3e 4b09 d33c c00e a33d
00000010: 8488 febd ca72 b0be f74c 213d a0ce 99be
00000020: 9629 46be 6dd7 a63f 63ec 58be fc27 093e
00000030: d718 54be d51f 3a3f fe23 623d a9fb 84be
00000040: bddd ac3d ca0a 5abf bc1f 063e 5b90 093e
00000050: 449f 9ebe f34b cc3e ed01 52be 3bf3 efbe
00000060: 9a40 01be a068 6e3e 16e3 3a3f a29c 953e
00000070: 58dc 1abf 973e debe 5181 23bd 2335 4c3e
00000080: b8bc 373e 4947 b1be 4adb 7fbe e691 f9be
00000090: 7c4c 263e 9489 c5bd 4377 4fbd 64bc 04be
000000a0: 540c 613e b66e a43e 3daf 4b3e 8092 0dbf
000000b0: b0f2 313e 74cf 4abd 0967 503e 0b78 443e
000000c0: 2fb3 6b3d ef92 cabe 2bdc a2be c43b a5bd
000000d0: 1e3f 483f da49 453e 67a3 5dbe 5317 83be
000000e0: 3f74 7a3e ee03 b63d 86a1 b53e 224a 1abe
000000f0: cd81 783e e35d 99bd 1e5d 93be d247 023f
00000100: f38f 82be 3682 753e e5ae a9be 6c9e 5e3e
00000110: 5813 e03d 4d51 09bf 3d9f d8be f672 093e
00000120: 5646 a0be 3802 86bf a642 1e3d 3e11 2fc0
00000130: fe02 4abe 7675 12bf 41af 21be 6108 a33f
00000140: f01a 9ebe 9c5e afbe dc4b cfbf cab6 c7be
00000150: 6fc9 e1be ae29 ac3f f858 afbd e3ca 0f3f
00000160: fb89 363d f802 2a3e 8cca bebe d883 b4be
00000170: 3c5a 993e d721 8f3d 091c 19be 7fb2 103c
00000180: f51f a4bc 8c75 41be ea84 523e 11f0 6cbf
00000190: e776 06bf 0c47 2fbf a627 29bc 31b7 2cbd
000001a0: fbd0 263d ac30 1a3f 62fa 353c 5969 243f
000001b0: a7ec 0ebc 32f8 8b3e 8ff7 7dbe b2da 813c
000001c0: 5772 cbbc 2a61 7bbf f5d2 88be 6438 943f
000001d0: 9514 99bf 380c 513e f246 e93e 2855 a63f
000001e0: 22eb c6be 3506 f3bd 19da a13e e138 8a3d
000001f0: 0837 0dbe 7838 8e3e d23f 083d 6620 fdbe
00000200: 9845 67be d32d 63be f3d4 123d 21da 16be
00000210: aa16 78bd 623a 803e 06a7 0f3e 0cb3 a83d
00000220: eb73 9d3c bdbb e5be 7914 c3be e707 75bb
00000230: fc44 99be fdc4 a0bb cd91 16be 93bf 433e
00000240: f974 433d 2e3a b7bd 9da3 a4bc 18fb 9cbc
00000250: 0c84 db3d 621c 1abe e200 bb3d 23b5 98bd
00000260: ff2d 093d 4f76 abbd 6088 733d 1285 333c
00000270: 0a5f 8cbd 07b5 8fbc 5e0d 3d3c c74f 09be
00000280: bb75 c13d 3c99 64bd b465 60bb e661 8ebd
00000290: ab74 29bd aae1 4a3e 7870 ac3d a8a0 a7bb
000002a0: 0f9e d23c bdd8 123d 9a08 6d3c 8ef8 f6bd
000002b0: a7d5 26be 089d 13be 17f6 2fbd d027 b03c
000002c0: 815f 45be 56a4 30bc 9921 13be b6a3 433e
000002d0: 469c b6bd 3ac6 84bd 53e0 ccbd f13f aa3d
000002e0: 4e39 19be 0fe3 90be 14f5 693d 2780 393d
000002f0: d7ec 103d 857c 9d3e e5f9 023e 8bbb 1fbe
00000300: 08b6 ad3e 648f 69bd 3fd2 513d a734 213e
00000310: 0212 a63d d578 e13d d7bf b73d 46e6 a3be
00000320: 502e da3d 5b03 363d ef50 36be 13f7 74bd
00000330: f991 5a3c 2853 27be 85df 13be e71f 6c3e
00000340: 7565 9fbc 09b7 58be 3283 e0bc 089f a0be
00000350: 88ee 213e 062e 1abe 97fb ba3b ecec 2a3e
00000360: f183 abbc 7b1a 9cbd 7953 e7bd 8546 3dbe
00000370: 50e4 62be 96db 89bd 3545 04be 50d5 113d
00000380: 418a 38bc 42f9 d53e 5b76 99be 5318 f93c
00000390: 6c7b 14bc 68fe b23d 0545 e73b 25b3 363d
000003a0: 62b2 0c3d fae3 94be ee03 183e e338 d7be
000003b0: 4891 3a3e a8d5 593e fa93 443e 7c90 5f3c
000003c0: 9c2f 923d 335c 2d3e f1ad fb3e 1891 ce3e
000003d0: d009 f2bb 0e01 03bf c4b9 f6bd 2589 283d
000003e0: d061 25bd 2d65 fd3c 2780 843e 2222 09be
000003f0: f63d 29be 833b ba3d c79d b3bd 23cf 8d3e

output.bias f4 [9]
-0.0053864853 0.037451636 0.031804044 0.00250437 0.08055133 0.47004646 -0.18842661 0.16065902
0.28540432
00000000: 1d81 b0bb e366 193d f544 023d 5b20 243b
00000010: 18f8 a43d eea9 f03e e8f2 40be cc83 243e
00000020: 8420 923e
