results/2_weighting/SM_AVR_GOVDynamicNN_1_1000_80000_100000_10000_None_None_1_0.001_0.0001_0.001_Static.pth (torch, 77673 bytes, 12 tensors)

hidden.0.weight f4 [64, 10]
0	0xbf33a9ce	-0.70180976
1	0xbe5b063a	-0.21389094
2	0x3d57677f	0.052588936
3	0xbd13f5af	-0.036122974
4	0xbc915117	-0.017738862
5	0xbe619d99	-0.22032775
6	0xbe24e8f9	-0.16104497
7	0x3e8b7719	0.27239302
8	0xbece43ae	-0.4028601
9	0x3cc951fd	0.024575228
10	0x3f8a91c3	1.0825733
11	0x3d7c7b4b	0.06164102
12	0xbe0fd038	-0.14044273
13	0x3b90a562	0.0044142464
14	0x3f2fe0dc	0.68702483
15	0x3ecae490	0.39627504
16	0x3f21771b	0.63072366
17	0x3ecf5610	0.40495348
18	0x3eb01829	0.34393433
19	0x3ea693f9	0.3253477
20	0xbde43a77	-0.11143964
21	0x3d77653d	0.060399283
22	0x3cf0b575	0.0293834
23	0x3c981281	0.01856351
24	0xbdaea910	-0.0852834
25	0xbdcb6ab5	-0.09932462
26	0xbda2f208	-0.0795632
27	0x3df46386	0.11933045
28	0xbdfc4383	-0.12317564
29	0xbe59d0c2	-0.21271041
30	0xbe3a7f0d	-0.18212529
31	0x3f26a52c	0.6509578
32	0xbcb777d9	-0.022396015
33	0x3c58593b	0.013204868
34	0xbeefd1f6	-0.46839875
35	0xbed82df5	-0.42222562
36	0xbefdfa4e	-0.4960503
37	0xbebd6ad0	-0.36995554
38	0xbe3e5f0d	-0.18590946
39	0xbe64d2d6	-0.22346053
40	0xbed0d5e9	-0.407882
41	0xbe9bb0da	-0.30408365
42	0x3d2ac7ad	0.041694332
43	0xbd405a6c	-0.046961233
44	0x3e84136d	0.2579607
45	0x3d6a84a7	0.057255413
46	0x3d405bb1	0.046962444
47	0xbd92cc91	-0.07167924
48	0xbe550550	-0.20802808
49	0xbeadadc8	-0.33921647
50	0xbd6a8ec6	-0.057265066
51	0x3d262990	0.04056698
52	0xbdd6ec46	-0.10494284
53	0xbe8591a9	-0.26087692
54	0xbed970da	-0.4246891
55	0xbebfdfc3	-0.37475404
56	0xbedb3137	-0.42810985
57	0xbe9a12f5	-0.30092588
58	0xbde69ba6	-0.11260156
59	0x3d90cb68	0.07070047
60	0x3f0405d3	0.5157139
61	0xbf0926aa	-0.5357462
62	0xbcce41c7	-0.02517785
63	0xbe46842b	-0.19386356
64	0x3da9fc3f	0.08300065
65	0xbe3dba2c	-0.1852805
66	0xbedfd9d8	-0.4372089
67	0xbe7b9109	-0.24567045
68	0x3e85e9d8	0.2615497
69	0xbcda6b03	-0.026662355
70	0x3f4cb506	0.7996372
71	0x3e817fa3	0.25292692
72	0xbc81806f	-0.015808312
73	0x3e470c22	0.19438222
74	0xbe921ded	-0.28538457
75	0xbe05eae6	-0.13077888
76	0x3dd19c50	0.10234892
77	0x3cfa9df6	0.0305929
78	0xbda9ad6d	-0.082850315
79	0xbe601562	-0.21883157
80	0x3f76c848	0.96399355
81	0xbe0aeea8	-0.13567603
82	0x3d561496	0.052265726
83	0xbec397f6	-0.38201874
84	0x3d983583	0.074320816
85	0xbdb39672	-0.087689295
86	0xbca6b53f	-0.020350097
87	0xbe46d1e3	-0.19416003
88	0xbe01dc2c	-0.12681645
89	0x3da62dee	0.08114229
90	0x3eff669e	0.49882978
91	0xbecb0d64	-0.39658654
92	0x3d830385	0.06397156
93	0xbe3d4309	-0.18482603
94	0xbe4873f4	-0.19575483
95	0x3e337980	0.17526817
96	0x3d3e9ece	0.046538167
97	0xbdbf428f	-0.09338867
98	0x3e2de026	0.16980037
99	0x3cad79c9	0.021176236
100	0x3f9c22e4	1.2198148
101	0xbde61e7c	-0.11236283
102	0xbd7b0a20	-0.061288953
103	0x3d8cdf91	0.068785794
104	0xbe2df89b	-0.16989367
105	0xbd964876	-0.073380396
106	0xbe63b588	-0.22237217
107	0x3c2bc416	0.010483762
108	0x3e4a33a8	0.19746268
109	0x3e79c497	0.243914
110	0xbf519121	-0.81862074
111	0x3f1a3b5e	0.6024684
112	0x3c08e4ee	0.008355362
113	0x3e08eb77	0.13371073
114	0xbe6aeb34	-0.22941285
115	0x3deb232e	0.11481319
116	0x3dd8862f	0.105724685
117	0xbdf4785c	-0.11937019
118	0xbe11d003	-0.14239506
119	0xbb7efd60	-0.0038908347
120	0x3e087d5d	0.13329072
121	0x3ce4aba0	0.027913868
122	0xbdfac9e8	-0.12245542
123	0x3d8112db	0.063024245
124	0x3e07227e	0.13196751
125	0x3e8c9d1f	0.27463624
126	0x3ee09161	0.43860915
127	0x3ed27b91	0.411099
128	0x3ebedfd4	0.37280142
129	0x3d825280	0.06363392
130	0xbd57788d	-0.0526052
131	0x3ddfd641	0.109295376
132	0xbdfb56aa	-0.12272389
133	0xbe4b861d	-0.19875379
134	0xbbd185e3	-0.0063941344
135	0xbe62c6bf	-0.22146128
136	0x3ce9e941	0.028553607
137	0xbe2cd38c	-0.16877574
138	0xbd754c0c	-0.059886977
139	0x3dd139f9	0.102161355
140	0xc074ba86	-3.8238845
141	0xbd01196c	-0.031518385
142	0x3c525e92	0.01283993
143	0xbe2a1396	-0.16609034
144	0x3e82f660	0.25578594
145	0xbe127f09	-0.14306273
146	0xbeac4670	-0.3364749
147	0xbd26d320	-0.04072869
148	0xbdc72ed3	-0.09725728
149	0x3e0a9fbd	0.13537498
150	0x3f09c2fe	0.5381316
151	0xbe40bdb4	-0.18822366
152	0x3d5790e7	0.052628424
153	0xbe0faf8b	-0.14031808
154	0x3c11fbe3	0.008910152
155	0x3cc3d191	0.02390364
156	0x3ea41aec	0.3205179
157	0x3e81630c	0.2527088
158	0x3dcaeacf	0.099080674
159	0x3e030f49	0.127988
160	0x3d59cbd0	0.053172886
161	0xbdf705d3	-0.12061658
162	0xbe10ed10	-0.14152932
163	0x3c0a07ac	0.008424681
164	0xbe02bd2c	-0.12767476
165	0x3e329d1a	0.17442742
166	0x3d997816	0.07493608
167	0x3ea39777	0.31951496
168	0xbe8eaa3e	-0.2786426
169	0x3e49e82c	0.19717473
170	0xbf85bfed	-1.0449196
171	0x3eac56ac	0.33659875
172	0x3ceaf9cb	0.028683564
173	0x3eaed157	0.3414409
174	0xbe139f0c	-0.1441614
175	0x3eeee068	0.46655583
176	0x3e1b339e	0.15156409
177	0x3e3e1a92	0.18564823
178	0x3e7155c6	0.23567876
179	0x3d419889	0.04726461
180	0xbf96ab0c	-1.1770949
181	0xbe97be19	-0.2963722
182	0xbdb7faa3	-0.08983352
183	0x3d34f11c	0.044175252
184	0xbec0977b	-0.3761557
185	0xbc98ac42	-0.018636826
186	0xbedba873	-0.42901954
187	0x3e278867	0.16360627
188	0xbe24e0f2	-0.16101435
189	0xbdef0e8f	-0.11672699
190	0x3e638949	0.22220339
191	0xbeb92a67	-0.36165163
192	0xbd127e5b	-0.035765033
193	0x3e4fd7df	0.20297192
194	0xbe95015b	-0.29102597
195	0xbede4334	-0.43410647
196	0xbf0520c7	-0.5200314
197	0xbe76812a	-0.2407271
198	0xbe121fa5	-0.14269884
199	0xbea694ae	-0.3253531
200	0xbf288a27	-0.65835804
201	0x3e1457e2	0.1448665
202	0x3da1f718	0.079084575
203	0x3e6316f1	0.2217672
204	0xbe6b6159	-0.22986354
205	0x3d9a1b8f	0.07524788
206	0xbe27b765	-0.16378553
207	0x3e3fb563	0.18721537
208	0x3c9675b3	0.01836667
209	0xbc183c24	-0.009291682
210	0xbf9282c7	-1.144616
211	0xbd845080	-0.06460667
212	0x3c98a2cd	0.018632317
213	0x3d48ea1f	0.0490514
214	0x3e3f0a37	0.1865624
215	0xbc3cf6d7	-0.011533461
216	0x3d38116b	0.044938486
217	0xbd345139	-0.044022772
218	0xbe427991	-0.18991686
219	0xbe7ab04b	-0.24481313
220	0x3daa6204	0.08319476
221	0xbe892d5c	-0.2679242
222	0xbdada6de	-0.08479093
223	0x3ca2b7cf	0.019863037
224	0xbe4077cd	-0.187957
225	0x3e3ff299	0.18744887
226	0xbea8b228	-0.32948422
227	0xbd8a3fcd	-0.0675045
228	0xbcbb8a4a	-0.02289309
229	0x3cab5fb7	0.020919664
230	0xbe9662b9	-0.29372194
231	0x3dd7c00a	0.105346754
232	0x3d9863a5	0.07440881
233	0x3dbffb83	0.09374144
234	0xbea6b909	-0.32563046
235	0x3d91002d	0.07080112
236	0x3e8f880e	0.2803349
237	0x3bcd0b93	0.0062574833
238	0x3e680564	0.22658306
239	0x3e8c62b3	0.27419052
240	0x3f152d9b	0.58272713
241	0x3e3d72d3	0.18500833
242	0x3e3c56fe	0.1839256
243	0xbe0e68ea	-0.13907209
244	0x3e1a1103	0.15045552
245	0xbe8e45fc	-0.2778777
246	0xbe110da5	-0.14165361
247	0xbe5990ba	-0.21246615
248	0xbde123ce	-0.10993157
249	0xbe92f67d	-0.2870368
250	0xbfded483	-1.7408603
251	0x3dfdfbdf	0.12401556
252	0xbd2135f5	-0.039358098
253	0xbe830b28	-0.2559445
254	0xbe986f13	-0.29772243
255	0xbc141088	-0.0090371445

hidden.0.bias f4 [64]
0	0x3e68df94	0.22741538
1	0x3ea0db43	0.31417283
2	0xbe19ce68	-0.15020144
3	0xbd150aa3	-0.036387097
4	0xbe713770	-0.23556304
5	0x3c6dfc6e	0.014525516
6	0xbe7549b5	-0.23953898
7	0x3ea0e55c	0.31424987
8	0xbdc1c66f	-0.09461676
9	0x3eb184ef	0.34671733
10	0xbe6ae7f8	-0.22940052
11	0xbda24dc0	-0.07924986
12	0x3f015991	0.5052729
13	0xbecaca68	-0.3960755
14	0xbdd09b38	-0.101858556
15	0x3da51177	0.08059972
16	0x3e987225	0.29774585
17	0x3e083136	0.13300022
18	0xbed58c3a	-0.41708547
19	0xbe51a7ce	-0.20474169
20	0x3dcd6803	0.10029604
21	0xbe79500d	-0.24346943
22	0x3e05617c	0.13025469
23	0x3e834b0c	0.25643194
24	0xbd3b66a9	-0.0457522
25	0x3e307bce	0.17234728
26	0x3e857909	0.26068905
27	0x3eec261b	0.46122822
28	0x3c697b2d	0.014250559
29	0x3ea4f703	0.32219705
30	0x3e2b746a	0.16743627
31	0x3ed3e741	0.4138737
32	0xbeadcbdf	-0.33944604
33	0x3d057d71	0.032590333
34	0xbd94fc0a	-0.07274635
35	0x3e902c98	0.28159022
36	0xbd1a9280	-0.03773737
37	0xbe288144	-0.16455561
38	0xbde4cc86	-0.11171822
39	0xbdde5d73	-0.10857668
40	0x3ce0a12c	0.027420603
41	0xbe14e980	-0.14542198
42	0xbd94c991	-0.07265008
43	0x3f0c32a1	0.54764754
44	0x3e20bb5d	0.15696473
45	0x3eb13af0	0.34615278
46	0xbd9fd089	-0.07803447
47	0x3dd4fc3d	0.10399673
48	0x3e90ecf6	0.28305787
49	0x3ddd3429	0.108009644
50	0xbdb88b16	-0.090109035
51	0xbe6cd1f8	-0.23126972
52	0x3ebf001a	0.37304765
53	0x3ea79925	0.32734028
54	0xbe193cf1	-0.14964654
55	0x3e8cd75b	0.27508053
56	0x3e8f4649	0.2798331
57	0xbeb00382	-0.34377676
58	0xbe0d15d3	-0.13777857
59	0xbdd0f758	-0.10203427
60	0x3d879077	0.06619351
61	0x3dd0438f	0.10169136
62	0x3dceccb4	0.10097638
63	0xbe93d2c4	-0.2887174

hidden.1.weight f4 [64, 64]
0	0x3d43995e	0.047753684
1	0x3e23a1e1	0.1597972
2	0x3d0d5276	0.03450247
3	0x3df3b6d9	0.1190011
4	0x3ce3a4a8	0.027788475
5	0x3d4623cb	0.04837398
6	0x3d99b785	0.07505707
7	0xbdfaa93b	-0.122393094
8	0xbde50578	-0.11182684
9	0xbea17945	-0.31537834
10	0xbd539432	-0.051655002
11	0xbdde5f02	-0.10857965
12	0xbe9d4af2	-0.3072124
13	0x3e5de56c	0.21669549
14	0xbe1ec79f	-0.15505837
15	0xbce6eef6	-0.028190117
16	0xbea88c18	-0.32919383
17	0xbd89bd9b	-0.067256175
18	0xbc5f6777	-0.013635508
19	0xbcfda678	-0.030963168
20	0x3bee3d9e	0.007270529
21	0xbe177b70	-0.14793181
22	0xba98c313	-0.0011654816
23	0xbd9b5893	-0.075852536
24	0x3d343895	0.043999273
25	0xbd942b48	-0.07234818
26	0xbe31d035	-0.17364581
27	0xbc82ea38	-0.015980825
28	0x3d8993ea	0.067176655
29	0x3d544426	0.051822804
30	0xbbb9515c	-0.0056554507
31	0xbe959f22	-0.2922297
32	0x3e2ad9a1	0.16684581
33	0xbe97c4de	-0.29642385
34	0xbd230dfc	-0.03980826
35	0xbe49f4bc	-0.19722265
36	0xbe197656	-0.14986548
37	0xbda95c1f	-0.08269524
38	0x3e85587c	0.2604407
39	0x3e9c76a4	0.30559266
40	0xbbea7e81	-0.0071561937
41	0x3e474f4d	0.19463845
42	0xbda5dca8	-0.080987275
43	0xb95660f8	-0.00020444754
44	0xbcf9aaf0	-0.030477017
45	0xbdc00ac9	-0.09377057
46	0x3d8aa6f1	0.06770123
47	0xbcf254e5	-0.029581496
48	0xbd3df232	-0.046373554
49	0xbe3935b0	-0.18086886
50	0x3e8fe0e4	0.28101265
51	0x3e4bf992	0.19919422
52	0xbd962f2a	-0.073332146
53	0xbd340dc4	-0.04395844
54	0xbc98767c	-0.018611185
55	0xbdf85812	-0.12126173
56	0xbe91a8c1	-0.28449062
57	0x3e214da9	0.15752281
58	0x3e853727	0.2601864
59	0xbe67f706	-0.22652826
60	0xbca61f7a	-0.020278681
61	0xbec6404d	-0.38720933
62	0xbe7a94fc	-0.24470896
63	0x3e020010	0.12695336
64	0xbeade124	-0.3396083
65	0x3deb716b	0.11496242
66	0xbd59d244	-0.05317904
67	0xbdc16e19	-0.094448276
68	0x3e84ba87	0.2592356
69	0xbd7e9abb	-0.06215928
70	0xbdc8dcf1	-0.09807766
71	0x3dcd6638	0.10029262
72	0x3d63a320	0.05557549
73	0x3d58be2b	0.052915733
74	0x3d564876	0.052315198
75	0x3e93feba	0.28905278
76	0xbe814f21	-0.25255683
77	0x3e7403fb	0.23829643
78	0xbe36f03f	-0.17865084
79	0xbd1e3a26	-0.038629673
80	0xbe5e7670	-0.21724868
81	0xbe31e9aa	-0.17374292
82	0xbcbc1282	-0.022958044
83	0x3de5a973	0.112139605
84	0xbe81918f	-0.25306365
85	0x3dcdbe6e	0.10046087
86	0x3d0c94dd	0.034321655
87	0xbe0f54d4	-0.13997203
88	0x3e402160	0.18762732
89	0xbe823ea4	-0.25438416
90	0x3e96679a	0.29375917
91	0xbd81f661	-0.06345821
92	0xbe2ac83b	-0.16677944
93	0xbc9b3933	-0.018948173
94	0xbd33bda6	-0.043882035
95	0xbe67e183	-0.2264462
96	0x3e271ae8	0.16318858
97	0xbda15dbd	-0.07879207
98	0x3c8335b6	0.016016822
99	0xbe4c0eac	-0.19927472
100	0x3ddd847d	0.10816286
101	0x3dccbbdf	0.09996771
102	0x3df6ae92	0.120450154
103	0x3e968ac6	0.2940275
104	0xbd6cfa74	-0.05785604
105	0xbde1949a	-0.110146716
106	0xbe836e57	-0.2567012
107	0xbda33c0c	-0.079704374
108	0x3cd65b90	0.026166707
109	0xbd919621	-0.07108713
110	0x3b956ec0	0.0045603216
111	0x3cbb7a9a	0.02288561
112	0xbe471bf8	-0.19444263
113	0xbe18c3e6	-0.1491848
114	0x3d29e456	0.041477524
115	0x3e1c0548	0.1523639
116	0xbd8e7c74	-0.06957331
117	0xbc95afad	-0.018272245
118	0x3ca17ee0	0.019713819
119	0xbe456d27	-0.1927992
120	0xbec7d77f	-0.39031598
121	0x3e40836f	0.18800138
122	0x3d883c92	0.06652178
123	0xbe140120	-0.14453554
124	0x3db9a2ec	0.09064278
125	0x3db7669e	0.089551196
126	0xbd27b072	-0.040939756
127	0x3e8623d4	0.2619921
128	0x3cfa183f	0.03052914
129	0xbd84f764	-0.064924985
130	0xbdfb4234	-0.122684866
131	0x3dba9947	0.091112666
132	0x3da795ae	0.08182846
133	0x3e3415f0	0.17586493
134	0x3dbca8f9	0.092119165
135	0xbd9f0275	-0.077641405
136	0xbdc8630e	-0.09784518
137	0x3d50d421	0.050983552
138	0x3e46fb6d	0.19431849
139	0x3e0abc3d	0.1354837
140	0xbdc620ed	-0.09674249
141	0x3e60f8b1	0.21969868
142	0x3dde68d9	0.10859842
143	0x3dc99b99	0.09844131
144	0x3d7b0582	0.06128455
145	0x3d666e56	0.05625757
146	0xbdd988c6	-0.106217906
147	0xbdca0e0b	-0.0986596
148	0x3d900c97	0.07033651
149	0xbddcfd0c	-0.10790452
150	0x3c3cda8f	0.011526718
151	0x3df4fe2d	0.11962543
152	0x3cd8ad21	0.026449742
153	0x3e331ac3	0.17490678
154	0xbdc586bb	-0.096448384
155	0x3daf9a35	0.085743345
156	0x3e4e8bf7	0.2017058
157	0xbdb6b3ba	-0.08920999
158	0xbd70b64c	-0.0587676
159	0x3e0ed9b3	0.13950233
160	0x3dcd8916	0.10035913
161	0xbd1d9c8e	-0.03847938
162	0xbe540a06	-0.20706949
163	0x3e0c99a5	0.13730486
164	0x3d57ed28	0.052716404
165	0x3e7e0266	0.24805602
166	0x3cdc9269	0.026925283
167	0xbe544fb4	-0.2073353
168	0xbdd97e66	-0.10619812
169	0xbda57c6d	-0.08080373
170	0x3e0f2835	0.13980182
171	0x3cdcdadf	0.026959835
172	0xbd11e5e9	-0.03561965
173	0xbda2f186	-0.07956223
174	0x3dfb16be	0.12260197
175	0xbdab9d84	-0.08379653
176	0xbd89ae7e	-0.06722735
177	0xbdd1c3cc	-0.102424234
178	0xbe39792d	-0.18112631
179	0xbe069715	-0.1314357
180	0x3d42c0f7	0.047547307
181	0xbde62a16	-0.11238496
182	0x3dd0a967	0.10188561
183	0xbd5b4889	-0.05353597
184	0x3d89f62f	0.06736409
185	0xbcccbbf0	-0.02499196
186	0x3df9e3bd	0.12201641
187	0xbda8c6e7	-0.082410626
188	0xbdaacd72	-0.08339967
189	0xbdcb498e	-0.09926139
190	0xbe0304fe	-0.12794873
191	0xbc060a49	-0.008181163
192	0x3dc20cca	0.094750956
193	0xbdab8ecc	-0.08376846
194	0x3ca14ec1	0.019690873
195	0x3d318eab	0.04334895
196	0xbdb4acf7	-0.08822053
197	0x3d81860b	0.06324395
198	0xbe2c87ef	-0.1684873
199	0xbeb2eae3	-0.3494483
200	0xbe755e73	-0.23961811
201	0xbeb1cc61	-0.3472624
202	0xbe3f2ac1	-0.18668653
203	0x3e66f39f	0.22553872
204	0x3d107c2b	0.035274666
205	0xbd2e52f8	-0.042559594
206	0x3eaa299e	0.33234876
207	0xbda575be	-0.08079098
208	0x3e41eba1	0.18937542
209	0x3db81339	0.089880414
210	0x3de49ab8	0.11162323
211	0x3eabf0d4	0.33582175
212	0x3d2172d9	0.039416168
213	0x3e02f299	0.12787856
214	0xbeb02be7	-0.34408495
215	0x3dc622cd	0.096746065
216	0xbdfc65c8	-0.12324101
217	0x3e17b684	0.14815718
218	0xbd64a8e5	-0.055825133
219	0x3db7634a	0.08954485
220	0x3e2b12a6	0.16706333
221	0x3e36678e	0.1781294
222	0x3d56e219	0.052461717
223	0xbc3ac822	-0.011400254
224	0x3dca9c11	0.098930486
225	0xbdd730d4	-0.1050736
226	0xbe3fa72b	-0.18716113
227	0xbea25556	-0.3170573
228	0xbe46871e	-0.1938748
229	0x3dc13efd	0.09435842
230	0x3da6f379	0.081519075
231	0x3d381b01	0.044947628
232	0xbdba0d21	-0.090845354
233	0x3da528e2	0.080644384
234	0xbd7efcf8	-0.06225297
235	0x3d126a4f	0.035745915
236	0xbe085541	-0.13313772
237	0x3e815f78	0.2526815
238	0x3e144cec	0.14482468
239	0x3d6619b7	0.056176867
240	0x3d22d896	0.039757334
241	0x3e80bdeb	0.25144896
242	0x3e676fb1	0.226012
243	0xbe253103	-0.16131978
244	0xbe357401	-0.17720033
245	0xbd6851f0	-0.056718767
246	0x3e9edd05	0.31028
247	0x3d31f1bf	0.043443438
248	0xbdf30e46	-0.11867957
249	0x3e762033	0.2403572
250	0x3cbd9287	0.023141159
251	0x3d94f8fb	0.07274052
252	0xbdfb5bd4	-0.12273374
253	0x3de88d52	0.1135508
254	0x3e8202f6	0.25392884
255	0xbdc3b8aa	-0.09556706

hidden.1.bias f4 [64]
0	0xbe87741b	-0.2645577
1	0xbe88b10f	-0.26697585
2	0xbd780afd	-0.060557354
3	0xbe2f7766	-0.1713539
4	0xbe2bd8d4	-0.16781932
5	0xbdf1f6c1	-0.11814643
6	0x3dbbbaba	0.09166475
7	0x3d917bf1	0.07103718
8	0x3dd24d18	0.10268611
9	0xbd495b9a	-0.049159624
10	0x3e8cfda9	0.27537277
11	0x3e75da1a	0.2400898
12	0x3e25d2de	0.1619372
13	0xbf0769db	-0.528959
14	0xbc24beed	-0.010055286
15	0xbe6c2ed0	-0.23064733
16	0xbeb0ea41	-0.34553722
17	0xbdcac78e	-0.09901343
18	0x3eaa0501	0.33206943
19	0xbde319e8	-0.110889256
20	0x3e98f9af	0.29877993
21	0x3e64ac88	0.2233144
22	0x3df5c5f0	0.12000644
23	0x3e5dad76	0.21648201
24	0xbe22ca58	-0.158975
25	0x3eb74c9b	0.35800633
26	0xbe24e83e	-0.16104218
27	0xbd75486f	-0.05988353
28	0x3e7ce3a1	0.24696209
29	0xbe8182c0	-0.25295067
30	0x3e574c5d	0.21025224
31	0x3de2112b	0.11038431
32	0xbd94c084	-0.07263282
33	0x3ebae33b	0.36501488
34	0x3eae902c	0.3409437
35	0xbc1f42c2	-0.009720506
36	0xbcb51ba0	-0.0221079
37	0x3cd9a75f	0.026569067
38	0x3dbc6666	0.091992185
39	0xbe8c043e	-0.27346987
40	0xbdf40e61	-0.11916805
41	0x3d5afad3	0.05346186
42	0x3da3b4aa	0.07993443
43	0xbd2047bc	-0.03913091
44	0xbe996942	-0.29963118
45	0x3dfe2aed	0.12410531
46	0xbdf740bf	-0.12072896
47	0x3de6f21c	0.112766474
48	0x3de60fba	0.11233468
49	0x3e5e3cd3	0.2170289
50	0xbd977f77	-0.07397359
51	0x3e9220a9	0.28540543
52	0xbe5392bb	-0.20661442
53	0xbe2080b3	-0.15674095
54	0xbc6eba7c	-0.0145708285
55	0xbb8b32b8	-0.0042479895
56	0x3cffe186	0.031235468
57	0x3d5526eb	0.05203907
58	0x3d43df16	0.047820173
59	0x3db03a75	0.086049
60	0x3cf0883e	0.02936184
61	0x3e4e18c6	0.20126638
62	0xbe4ed2d6	-0.20197615
63	0xbe85fe26	-0.26170462

hidden.2.weight f4 [64, 64]
0	0xbba6e32c	-0.005092999
1	0xbea2f4bf	-0.3182735
2	0xbe274651	-0.16335417
3	0x3c7faaf4	0.015604723
4	0xbdb03944	-0.086046726
5	0xbe5ab0cb	-0.21356504
6	0xbdb224ed	-0.08698449
7	0x3e2dfced	0.16991015
8	0xbcb77a94	-0.022397317
9	0xbdb18908	-0.08668715
10	0x3e009e2e	0.12560341
11	0x3d8500f0	0.064943194
12	0x3dcda513	0.10041251
13	0x3d680caa	0.056652702
14	0xbe878e0b	-0.26475558
15	0x3b0e2a95	0.0021692861
16	0xbeb26855	-0.34845224
17	0xbeaf1378	-0.3419454
18	0x3c5bd6b5	0.013417889
19	0xbe0cff6d	-0.13769312
20	0x3d5a3a9d	0.053278554
21	0x3e199001	0.1499634
22	0x3e5f5161	0.21808387
23	0x3e290e5d	0.16509385
24	0xbde81b1b	-0.11333295
25	0x3ea52ca2	0.32260615
26	0xbd946c00	-0.07247162
27	0x3d298b2e	0.041392498
28	0xbdc30618	-0.09522647
29	0xbe1902e3	-0.14942507
30	0x3d97d0e3	0.07412889
31	0xbd348c6f	-0.04407924
32	0xbe03f06b	-0.12884681
33	0x3e0eb26e	0.13935253
34	0x3eb8358e	0.3597836
35	0xbd84e9cf	-0.06489908
36	0x3d882266	0.06647186
37	0x3e6fcc76	0.2341784
38	0x3d8321a5	0.064029016
39	0xbdb5b14d	-0.08871708
40	0x3e0af2c1	0.13569166
41	0x3a9ba614	0.0011875057
42	0xbe01f2e1	-0.12690307
43	0xbe14e63d	-0.14540954
44	0xbe98f341	-0.29873088
45	0xbc0ec506	-0.008713966
46	0xbdb5c70b	-0.08875855
47	0xbd121a5f	-0.03566968
48	0xbd7c3b87	-0.061580207
49	0x3c2431bd	0.010021624
50	0xbe5b2e49	-0.21404375
51	0x3ea269d3	0.31721362
52	0xbd23524b	-0.039873403
53	0x3cd3c211	0.025849374
54	0xbe082f2d	-0.13299246
55	0x3dbbb167	0.09164696
56	0xbd9811ca	-0.07425268
57	0x3db5648d	0.08857069
58	0x3d8fc017	0.0701906
59	0x3cf9fdc6	0.030516516
60	0x3e38bd7b	0.18041031
61	0xbd346e55	-0.044050533
62	0xbe90a5b7	-0.2825143
63	0xbd998a39	-0.07497067
64	0xbec4d2ce	-0.3844208
65	0xbe397162	-0.18109658
66	0xbd2b2af2	-0.041789003
67	0x3e1b160a	0.15145126
68	0xbd5f0ea5	-0.054457325
69	0xbdba1cf0	-0.09087551
70	0x3e14a0a1	0.145144
71	0x3d6460ec	0.055756494
72	0x3dad21d5	0.084537186
73	0x3e06624e	0.13123438
74	0xbe4213a1	-0.189528
75	0x3e299dcb	0.165641
76	0xbe8303fa	-0.2558897
77	0xbc88faf6	-0.01672123
78	0x3e8931e4	0.26795876
79	0x3db2f869	0.08738787
80	0xbe82e1cf	-0.25562903
81	0x3dccb0c1	0.09994651
82	0xbd469871	-0.048485223
83	0x3e166ee3	0.14690737
84	0x3e247cdb	0.16063254
85	0x3da34a91	0.07973207
86	0x3e191a32	0.14951399
87	0x3da54519	0.0806982
88	0xbd82bc4c	-0.06383571
89	0x3d900854	0.070328385
90	0x3e0f4cbd	0.13994117
91	0x3d9d100b	0.076690756
92	0xbb482a11	-0.0030542652
93	0xbee15c3f	-0.4401569
94	0x3e18812b	0.14893024
95	0xbd8045ad	-0.062632896
96	0x3e7f6d23	0.24943976
97	0xbcfd153d	-0.030893916
98	0xbc168da5	-0.009189044
99	0xbe56c040	-0.20971775
100	0x3b4d5ddb	0.003133646
101	0xbd9d4c28	-0.07680541
102	0xbb116ee1	-0.0022191333
103	0xbe34ac11	-0.17643763
104	0x3e7c14e7	0.24617349
105	0xbd27a58c	-0.040929362
106	0x3e212775	0.15737708
107	0xbe0a7dcd	-0.13524552
108	0xbcaffb5b	-0.02148216
109	0xbcd4afe5	-0.02596278
110	0x3e322a33	0.1739891
111	0x3c1b9f38	0.00949841
112	0x3e06adf7	0.131523
113	0x3e5f00f9	0.21777715
114	0xbe56d63f	-0.20980166
115	0x3bbd29d2	0.0057728076
116	0xbe2fa646	-0.17153272
117	0x3dbdcbcd	0.092673875
118	0xbd958ad9	-0.07301874
119	0xbe1b6d35	-0.15178378
120	0xbe1166aa	-0.1419932
121	0x3d09ae64	0.033613577
122	0xbe59f739	-0.21285714
123	0x3dafa3a5	0.085761346
124	0x3e3002b7	0.17188536
125	0xbdfdd1be	-0.12393521
126	0xbe4cfecb	-0.20019071
127	0xbda2913f	-0.0793786
128	0xbe09f459	-0.13472117
129	0xbdc8cdff	-0.09804916
130	0x3dad4a87	0.084614806
131	0xbe22f73f	-0.1591463
132	0x3df95c9c	0.12175867
133	0x3ba8e4e1	0.0051542376
134	0xbdfd0056	-0.1235358
135	0xbdbb6f39	-0.091520734
136	0x3c8d80cc	0.01727333
137	0x3db74613	0.089489125
138	0x3e3600d7	0.17773758
139	0xbbbebca9	-0.00582083
140	0x3e1f2ad2	0.15543678
141	0x3e27779f	0.16354226
142	0x3e20c3be	0.1569967
143	0x3dc66d2e	0.09688793
144	0x3de82d37	0.11336749
145	0x3df35dea	0.11883147
146	0xbdb2d334	-0.0873169
147	0x3d42ae0d	0.04752927
148	0xbe0615dd	-0.13094278
149	0x3d0133e4	0.031543627
150	0x3bcd5734	0.006266499
151	0x3d94db8a	0.07268436
152	0x3d691287	0.056902435
153	0x3d751bb1	0.05984086
154	0x3cbba418	0.022905394
155	0xbb0d45f3	-0.0021556586
156	0xbdbba39d	-0.09162066
157	0x3d0d2ab7	0.034464564
158	0xbcc4a359	-0.024003671
159	0xbe45148c	-0.1924612
160	0x3c41643a	0.011803681
161	0xbe458a38	-0.19291008
162	0xbba51e7c	-0.0050390344
163	0x3e7aae4e	0.24480554
164	0x3daebfd3	0.08532681
165	0xbc87d4aa	-0.016580898
166	0xbe1722fb	-0.14759438
167	0xbdd8bb91	-0.105826505
168	0x3c9456ca	0.01810779
169	0x3e079e68	0.13244021
170	0xbe66d4ca	-0.2254211
171	0xbdb9c466	-0.09070663
172	0xbdbd31df	-0.09238028
173	0xbe1ab9f7	-0.15110002
174	0x3cac8736	0.021060567
175	0xbcf89c56	-0.030347984
176	0x3d513466	0.05107536
177	0x3e33f175	0.17572577
178	0x3ce44ab8	0.02786766
179	0x3c808537	0.015688522
180	0xbe6679ae	-0.22507355
181	0xbdf13250	-0.117771745
182	0x3deaa0e7	0.11456471
183	0x3e55d0e2	0.20880464
184	0x3d15ef65	0.036605258
185	0x3d94c9e7	0.07265072
186	0x3e258225	0.16162927
187	0x3e2556a5	0.16146334
188	0x3caa91cd	0.020821476
189	0xbabeb85c	-0.0014550793
190	0xbd95d91b	-0.073168
191	0xbeae1a57	-0.3400447
192	0x3dd87980	0.10570049
193	0xbe330c8d	-0.17485256
194	0xbcb3248d	-0.021868015
195	0xbdae239c	-0.08502886
196	0xbdc424f7	-0.09577363
197	0xbca58b0f	-0.02020791
198	0x3d9fc555	0.0780131
199	0x3dc2f6aa	0.09519704
200	0xbdfdb27f	-0.12387561
201	0x3e27a3e1	0.16371109
202	0xbd020338	-0.03174135
203	0xbd9683e5	-0.07349376
204	0xbe8e2505	-0.2776262
205	0xbdf10428	-0.11768371
206	0x3c4d6910	0.012537256
207	0x3d8ab7fc	0.067733735
208	0x3d77b56d	0.060475755
209	0x3dcfe831	0.10151709
210	0x3db5f712	0.088850155
211	0xbdb30792	-0.08741678
212	0xbdaf0d67	-0.08547478
213	0x3d88e5cb	0.066844545
214	0x3d006f2a	0.031356014
215	0x3d85fe9a	0.06542702
216	0x3e6c5e48	0.2308284
217	0x3df97a42	0.12181522
218	0xbec75d39	-0.3893831
219	0xbe03209d	-0.1280541
220	0x3d4620c4	0.04837109
221	0x3c4b01df	0.012390583
222	0x3e919fd8	0.28442264
223	0xbbd4d295	-0.00649483
224	0xbd683363	-0.05668963
225	0xbd3c83ed	-0.04602425
226	0x3d8379c2	0.06419708
227	0x3caba5df	0.020953117
228	0x3e8bf23e	0.27333254
229	0x3c53586a	0.0128994975
230	0x3e6c6b8f	0.23087905
231	0x3e4c4122	0.19946721
232	0x3ced94da	0.029001642
233	0xbd28cbcb	-0.041209977
234	0x3e73c417	0.23805271
235	0xbe06040c	-0.13087481
236	0x3ded8e81	0.11599446
237	0x3de07e65	0.10961608
238	0xbdf82d06	-0.121179625
239	0xbd73897b	-0.059457283
240	0x3df6e08b	0.12054547
241	0xbc1385aa	-0.009004036
242	0x3e27d41d	0.16389509
243	0x3e2b19a8	0.16709006
244	0x3cb33ace	0.021878626
245	0x3d0d38c1	0.034477953
246	0xbe6d54a6	-0.23176822
247	0xbe880bf6	-0.26571625
248	0xbda42a5f	-0.08015894
249	0xbeb23350	-0.34804773
250	0x3df32114	0.118715435
251	0x3cdd6087	0.027023567
252	0xbdaed435	-0.08536569
253	0xbe4273f4	-0.18989545
254	0x3e3722c8	0.17884362
255	0x3d01e20f	0.031709727

hidden.2.bias f4 [64]
0	0x3e8cba85	0.27486053
1	0x3e51626d	0.20447703
2	0x3e1dd3c8	0.1541282
3	0xbd10d8e6	-0.0353631
4	0xbd78209b	-0.06057797
5	0x3e4e59be	0.20151421
6	0x3d8403d5	0.064460434
7	0x3d716ebd	0.0589435
8	0x3c67ebaf	0.014155312
9	0x3e085d05	0.13316734
10	0x3e965388	0.29360604
11	0x3cf9aa49	0.030476706
12	0x3e593dba	0.21214953
13	0x3e00d072	0.12579516
14	0xbe4e982b	-0.20175235
15	0x3cfe5a60	0.031048954
16	0x3d8a4ff6	0.067535326
17	0xbe10f100	-0.14154434
18	0xbd46e5fb	-0.04855917
19	0xbe621e72	-0.22081926
20	0xbe7441f6	-0.23853287
21	0x3da603fc	0.08106229
22	0x3e8bc1bc	0.27296245
23	0xbe5c8b06	-0.21537408
24	0xbdec77fe	-0.11546324
25	0x3dc01e81	0.09380818
26	0x3eca17d5	0.39471307
27	0x3eb6680b	0.35626253
28	0xbdcba78e	-0.09944068
29	0x3da90044	0.08252004
30	0x3cecc80f	0.02890399
31	0x3e8b29fc	0.2718047
32	0x3e7f0c1b	0.24906962
33	0xbe656ab6	-0.22403988
34	0xbd08699b	-0.03330384
35	0xbdf683a3	-0.120368265
36	0xbd32e3b1	-0.043674175
37	0xbdb5a7d2	-0.088699
38	0xbce631fd	-0.028100008
39	0xbe21eb5c	-0.15812439
40	0xbdf8c8c3	-0.12147667
41	0xbbd5a9de	-0.006520494
42	0x3de68ee1	0.11257721
43	0x3df1daf6	0.118093416
44	0x3c768669	0.015046694
45	0x3e092421	0.13392688
46	0x3c37f98e	0.011228932
47	0x3e292baf	0.1652057
48	0xbceea110	-0.029129535
49	0x3e8825bb	0.26591286
50	0x3cde2a8c	0.027119897
51	0x3e9c615e	0.30543035
52	0xbea30291	-0.31837896
53	0xbc646ee8	-0.013942458
54	0x3e2ba640	0.16762638
55	0xbe2e19dd	-0.17002054
56	0x3e34f65b	0.17672102
57	0x3d74feaf	0.059813198
58	0xbec1187f	-0.37714002
59	0xbe1f1288	-0.15534413
60	0xbe536bcc	-0.2064659
61	0x3dbdb0ca	0.092622355
62	0x3e3fc919	0.18729056
63	0xbded50ce	-0.11587678

hidden.3.weight f4 [64, 64]
0	0x3c71644e	0.014733387
1	0x3d97da32	0.07414664
2	0xbddd7a2f	-0.1081432
3	0xbe4c81f2	-0.19971445
4	0x3d6051cd	0.05476551
5	0xbe6a48ee	-0.22879383
6	0xbe2b6955	-0.167394
7	0xbe4fe1cb	-0.20300977
8	0x3dd7f8b5	0.10545484
9	0x3e879f88	0.264889
10	0xbe762b15	-0.24039872
11	0xbc882014	-0.016616859
12	0x3d25ed08	0.040509254
13	0x3e136beb	0.14396636
14	0xbe4a3967	-0.1974846
15	0x3cf0b468	0.0293829
16	0xbebb3302	-0.36562353
17	0xbde81e4b	-0.11333903
18	0x3ec09129	0.37610748
19	0xbd6a5b35	-0.057215888
20	0xbe0b22bf	-0.13587473
21	0xbe4adfa9	-0.19811882
22	0x3be12b7e	0.0068716398
23	0xbcc94f03	-0.024573809
24	0x3b533608	0.003222825
25	0x3e6e7413	0.23286466
26	0x3e4e964e	0.20174524
27	0x3e596076	0.21228203
28	0x3d17747d	0.036976326
29	0xbd6fae6f	-0.058515962
30	0x3df6426a	0.12024386
31	0xbed97d8b	-0.42478594
32	0xbe3399c5	-0.17539127
33	0xbe3e8233	-0.18604355
34	0x3d0c37bc	0.03423284
35	0x3da96bc6	0.08272509
36	0xbe292d65	-0.16521223
37	0xbd7f5f2d	-0.062346626
38	0x3d55867e	0.052130215
39	0x3dd36fd1	0.10324062
40	0x3d5c6b5b	0.05381332
41	0xbbed9205	-0.007250073
42	0x3e24c7d4	0.16091853
43	0x3ce067e5	0.02739329
44	0x3d764a13	0.060129236
45	0xbe3db092	-0.18524387
46	0x3c5fc36f	0.013657435
47	0x3dd0c01f	0.10192894
48	0x3d9881e2	0.07446648
49	0x3d12c8b9	0.035835955
50	0xbde412da	-0.11136408
51	0x3da9b7c0	0.08287001
52	0xbe780924	-0.24222237
53	0x3e39163b	0.18074887
54	0x3d7efd40	0.062253237
55	0x3be47427	0.0069718543
56	0x3ea25385	0.31704345
57	0x3de7b3a0	0.113135576
58	0xbe83e7d8	-0.2576282
59	0x3e22f033	0.15911941
60	0x3e74c0ea	0.23901716
61	0xbcb3e4af	-0.02195963
62	0x3dc4a198	0.09601134
63	0xbd04aed8	-0.032393306
64	0x3d4b47e0	0.049629092
65	0x3dce773c	0.10081336
66	0x3db15a32	0.086597815
67	0xbe14e166	-0.14539108
68	0xbcdbc930	-0.026829332
69	0x3d890c0f	0.06691753
70	0x3dd03731	0.10166777
71	0x3ea3096a	0.3184312
72	0x3e43870b	0.19094484
73	0x3e2105db	0.1572489
74	0x3dafbde3	0.0858114
75	0x3d4c2e71	0.049848977
76	0xbd512809	-0.05106357
77	0xbd25c077	-0.040466752
78	0xbde5d1e4	-0.11221674
79	0x3d26cb25	0.040721077
80	0xbe38bf9a	-0.1804184
81	0xbc89a259	-0.016801046
82	0xbcb5cbd8	-0.022191927
83	0xbce6d65e	-0.02817839
84	0xb9bb2207	-0.00035692772
85	0x3e004570	0.12526488
86	0x3b6f78d3	0.0036540523
87	0x3d163395	0.036670286
88	0x3cf87cfe	0.030333038
89	0x3c0de382	0.008660199
90	0xbcd2229c	-0.025651269
91	0x3ca93570	0.020655364
92	0xbd09c23c	-0.033632502
93	0xbdcfc3ba	-0.10144754
94	0x3da6187c	0.08110139
95	0xbe2c5bab	-0.16831844
96	0xbdc3a4f7	-0.09552949
97	0x3e1d2114	0.1534465
98	0xbb868c6c	-0.004106095
99	0xbd538fbf	-0.05165076
100	0x3e453e16	0.19261965
101	0xbcb55834	-0.022136785
102	0x3d698923	0.05701555
103	0x3e9bb016	0.3040778
104	0xbe3b1727	-0.1827055
105	0x3d87ffc4	0.0664058
106	0x3dcc78cd	0.099839784
107	0x3cdc1bd5	0.02686874
108	0x3cd699f8	0.026196465
109	0xbdb6baef	-0.089223735
110	0xbdfd8f11	-0.123808034
111	0x3e15f8df	0.14645718
112	0xbe192da6	-0.1495882
113	0x3e3a9cd7	0.18223892
114	0xbdccf65c	-0.10007927
115	0x3e10e12e	0.14148399
116	0xbe4d1972	-0.20029238
117	0xbd8b03ee	-0.06787859
118	0x3e832337	0.25612804
119	0x3d99d7f7	0.07511895
120	0xbc16f564	-0.009213779
121	0x3e277a44	0.16355234
122	0x3cac60b5	0.021042207
123	0x3d4298fa	0.04750917
124	0x3dd8f9e3	0.10594537
125	0xbcb2cfb7	-0.021827562
126	0x3e19cbef	0.150192
127	0x3e270094	0.16308814
128	0x3e136e9f	0.14397667
129	0xbdee253e	-0.11628197
130	0x3e28e1e9	0.16492428
131	0xbd7dfd80	-0.062009335
132	0x3e00f1c0	0.1259222
133	0xbe99d8fb	-0.30048355
134	0x3e5c80c8	0.21533501
135	0x3e56b36a	0.20966879
136	0x3e5d8dc3	0.21636109
137	0xbe91229f	-0.28346726
138	0x3bd62929	0.0065356684
139	0xbd4d75cc	-0.050161168
140	0xbe7f4a9f	-0.2493081
141	0x3eb09d45	0.34494987
142	0xbe5329e4	-0.20621449
143	0xbd35967e	-0.044332974
144	0xbf0704b3	-0.52741545
145	0xbe1eacad	-0.15495558
146	0xbd995e15	-0.07488648
147	0xbe5a2cfd	-0.21306224
148	0xbea6cddb	-0.3257893
149	0xbe8d367d	-0.27580634
150	0x3dd94119	0.106081195
151	0xbc1f0d4e	-0.009707762
152	0xbe158e62	-0.14605096
153	0x3e02eb29	0.12785019
154	0x3e83f151	0.25770047
155	0x3e8d378e	0.27581447
156	0xbe76b54f	-0.24092601
157	0x3d5aa847	0.053383138
158	0xbdb28110	-0.08716023
159	0x3e8365cd	0.25663605
160	0x3e926a32	0.28596646
161	0xbef5cae9	-0.4800637
162	0xbe435279	-0.1907443
163	0x3d7912e9	0.06080905
164	0xbd8d4d4d	-0.068995096
165	0x3d680937	0.056649413
166	0xbe879f7e	-0.2648887
167	0xbeb33a18	-0.3500526
168	0xbdd86e7a	-0.10567947
169	0xbda171e5	-0.07883052
170	0xbd9bba3b	-0.0760388
171	0xbdd827a7	-0.10554438
172	0xbb7e5274	-0.003880647
173	0x3ab7e066	0.0014028668
174	0xbed473a4	-0.41494477
175	0xbe174e59	-0.14775981
176	0xbebd0af4	-0.3692242
177	0x3ed307af	0.412168
178	0x3e30f1bd	0.17279716
179	0x3e54c9ad	0.20780058
180	0xbee8598f	-0.45380828
181	0xbe0bbbc7	-0.1364585
182	0x3d9d9187	0.07693773
183	0xbd7b8550	-0.061406434
184	0x3e838c5f	0.25693032
185	0x3edaa63d	0.42704955
186	0xbe9b6127	-0.3034756
187	0xbd086947	-0.033303525
188	0xbde81296	-0.1133167
189	0x3e6e57af	0.23275636
190	0x3e65c367	0.22437821
191	0xbe20f680	-0.15719032
192	0xbd23b781	-0.039969925
193	0xbd923b4b	-0.071402155
194	0xbd66f486	-0.05638554
195	0xbdcbf0d1	-0.099580415
196	0x3ea65ee1	0.32494262
197	0xbe2417eb	-0.16024749
198	0x3d1a5919	0.037682626
199	0x3d8bc037	0.068237714
200	0xbe30191b	-0.17197077
201	0x3e87abc8	0.26498246
202	0xbe34f376	-0.17670998
203	0xbcedadd1	-0.029013546
204	0xbe737559	-0.23775233
205	0xbdbf7d39	-0.09350056
206	0x3e1303c7	0.1435691
207	0x3e856347	0.26052305
208	0xbe39d0ad	-0.1814601
209	0xbe3b4f06	-0.18291864
210	0x3d8d1d28	0.06890327
211	0x3e4a1fba	0.19738665
212	0xbdfe662f	-0.12421834
213	0xbed7a8fa	-0.42121106
214	0xbdfe5b20	-0.124197245
215	0x3cfafe61	0.030638875
216	0x3e82cf0e	0.25548595
217	0xbea9ab2c	-0.33138406
218	0x3e45b54e	0.19307443
219	0x3b60e6cc	0.0034317253
220	0xbccc4785	-0.024936447
221	0x3c20e42b	0.0098200245
222	0x3e80969a	0.251149
223	0x3d84d353	0.064856194
224	0xbe0ae854	-0.13565189
225	0xbdc149b9	-0.094378896
226	0xbecbad2c	-0.39780557
227	0x3e6f9150	0.23395276
228	0xbd4818d7	-0.048851814
229	0xbc5a9a80	-0.0133425
230	0xbc69c12d	-0.014267248
231	0x3cc2edc6	0.02379502
232	0xbea1bd2b	-0.31589636
233	0xbdea2df2	-0.114345446
234	0xbd66ba5a	-0.056330062
235	0xbea604f1	-0.32425645
236	0x3e92aed0	0.28648996
237	0xbdc10fed	-0.09426866
238	0xbcdfc34d	-0.027314806
239	0xbcaf9ad7	-0.021436138
240	0xbe9b589b	-0.30341038
241	0x3e4cc039	0.19995202
242	0xbe26cd04	-0.16289145
243	0x3e42042a	0.18946901
244	0x3d5044dc	0.05084692
245	0xbe5f9aa7	-0.21836339
246	0xbe1f979d	-0.1558518
247	0x3d0eb105	0.034836788
248	0x3eac4150	0.3364358
249	0xbd8e5479	-0.06949706
250	0xbd4109fe	-0.04712867
251	0x3d62a15f	0.055329677
252	0x3e1709ca	0.14749828
253	0x3e06ebd3	0.13175897
254	0xbc4b7e6f	-0.012420281
255	0x3e354d05	0.17705162

hidden.3.bias f4 [64]
0	0x3e3446ab	0.17605083
1	0xbda90aa8	-0.08253986
2	0x3eefb271	0.46815827
3	0x3e3ca12d	0.18420859
4	0x3e81c97a	0.25349027
5	0xbdac15fd	-0.084026314
6	0xbddd215f	-0.10797381
7	0xbd69527e	-0.056963436
8	0x3e10ce3b	0.1414117
9	0xbed9e661	-0.42558578
10	0xbe084d3d	-0.13310714
11	0xbe036e5e	-0.1283507
12	0xbe5b03c4	-0.21388155
13	0xbe734934	-0.23758394
14	0x3e15c24a	0.14624897
15	0x3d78d969	0.060754213
16	0xbe582306	-0.2110711
17	0x3e46e0a9	0.19421639
18	0x3cf56706	0.029956352
19	0x3de8a238	0.11359066
20	0x3c4a23c8	0.0123376325
21	0x3c8ba554	0.017046608
22	0xbd8d1e7d	-0.06890581
23	0xbd67e477	-0.056614365
24	0xbe1b768d	-0.15181942
25	0x3e8d1d5d	0.27561465
26	0x3d42ba6e	0.047541074
27	0x3e2175dc	0.15767616
28	0x3db99b4c	0.09062824
29	0xbdf1d501	-0.118082054
30	0xbe507110	-0.2035563
31	0x3ecd7b31	0.4013305
32	0x3e3f6bcd	0.18693466
33	0x3d98da8b	0.07463559
34	0xbde122a4	-0.10992935
35	0xbd37ebf1	-0.044902746
36	0x3dd40c1e	0.10353874
37	0xbe4303c0	-0.190444
38	0xbd184a88	-0.037180454
39	0xbcff0dc5	-0.031134496
40	0xbbd381dc	-0.0064546894
41	0x3d2e2292	0.042513438
42	0x3a32aa65	0.0006815552
43	0x3d75ec00	0.06003952
44	0xbd8d0ef7	-0.0688762
45	0x3e89de3c	0.26927364
46	0x3e35677e	0.1771526
47	0xbe497fd4	-0.19677669
48	0xbe6e5f51	-0.23278548
49	0x3e1e9891	0.15487887
50	0xbd942c66	-0.07235031
51	0xbe26812e	-0.16260216
52	0xbdb3a770	-0.087721705
53	0x3c5b3589	0.013379463
54	0xbe40770b	-0.18795411
55	0xbca6a00d	-0.02033999
56	0x3ec46271	0.38356355
57	0xbe37a80e	-0.17935202
58	0xbe25164d	-0.16121788
59	0x3dd7d141	0.10537959
60	0x3e0cb6c7	0.13741599
61	0xbdb91428	-0.090370476
62	0x3ddc6403	0.10761263
63	0x3e7078e5	0.23483618

hidden.4.weight f4 [64, 64]
0	0xbc8c8dba	-0.017157424
1	0xbd4fa61f	-0.050695535
2	0x3ce99619	0.028513955
3	0xbd57da29	-0.052698288
4	0x3d8357a3	0.064132
5	0x3d88e0df	0.06683516
6	0x3e06f5af	0.13179658
7	0x3ceaaeb4	0.028647758
8	0x3cd51069	0.026008802
9	0x3d9d4c26	0.0768054
10	0xbe21a847	-0.15786849
11	0x3cf3da6b	0.029767236
12	0x3d8346df	0.06410002
13	0x3c932885	0.017963657
14	0x3dee1b23	0.1162627
15	0xbdb20fd8	-0.08694428
16	0x3d9b87c9	0.07594258
17	0xbe0b4d7f	-0.13603781
18	0x3e443107	0.19159327
19	0xbe13e3df	-0.14442395
20	0x3cfce870	0.030872554
21	0xbd5ee8b5	-0.054421145
22	0x3e6b8eb4	0.23003656
23	0x3e048662	0.12941888
24	0x3e5ca779	0.21548261
25	0x3e0fdd43	0.14049248
26	0x3ced537c	0.028970473
27	0x3e0b1203	0.1358109
28	0x3e205da3	0.1566072
29	0x3df54006	0.11975102
30	0x3d81ad79	0.063319154
31	0xbe00960c	-0.12557238
32	0xbe127321	-0.1430173
33	0xbe0ef805	-0.139618
34	0x3dc47b53	0.09593835
35	0xbe147481	-0.14497568
36	0x3e6b4609	0.22975935
37	0x3d5c7562	0.053822882
38	0x3d42df25	0.04757609
39	0xbd6d7808	-0.0579758
40	0xbdeb35c3	-0.114848636
41	0x3d80ecb1	0.06295145
42	0xbd922e7c	-0.071377724
43	0xbd296be7	-0.04136267
44	0x3e0a0c7e	0.13481328
45	0x3dd55618	0.10416812
46	0x3e6bdab0	0.23032641
47	0xbdb12904	-0.08650401
48	0xbe5361d3	-0.20642786
49	0xbd3bf42d	-0.04588716
50	0x3db689bf	0.08912992
51	0xbd487910	-0.04894358
52	0x3e67af1d	0.22625394
53	0xbe222503	-0.15834431
54	0x3e169e96	0.14708933
55	0xbd928a97	-0.0715534
56	0xbde0cff1	-0.10977162
57	0x3d246090	0.04013115
58	0xbbbf50c3	-0.005838485
59	0xbe962721	-0.29326728
60	0xbdd8fb8e	-0.10594855
61	0x3dde003a	0.10839887
62	0x3d90030e	0.07031833
63	0x3e0dff2e	0.13866875
64	0xbe2416bf	-0.16024302
65	0x3d1b7185	0.037950058
66	0xbe6ce359	-0.23133601
67	0x3bf0eccf	0.0073524485
68	0x3e1c9fab	0.15295283
69	0x3a73fa72	0.00093070336
70	0x3d8aa379	0.06769461
71	0x3d0ab0ea	0.033860125
72	0x3e76ad3f	0.24089526
73	0x3d8684cd	0.065682985
74	0x3d84c3e1	0.064826734
75	0xbe016579	-0.12636365
76	0xbd0d574d	-0.034507085
77	0x3dbf4844	0.093399554
78	0x3e101c2f	0.14073251
79	0x3def4c7f	0.11684512
80	0xbca80e85	-0.020514736
81	0xbddab8c3	-0.10679772
82	0x3da845f7	0.0821647
83	0x3e89fdca	0.26951438
84	0x3dad9c54	0.08477083
85	0xbde1a47a	-0.110176995
86	0x3e12765a	0.1430296
87	0x3d45458e	0.048162036
88	0x3e12aa2e	0.14322731
89	0xbdd6aad9	-0.10481805
90	0xbe515911	-0.20444132
91	0xbd325487	-0.043537643
92	0x3e31875b	0.1733679
93	0x3d4b3c1a	0.049617864
94	0x3e0b3958	0.13596094
95	0x3d15040b	0.03638081
96	0xbda1421b	-0.07873937
97	0x3e4056e3	0.18783145
98	0xbe83701e	-0.25671476
99	0xbe203674	-0.15645772
100	0xbd4f162c	-0.050558254
101	0xbe62b0c0	-0.22137737
102	0x3e2da147	0.16956054
103	0xbe33dbb5	-0.1756428
104	0xbd959de4	-0.07305506
105	0x3da118f9	0.07866091
106	0xbd1d61eb	-0.03842346
107	0x3e01ac2c	0.12663335
108	0xbdf69ce1	-0.12041641
109	0x3d2f895c	0.042855605
110	0x3ca765c7	0.020434273
111	0xbe2366a0	-0.15957117
112	0x3e225a65	0.15854795
113	0x3e24f84d	0.16110344
114	0x3dbe17eb	0.09281906
115	0x3e5daba5	0.21647508
116	0xbd631c8c	-0.055447146
117	0xbda8c268	-0.08240205
118	0x3db5c5e7	0.088756375
119	0xbe8097bf	-0.25115773
120	0xbdbebb93	-0.09313121
121	0xbe045491	-0.12922885
122	0x3db0c5a7	0.08631449
123	0xbd102bad	-0.035197902
124	0x3e288182	0.16455653
125	0x3e68a921	0.22720768
126	0xbab11337	-0.0013509755
127	0x3de35b58	0.11101407
128	0x3ddb43a1	0.107062586
129	0x3d92f6c5	0.07175974
130	0x3dea3bac	0.11437163
131	0x3df6f1f7	0.1205787
132	0x3df260b1	0.11834849
133	0x3cbf58cd	0.023357773
134	0x3dac4962	0.08412434
135	0xbd14e47d	-0.036350716
136	0x3e46e663	0.19423823
137	0xbd847863	-0.064682744
138	0xbdb8f292	-0.090306416
139	0xbe6c0958	-0.2305044
140	0xbd9f3156	-0.07773082
141	0xbd6baed3	-0.057539772
142	0x3d41c773	0.04730935
143	0xbda51e14	-0.080623776
144	0x3e8b5103	0.27210245
145	0xbcad120a	-0.021126766
146	0x3e5510d6	0.20807204
147	0x3dbe38ab	0.09288152
148	0xbdd4b4be	-0.10386036
149	0xbe145245	-0.14484508
150	0xbce9a2e8	-0.028520063
151	0xbd8df91b	-0.06932279
152	0x3cf5a151	0.029984148
153	0xbd208052	-0.039184876
154	0xbdc2751a	-0.094949916
155	0x3de1793f	0.11009454
156	0x3e32fcb5	0.17479213
157	0x3da9998f	0.08281242
158	0xbd3fef85	-0.046859283
159	0xbdc0fa56	-0.09422748
160	0xbd80b312	-0.06284155
161	0x3d942694	0.07233921
162	0x3e052cd8	0.13005388
163	0x3e88888f	0.26666686
164	0xbd83cee2	-0.06435944
165	0x3dc75e07	0.09734731
166	0xbe4fdbb1	-0.2029865
167	0x3d85b84e	0.06529294
168	0x3e4c260b	0.19936387
169	0xbc27df0b	-0.010246049
170	0xbd971e35	-0.073788084
171	0xbe556ddc	-0.2084269
172	0xbe0f925d	-0.14020677
173	0xbda9c5e3	-0.08289697
174	0x3e5a09bc	0.21292776
175	0xbea85116	-0.32874364
176	0x3e735095	0.23761208
177	0xbe5b8df2	-0.21440867
178	0xbd511b0c	-0.051051185
179	0xbe04a4f8	-0.12953556
180	0xbe6e1873	-0.23251514
181	0xbdf7f70b	-0.121076666
182	0xbd9a12e9	-0.07523138
183	0x3d979513	0.074014805
184	0xbcf3a692	-0.029742513
185	0x3c527d5a	0.012847269
186	0xbe1e74d1	-0.1547425
187	0x3d7d7da8	0.061887413
188	0x3e776c36	0.24162373
189	0x3dc41c32	0.0957569
190	0x3e269388	0.16267216
191	0xbde77447	-0.11301475
192	0x3be8b7ce	0.0071019894
193	0x3d588bb3	0.052867603
194	0xbe434499	-0.19069137
195	0x3d0ade9a	0.033903696
196	0x3dd10e3c	0.10207793
197	0x3e904416	0.28176945
198	0xbda551db	-0.08072253
199	0x3e74e231	0.2391441
200	0x3c90598c	0.017620824
201	0xbca2587f	-0.019817589
202	0x3e1f87a0	0.1557908
203	0x3e077c52	0.13231018
204	0xbe163189	-0.14667334
205	0xbd3152ff	-0.043292042
206	0x3eb67cfd	0.35642233
207	0x3d2f0434	0.042728618
208	0xbdac2c72	-0.08406915
209	0x3d15d389	0.03657869
210	0xbcc80cb7	-0.024420125
211	0xbd07ee88	-0.033186466
212	0x3d2d510e	0.042313628
213	0x3db2ad73	0.08724489
214	0x3dbaa765	0.09113959
215	0xbcd1a7f5	-0.025592783
216	0xbd5f5d8c	-0.054532573
217	0xbd259172	-0.04042191
218	0x3d9c5b5d	0.07634614
219	0x3e4e4824	0.20144707
220	0xbc8dca75	-0.017308453
221	0xba974b80	-0.0011542886
222	0x3e2bd149	0.16779055
223	0x3de099a9	0.10966808
224	0xbe5263dc	-0.20545906
225	0x3e840d39	0.25791338
226	0xbd749320	-0.05971062
227	0xbd89b39f	-0.06723713
228	0x3dd9a883	0.10627844
229	0x3cab8203	0.020936018
230	0x3d88f9e1	0.066882856
231	0xbd9d1ab1	-0.076711066
232	0xbdaf2339	-0.0855164
233	0xbce11a72	-0.02747843
234	0x3cd4686b	0.025928697
235	0xbd0ac457	-0.03387865
236	0x3d5a84ff	0.05334949
237	0xbe0ea27f	-0.13929175
238	0xbd22682a	-0.03965012
239	0xbe18eb03	-0.149334
240	0x3d373e2c	0.044737026
241	0x3e0987a9	0.13430656
242	0xbe4376cd	-0.19088288
243	0xbce072e3	-0.027398532
244	0xbc8197bd	-0.015819425
245	0xbb20caa8	-0.0024534855
246	0x3e3cf48b	0.1845266
247	0x3da5910a	0.08084305
248	0x3d7eb98f	0.06218868
249	0x3c48eb27	0.012263096
250	0x3d0279ea	0.031854548
251	0x3e0095da	0.12557164
252	0x3df7a0c0	0.120912075
253	0x3d897c11	0.06713117
254	0x3c40e726	0.01177386
255	0xbd2e78f9	-0.042595837

hidden.4.bias f4 [64]
0	0x3c6204d0	0.013795093
1	0xbd97b422	-0.074074045
2	0xbd2b8908	-0.04187873
3	0xba6cd200	-0.0009033978
4	0x3db659c0	0.08903837
5	0x3db23080	0.08700657
6	0x3d13fd10	0.03613001
7	0x3d83125a	0.06399985
8	0x3ded5a2a	0.11589463
9	0xbb1e1f40	-0.0024127513
10	0x3bc47ba0	0.0059961826
11	0xbcb4f280	-0.02208829
12	0xbcbfb0d0	-0.02339974
13	0xbdfad2a8	-0.12247211
14	0xbd7eae70	-0.062178075
15	0x3c707d30	0.0146782845
16	0x3d1db460	0.038502097
17	0xbdfe40dc	-0.12414715
18	0x3d9ea73c	0.07746741
19	0xbde60eee	-0.11233316
20	0xbca13d90	-0.019682676
21	0xbdd1d13e	-0.10244988
22	0xbd2d2b6c	-0.04227774
23	0xbd90fb9c	-0.07079241
24	0xbda743b8	-0.08167213
25	0xbd8c1a68	-0.06840974
26	0x3dbed3f4	0.093177706
27	0x3ce48650	0.027896076
28	0x3ddd6522	0.10810305
29	0xbd67c450	-0.056583703
30	0xbda7ed4e	-0.08199559
31	0x3da1f6fa	0.07908435
32	0x3df89dba	0.12139459
33	0xbddc4bba	-0.10756631
34	0xbd9d2804	-0.07673648
35	0x3dfca96c	0.12337002
36	0x3d28c18c	0.041200206
37	0xbcd4c370	-0.025972098
38	0x3db03a8a	0.086049154
39	0xbdb69b62	-0.08916356
40	0xbdebb388	-0.11508852
41	0x3d90ea42	0.07075931
42	0x3c0983e0	0.008393258
43	0x3d738cd4	0.059460476
44	0x3da3aff4	0.07992545
45	0x3c9c7538	0.019098863
46	0xbdff0b50	-0.124533296
47	0x3dadb8c8	0.0848251
48	0xbd26dc38	-0.04073736
49	0xbbc22ac0	-0.0059255064
50	0x3d69aa30	0.05704707
51	0xbcabfa28	-0.020993307
52	0xbc227c80	-0.009917378
53	0xbdfe13c0	-0.12406111
54	0x3d36d4f8	0.044636697
55	0xbde9f542	-0.11423732
56	0x3dfe60fc	0.12420842
57	0x3dbbd398	0.09171218
58	0x3df3ecca	0.11910398
59	0x3d807546	0.06272368
60	0x3d592490	0.053013384
61	0xbc3d6c40	-0.011561453
62	0x3c545fc0	0.012962282
63	0xbd079b78	-0.03310725

output.weight f4 [9, 64]
0	0x3cdf58cd	0.027264023
1	0x3e8f73b5	0.28017965
2	0x3ce3087a	0.027714003
3	0x3da4006a	0.080078915
4	0xbe03bb9c	-0.12864536
5	0xbeb04130	-0.34424734
6	0x3d235352	0.039874382
7	0xbe988524	-0.29789078
8	0xbe449887	-0.1919881
9	0x3fa6e7fd	1.3039547
10	0xbe581c54	-0.21104556
11	0x3e0de723	0.13857703
12	0xbe542557	-0.20717369
13	0x3f3a2372	0.72710335
14	0x3d5e996c	0.054345533
15	0xbe854d51	-0.2603555
16	0x3db35aa9	0.087575264
17	0xbf5a8681	-0.85361487
18	0x3e02b78d	0.12765332
19	0x3e08999a	0.13339844
20	0xbea09ff4	-0.31372035
21	0x3ec979ee	0.39350837
22	0xbe52f2c0	-0.20600414
23	0xbeef015d	-0.46680728
24	0xbe0090a9	-0.12555183
25	0x3e6e08fe	0.23245618
26	0x3f3abcf7	0.7294459
27	0x3e965789	0.2936366
28	0xbf1ab819	-0.6043716
29	0xbede5282	-0.43422323
30	0xbd2689b6	-0.040658675
31	0x3e4d4e37	0.20049368
32	0x3e340cb8	0.17582977
33	0xbeae60eb	-0.34058318
34	0xbe7fb177	-0.24970041
35	0xbef98986	-0.48737735
36	0x3e280f88	0.16412175
37	0xbdc515df	-0.09623312
38	0xbd4b22a8	-0.049593598
39	0xbe0870a0	-0.13324213
40	0x3e60bfa3	0.21948104
41	0x3ea40beb	0.32040343
42	0x3e4c0078	0.19922054
43	0xbf0dc798	-0.5538268
44	0x3e2f631d	0.17127652
45	0xbd4b4c91	-0.049633566
46	0x3e50296a	0.20328298
47	0x3e3b88fa	0.18313971
48	0x3d6c30fe	0.05766391
49	0xbeca46a8	-0.3950703
50	0xbea21840	-0.31659126
51	0xbda5a9fb	-0.08089062
52	0x3f4778b4	0.77918553
53	0x3e45389b	0.19259875
54	0xbe5a193b	-0.21298687
55	0xbe823124	-0.25428116
56	0x3e79b697	0.24386059
57	0x3db73646	0.08945899
58	0x3eb48205	0.35255447
59	0xbe1ad09a	-0.15118638
60	0x3e7863fc	0.24256891
61	0xbd99366d	-0.07481084
62	0xbe93392d	-0.2875456
63	0x3f024647	0.50888485
64	0xbe829339	-0.25502947
65	0x3e788dc8	0.24272835
66	0xbeaa4cd8	-0.33261752
67	0x3e5fa90e	0.21841833
68	0x3dcd8833	0.100357436
69	0xbf0a0c58	-0.53925085
70	0xbed97e2c	-0.42479074
71	0x3e0ba67a	0.13637725
72	0xbea188a2	-0.31549555
73	0xbf86453a	-1.0489876
74	0x3d1b9eb7	0.03799316
75	0xc02fd3fa	-2.747313
76	0xbe4be1ef	-0.19910406
77	0xbf12f11a	-0.5739914
78	0xbe239575	-0.15974982
79	0x3fa3dabc	1.2801127
80	0xbe9ef162	-0.31043535
81	0xbeb647d0	-0.35601664
82	0xbfd10127	-1.6328477
83	0xbec90015	-0.39257875
84	0xbee56c91	-0.44809392
85	0x3facc080	1.3496246
86	0xbdb854cd	-0.090005495
87	0x3f10c313	0.5654766
88	0x3d326956	0.043557487
89	0x3e2b83ae	0.1674945
90	0xbebd3cc1	-0.36960414
91	0xbeb391f9	-0.35072306
92	0x3e9a649e	0.3015489
93	0x3d8c024a	0.06836374
94	0xbe1ba6c4	-0.15200335
95	0x3c028c9d	0.007968095
96	0xbca755fe	-0.020426746
97	0xbe3f898f	-0.18704818
98	0x3e50d0ba	0.20392123
99	0xbf6e7385	-0.9314502
100	0xbf077816	-0.5291761
101	0xbf30ad93	-0.69014853
102	0xbc6baf5e	-0.0143850725
103	0xbd07e9e6	-0.033182047
104	0x3d2c3f73	0.042052697
105	0x3f1aafdf	0.6042461
106	0x3c1dfed2	0.009643273
107	0x3f24f417	0.6443495
108	0xbc243d5a	-0.010024393
109	0x3e8cc636	0.27494973
110	0xbe7c8546	-0.24660215
111	0x3c2cfa9e	0.010557799
112	0xbcd903d6	-0.026491087
113	0xbf7cc50a	-0.9873816
114	0xbe8b019a	-0.2714966
115	0x3f95b26b	1.1695074
116	0xbf991238	-1.1958685
117	0x3e50f0c3	0.20404343
118	0x3ee80d21	0.45322517
119	0x3fa7502a	1.3071339
120	0xbec678c0	-0.38764
121	0xbdf5fa72	-0.12010659
122	0x3ea2c046	0.31787318
123	0x3d8d2b68	0.06893045
124	0xbe0b4624	-0.13600975
125	0x3e8d832f	0.27639148
126	0x3d080a1c	0.033212766
127	0xbefc58c0	-0.4928646
128	0xbe6943c3	-0.22779755
129	0xbe6132e7	-0.21992074
130	0x3d1e3f44	0.038634554
131	0xbe145141	-0.14484121
132	0xbd81c7cd	-0.06336937
133	0x3e806a08	0.25080895
134	0x3e0dcaab	0.13846843
135	0x3db23b30	0.08702695
136	0x3c810396	0.01574878
137	0xbee56ee1	-0.44811156
138	0xbec33303	-0.38124856
139	0xbb74b401	-0.0037338736
140	0xbe98e090	-0.29858828
141	0xbb4fd3b2	-0.0031711874
142	0xbe15f51f	-0.14644288
143	0x3e476e03	0.1947556
144	0x3d559b73	0.0521502
145	0xbdb3affd	-0.087738015
146	0xbc64a410	-0.013955131
147	0xbca7f7e8	-0.020503953
148	0x3dde01f8	0.10840219
149	0xbe160ba5	-0.1465288
150	0x3dc14d89	0.09438617
151	0xbd907bec	-0.07054886
152	0x3d0912e8	0.033465296
153	0xbdac8161	-0.084231146
154	0x3d63979f	0.05556452
155	0x3ca78d3e	0.020453092
156	0xbd8c618b	-0.06854542
157	0xbc88abdf	-0.016683517
158	0x3c3a3e57	0.011367402
159	0xbe02ecd8	-0.12785661
160	0x3dbb6ab3	0.09151211
161	0xbd73e1ce	-0.059541516
162	0xbb2f6208	-0.0026761312
163	0xbd905f19	-0.070493884
164	0xbd2a9bd2	-0.041652508
165	0x3e4acc5a	0.19804516
166	0x3da7b431	0.08188666
167	0xbbd5a320	-0.00651969
168	0x3cc9e24e	0.024644043
169	0x3d13b9fc	0.03606604
170	0x3c7aa33e	0.015297709
171	0xbdeb7d8b	-0.11498555
172	0xbe265acb	-0.16245572
173	0xbe14f0fa	-0.1454505
174	0xbd3355a4	-0.043782845
175	0x3cc33aee	0.02383181
176	0xbe4498a8	-0.19198859
177	0xbc4315b9	-0.011907035
178	0xbe10f35c	-0.14155334
179	0x3e3b620d	0.18299122
180	0xbdc85cc2	-0.09783317
181	0xbd8b9b90	-0.068167806
182	0xbdce4a7b	-0.100728
183	0x3da87a7f	0.08226489
184	0xbe184dc7	-0.1487342
185	0xbe90aa4e	-0.28254932
186	0x3d6819e1	0.056665305
187	0x3d372d20	0.04472077
188	0x3d0dbae7	0.034602072
189	0x3e9deec8	0.30846238
190	0x3e034b85	0.12821777
191	0xbe2097b1	-0.15682866
192	0x3eaef9e8	0.34175038
193	0xbd6db37e	-0.058032505
194	0x3d3a6a72	0.04551167
195	0x3e1caa0f	0.15299247
196	0x3da3556c	0.07975277
197	0x3de58f67	0.112089925
198	0x3dba6515	0.09101311
199	0xbea0b7f3	-0.31390342
200	0x3dd64fd0	0.10464442
201	0x3d3c38a5	0.045952458
202	0xbe380f05	-0.1797448
203	0xbd6ed7a5	-0.058311123
204	0x3c71b2b4	0.014752079
205	0xbe264c5e	-0.1624007
206	0xbe11659f	-0.14198922
207	0x3e6b43c2	0.22975066
208	0xbc7bddf8	-0.015372746
209	0xbe5981b6	-0.21240887
210	0xbcfd73f8	-0.030939087
211	0xbea0d152	-0.314097
212	0x3e2196ce	0.15780184
213	0xbe1f95ef	-0.15584539
214	0x3b9aebb6	0.004727806
215	0x3e285420	0.16438341
216	0xbc987588	-0.01861073
217	0xbd9f5538	-0.07779926
218	0xbdea64a4	-0.11444977
219	0xbe369566	-0.17830428
220	0xbe660786	-0.22463807
221	0xbd86cb77	-0.065817766
222	0xbe02fe23	-0.12792258
223	0x3cfcef50	0.030875832
224	0xbc442f39	-0.011974149
225	0x3ed96ec0	0.42467308
226	0xbe98c147	-0.2983496
227	0x3cfce13c	0.030869119
228	0xbbe47106	-0.0069714813
229	0x3db380ec	0.08764824
230	0x3b78c404	0.0037958631
231	0x3d22317a	0.039597966
232	0x3d0760dc	0.033051357
233	0xbe96516a	-0.2935899
234	0x3e19906b	0.14996497
235	0xbeda83a4	-0.4267856
236	0x3e381e36	0.17980275
237	0x3e5893b3	0.21150093
238	0x3e42f6a4	0.19039398
239	0x3c05f566	0.008176183
240	0x3d953a52	0.07286514
241	0x3e2d60cf	0.16931461
242	0x3efe98af	0.49725863
243	0x3ec9cf2a	0.39415866
244	0xbbc033d3	-0.005865553
245	0xbf055e2e	-0.5209683
246	0xbdf89895	-0.12138478
247	0x3d3803b7	0.044925418
248	0xbd2c61e5	-0.042085547
249	0x3d062ba3	0.03275646
250	0x3e851aba	0.25996953
251	0xbe0b4d55	-0.13603719
252	0xbe2aed4b	-0.16692083
253	0x3dbd2e62	0.092373624
254	0xbda6f362	-0.0815189
255	0x3e8d1205	0.2755281

output.bias f4 [9]
0	0xbbb6c37e	-0.0055775037
1	0x3d1fea76	0.03904196
2	0x3cfd8f5c	0.030952148
3	0x3a8ddf86	0.0010824061
4	0x3da4d62a	0.08048661
5	0x3ef17156	0.4715678
6	0xbe424bac	-0.18974179
7	0x3e24ee0d	0.16106434
8	0x3e9214e3	0.2853156
